NO_QM/src/pdbbind/kiba_model.pt (torch, 544693 bytes, 16 tensors)

conv1.nn.0.weight f4 [128, 14]
000000 f3 e4 9d bd 43 5c 55 3e 01 e9 c8 bd 2b b9 88 be
       -0.07709684 0.20835976 -0.09810067 -0.26703772
000010 f3 1c 73 3e c2 5c 42 3e d8 16 18 bf a8 9b 3c 3d
       0.23741512 0.18980697 -0.59409857 0.046046883
000020 6a f3 8b 3e df 7f 45 be 6f 6a c5 3c 19 8a 87 be
       0.27334148 -0.1928706 0.024098603 -0.26472548
000030 bf 75 4f be 47 eb 20 3f 84 62 f9 bd 0d 53 5a 3e
       -0.2025976 0.62859005 -0.121769935 0.21320744
000040 ed f3 7b be db 0b 46 be 6e 92 2a be 21 f5 97 3e
       -0.24604769 -0.1934046 -0.16657421 0.29679206
000050 8f 20 34 bf d4 3e 65 3d 92 c0 56 3e e9 eb e5 bd
       -0.7036218 0.05596812 0.20971897 -0.11226637
000060 25 50 01 bd 77 3b e8 3d 55 bb db be 9c 74 54 3e
       -0.031570572 0.11339467 -0.4291636 0.20747608
000070 92 95 0e bd a1 69 85 3e 91 90 13 be f2 c0 dc bc
       -0.03481061 0.2605715 -0.14410616 -0.026947472
000080 b1 f9 db bd 47 df 25 be 02 93 c9 be ad a5 09 be
       -0.10740984 -0.16198455 -0.3936997 -0.13442107
000090 df ef 5d be 3b 42 ef 3d 8d e7 a5 bd 13 7d 82 bd
       -0.21673535 0.11682554 -0.081008054 -0.06371512
0000a0 4b c5 a7 be df 80 70 3e 8f 08 15 be 08 ca e9 3d
       -0.3276771 0.2348666 -0.14554046 0.114154875
0000b0 cc 9a c8 bd ab 1d 86 3e 69 d9 50 bd f0 b1 db 3d
       -0.0979515 0.2619451 -0.05098859 0.10727298
0000c0 d2 b8 73 be 3f 9a 01 be ba 74 f0 3d 01 d6 57 be
       -0.23800972 -0.12656496 0.11741014 -0.2107773
0000d0 3a 7c 15 3e 9b 79 59 3e 06 d7 30 be 40 44 e3 3d
       0.1459817 0.21237795 -0.17269525 0.11097002
0000e0 58 eb 23 3d 6b 78 0d 3d b9 c5 0f bf 75 f2 24 bf
       0.040019363 0.034538668 -0.56161076 -0.6443246
0000f0 bf e1 ae 3d d1 e5 78 bd 03 05 f0 be f9 0c ff 3c
       0.085391514 -0.060766045 -0.46878824 0.031134116
000100 02 21 6a be 4f 8f db bd 51 de 40 3e 99 b9 a8 bd
       -0.22864154 -0.10720693 0.18834807 -0.08238525
000110 a8 a0 31 3e a2 40 b5 be d1 98 88 3c 34 34 5b bd
       0.17346442 -0.35400873 0.016674431 -0.05351658
000120 69 ce b9 be a4 91 f5 3e dd b7 30 3c cc 9f 00 3e
       -0.3629029 0.47962677 0.010786024 0.12560958
000130 42 a2 42 3f a5 3b 22 be be 7b e4 bd a7 3a eb 3d
       0.76028836 -0.15843065 -0.111564144 0.114857964
000140 7b c4 b9 3d 95 8a 51 3d 40 e2 e3 3e 0b 94 e3 3d
       0.09070679 0.051157553 0.44508553 0.11112221
000150 8c 4f 1d 3e c4 29 61 be 08 e4 2a be 13 ea b3 3e
       0.15362376 -0.21988589 -0.1668855 0.35139522
000160 9d 40 74 3e 57 94 80 bd f7 9b 31 3f 08 c7 1b 3e
       0.23852773 -0.062782936 0.6937861 0.15212643
000170 31 72 2f be ea 89 86 3e ad 07 61 3e 42 ff 2b be
       -0.17133404 0.26277095 0.21975584 -0.16796592
000180 14 bd 08 3f e9 ac eb be 6e 10 70 be 75 6e 8b 3d
       0.5341351 -0.46030357 -0.23443767 0.068081774
000190 a7 93 95 3d c4 33 01 be a1 d2 59 be 26 84 71 3e
       0.07303553 -0.12617403 -0.21271755 0.23585567
0001a0 f3 cd 7e be 55 62 a3 bd 59 81 67 3e 3a b6 b1 3d
       -0.24883251 -0.0797774 0.22607936 0.08677335
0001b0 05 2f de 3d c6 c2 e6 bd a3 6a 5e bd 01 90 0f be
       0.10848812 -0.11267619 -0.054300915 -0.14019777
0001c0 dd 13 5c 3d 31 15 fa 3d ed fb 2e bd 06 e3 cc be
       0.05372988 0.12211073 -0.042720724 -0.40016955
0001d0 32 b8 40 3d 7b e7 6f 3d ab 43 f5 bb 7d 57 ad be
       0.047050662 0.058570366 -0.0074848733 -0.3385581
0001e0 ce ed 20 be f4 99 1f be 4c a5 42 be 64 2d e9 bd
       -0.15715715 -0.15586072 -0.19008368 -0.11385611
0001f0 7f e7 09 bd c3 08 1b bf b8 74 16 bd 11 a9 09 bb
       -0.033668038 -0.60560244 -0.036732405 -0.0021005312
000200 9b 83 ba bd d5 d2 9d 3d 4c 56 9a 3b 36 ef 1a be
       -0.09107133 0.07706229 0.0047099944 -0.15130314
000210 c4 1c 4a be 2d cd 2e be ec 58 58 3e 9e d1 8c 3d
       -0.19737536 -0.17070456 0.21127671 0.06875919
000220 15 fb 03 be 91 71 71 be 99 9d fa bc 7b 84 71 bd
       -0.12888749 -0.23578478 -0.030592727 -0.058964234
000230 a1 10 02 3e b8 1a 86 be 40 f9 31 3e b6 d4 64 3e
       0.12701656 -0.2619226 0.17380238 0.22346768
000240 bd f9 65 bc 06 6e 2a 3e 9b ce 1e 3f 41 8a fe bd
       -0.014036593 0.16643533 0.62034005 -0.124287136
000250 6c df bf 3e 4e 72 3b be 35 a4 38 3e 50 71 87 bc
       0.37475145 -0.18305323 0.1803139 -0.016533524
000260 c1 57 6d 3e 7a 6f 09 bf d1 28 dc 3d 80 5e 04 be
       0.23178007 -0.53685725 0.107499726 -0.12926674
000270 71 81 ae 3d a2 08 fe be e4 d6 0a bd 01 a6 39 3e
       0.08520783 -0.4961596 -0.033896342 0.18129732
000280 62 72 99 be b1 2e 84 bd 4a 68 36 3e df f8 aa bd
       -0.2997008 -0.06454218 0.1781322 -0.0834825
000290 94 d0 3d be cf 4d 8a be 5d 20 f2 be 81 51 a4 bd
       -0.18536597 -0.27012488 -0.47290316 -0.08023358
0002a0 01 d7 03 3e 52 06 72 be cc 35 ff 3e 03 7b 72 3e
       0.12874986 -0.23635224 0.4984573 0.23679738
0002b0 78 96 9f bc 6b a4 d2 b9 eb 72 8c 3c e8 0e 05 3e
       -0.019480929 -0.00040176822 0.01714464 0.12993968
0002c0 86 9c 36 bd a3 8d ce 3b 9f bf 3c 3e 87 40 80 be
       -0.044582866 0.0063035055 0.18432473 -0.2504923
0002d0 81 3c ae 3e fb 85 8f 3e 72 12 07 3e 8b 36 33 be
       0.34030536 0.28031906 0.1319063 -0.17501275
0002e0 9c e2 b1 3e 39 9e 4f bd a8 f9 ea 3d 12 9f ef bd
       0.34743202 -0.050688002 0.114733994 -0.11700262
0002f0 4a f7 d2 3e e5 46 12 be be 7c 8a 3e de 3e 56 be
       0.41204292 -0.14284857 0.27048296 -0.2092242
000300 a3 6a cd 3d 58 df b3 bd 90 b7 00 3f 24 c7 db be
       0.10030105 -0.08782834 0.50280094 -0.4292537
000310 0b bc 22 3c bb da f2 3d 65 79 e3 be c3 79 fd be
       0.009932528 0.11858126 -0.44428554 -0.4950696
000320 84 51 cf 3c 2f f9 68 be 35 31 1b be 7f 42 ed 3d
       0.025307424 -0.22751306 -0.1515549 0.11584949
000330 fc f1 02 bc e2 6e 73 be ba ef 9b 3d 67 ad c3 3d
       -0.007992264 -0.23772767 0.076140836 0.09554558
000340 13 06 5d 3d 5e 56 47 3d d8 d0 9c bc f9 08 70 be
       0.05396087 0.04866635 -0.019142553 -0.23440923
000350 c5 99 51 3e 47 12 3f 3e df 13 cb bd 6e c6 08 3e
       0.20468815 0.18659316 -0.099158995 0.13356945
000360 18 80 18 be 83 be 1d be 16 38 2b 3e f4 fa 7f be
       -0.14892614 -0.15404706 0.16720614 -0.24998075
000370 fe 5e 34 3e a2 5e 72 be d5 fa f2 bd 6a ba 01 3e
       0.17614362 -0.23668912 -0.11864249 0.12668768
000380 de 1c a0 3d 43 5d cf 3b 19 6b 33 bf 6e ba 7c bb
       0.07818006 0.0063282563 -0.70085293 -0.003856327
000390 b8 69 c1 be 29 2e 49 3e d9 49 ab bc 62 74 b3 3c
       -0.3777597 0.19646515 -0.020909237 0.021906082
0003a0 a0 92 31 3e d9 09 f3 3d b8 a1 90 bd ff e6 b9 be
       0.17341089 0.11867113 -0.070620954 -0.3630905
0003b0 fb a5 9a 3e a0 22 4f 3e a8 69 63 be 03 05 df bd
       0.30204758 0.20228052 -0.22208273 -0.10889628
0003c0 c4 ce 52 3e ea bb 39 3c e9 c3 03 bd 75 96 a6 bd
       0.20586687 0.011336306 -0.032169256 -0.08134166
0003d0 9f a8 2b be 56 70 7d 3c bb e4 43 bd 68 31 17 bd
       -0.16763543 0.0154686775 -0.047825556 -0.03691235
0003e0 3e f3 47 3e f7 93 81 3d 5e b4 e9 bc 9b ad b0 3d
       0.19526383 0.0632705 -0.028528389 0.086268626
0003f0 ae ef fb 3d a4 b5 9a be ab 90 55 3e e0 11 5a 3e
       0.12301575 -0.30216706 0.20855968 0.21295881

conv1.nn.0.bias f4 [128]
000000 90 61 34 be bf 9a 99 3e ce 80 43 3e b3 e2 50 be
       -0.17615342 0.30000874 0.19092104 -0.20398979
000010 2f bd 44 3e b0 9b 52 be 08 20 d4 3c 0b d3 38 be
       0.19212793 -0.20567203 0.02589418 -0.18049257
000020 cb 3b 92 be 20 b4 f3 bc c4 31 e2 3d 3e 1f 2d be
       -0.28561243 -0.029748976 0.11044648 -0.16906449
000030 ac be 74 be 7d c1 fc 3d 89 a3 b4 be 6e 5b 5e 3e
       -0.2390086 0.123415925 -0.35281017 0.21714565
000040 c8 eb 32 be 0c 95 11 bc e0 28 ae be 88 ba 6a 3e
       -0.17472756 -0.008885633 -0.3401556 0.22922719
000050 e8 64 80 be 9b be 50 3e 2f 42 b6 bd 74 a5 a8 bc
       -0.25076985 0.2038521 -0.08899342 -0.020586707
000060 9d 08 4f be 17 34 44 be e3 3b 30 be d2 d1 af 3d
       -0.2021813 -0.19160496 -0.17210345 0.08584942
000070 f7 08 56 bd a8 79 50 be 48 da e3 3d d6 5e 1a 3d
       -0.052254643 -0.20358908 0.11125618 0.0376881
000080 9a 96 58 3e 51 b9 05 be 5d 95 85 be c3 39 32 bb
       0.211512 -0.13058974 -0.26090518 -0.0027195073
000090 7a f6 69 3e 45 31 0c 3d 9a 31 3c 3a ed 03 c1 3c
       0.2284793 0.034226675 0.0007179022 0.023561442
0000a0 22 58 14 be 1c 5f 6f 3e b8 be a1 be 61 af 55 3e
       -0.14486745 0.23376125 -0.3159082 0.20867683
0000b0 07 e7 b4 bb 51 c7 9e be ac 31 b4 be 53 64 5e be
       -0.0055207047 -0.3101144 -0.35194147 -0.21717958
0000c0 d4 3f 6d be 1b ac ea 3c 67 f8 46 3e 54 64 d6 bd
       -0.2316888 0.02864652 0.19430695 -0.10468355
0000d0 17 c4 2f be 79 35 71 3d 72 1e 08 bd 85 86 1f 3d
       -0.17164646 0.058888886 -0.03323216 0.038946647
0000e0 df 91 31 3e eb 92 20 be 10 b0 17 be 4f 36 50 be
       0.17340802 -0.15681045 -0.14813256 -0.20333217
0000f0 1c 03 53 be 42 e9 1a 3e 9b 6a e4 3d c5 6d 89 be
       -0.20606655 0.15128043 0.11153146 -0.2684156
000100 c1 4a 3d 3e 97 06 6e be c0 70 3f be ae ac 02 be
       0.18485548 -0.23244701 -0.18695354 -0.12761185
000110 b2 a6 6a be 54 e5 c1 3d 72 dd 50 3e 6a ac ff 3d
       -0.22915152 0.09467569 0.20396975 0.12484057
000120 e9 3e 8a bd 91 12 82 be f5 b2 95 3d 12 76 0f be
       -0.067502804 -0.2540479 0.07309524 -0.14009884
000130 41 60 da 3b bf 18 a1 bd 6b 78 46 bd 37 50 87 3d
       0.0066643064 -0.07866048 -0.048454683 0.06607097
000140 81 7c c0 be 01 8f 12 be a3 66 4f be d8 ef 59 3e
       -0.3759499 -0.14312364 -0.20253997 0.212829
000150 45 88 ad 3d 08 06 30 3e 8b 57 54 be 1c 7c 09 be
       0.08473257 0.171898 -0.2073652 -0.1342625
000160 58 37 42 be 3a 2a 28 3e 3c ab 65 be b5 ce 23 3e
       -0.18966424 0.16422358 -0.22428602 0.15996821
000170 ec 4b aa 3d 85 e6 82 be 65 28 df bd 18 52 a1 3b
       0.08315262 -0.25566497 -0.108963765 0.0049231164
000180 87 98 1a 3e 8c 6c 8d 3e 00 a4 28 be c0 35 a4 bd
       0.15097247 0.27621877 -0.16468811 -0.080180645
000190 7b 77 11 be 9d 40 75 3c 8d de ce 3c 80 32 13 bc
       -0.14205734 0.014969018 0.025252605 -0.008984208
0001a0 34 82 80 be af 81 0b 3d f9 a3 4f bd f0 8b 9b bd
       -0.25099337 0.034059223 -0.050693486 -0.0759505
0001b0 8d c3 53 bc 22 78 82 be f7 0d f2 3d 97 29 bb bd
       -0.012925041 -0.2548228 0.1181907 -0.09138792
0001c0 21 56 6c be f5 cb 99 3d 26 70 9b be 66 d0 d0 bb
       -0.2307973 0.07509605 -0.30359 -0.0063724993
0001d0 95 8b 6f be 73 33 03 be 81 eb a7 bc 8c 51 1e be
       -0.2339309 -0.12812595 -0.02049804 -0.15460795
0001e0 2e e0 49 3e 60 da 84 be e2 57 86 3d 5d 01 76 3e
       0.19714424 -0.25947857 0.06559731 0.24023958
0001f0 c4 83 87 be 49 8a 2b be b7 58 12 3e 0a c7 2c bc
       -0.26467717 -0.1675197 0.14291655 -0.0105455015

conv1.nn.2.weight f4 [128, 128]
000000 34 52 f2 3d 42 17 ea 3d c2 cf b2 3c c3 a0 a2 3d
       0.11832085 0.11430217 0.021827582 0.07940819
000010 1f 5f ac bd a4 dc 2c be 0e 85 18 be 92 0c c6 3c
       -0.084165804 -0.16881043 -0.14894506 0.024175916
000020 72 3e 04 be 45 8c ec 3c 64 1e 00 be 17 ab fd bd
       -0.12914446 0.02887548 -0.12511593 -0.123861484
000030 83 04 13 bd 70 ae 85 be 21 24 07 be 32 cd 67 3c
       -0.035892975 -0.26109648 -0.13197376 0.0141480435
000040 cc b7 e2 3b dc 3c 43 3d 1c ab 87 bd 2f 6c 36 be
       0.006918883 0.047665462 -0.066244334 -0.17814706
000050 f2 ae 97 bd 4c 4a d8 bd 8d b0 ec bc 35 b2 21 be
       -0.07406415 -0.10561046 -0.02889278 -0.15790637
000060 8e 3f 44 bd 96 28 86 bd 67 0d 72 3d 87 6d 25 be
       -0.047912173 -0.0655071 0.059094813 -0.16155063
000070 46 03 bd 3c b1 be ad bd c9 24 4b 3d 76 bb 58 3e
       0.02307285 -0.08483637 0.049595628 0.2116526
000080 f0 16 6c bd b8 06 6c bd c1 50 11 bd 24 64 50 bd
       -0.057639062 -0.057623595 -0.035477404 -0.05087675
000090 47 0b cd bd fa ef bc 3c fc 67 21 bd 97 56 7a bc
       -0.100119166 0.023063648 -0.039405808 -0.015279434
0000a0 be ab d6 bc 9b 6f 8e 3d 87 24 f8 bd 27 86 38 3d
       -0.02620494 0.06954881 -0.12116342 0.045049813
0000b0 b2 55 86 bd 20 eb b9 bd d1 29 89 bd ac 3b 6a 3d
       -0.06559314 -0.0907805 -0.06697429 0.057185814
0000c0 5c e7 83 bd c7 55 18 bd 55 5f 45 bd df 11 c5 bd
       -0.06440613 -0.03719118 -0.04818662 -0.09622549
0000d0 5d 98 23 3d 58 6f 1c bc 7a 2a 49 be 49 1f 4f 3d
       0.039940227 -0.009548031 -0.1964511 0.050566945
0000e0 e7 a7 dd 39 ed 60 9a bc 3d 52 47 bc ee 3e 34 be
       0.00042277502 -0.018845046 -0.012165603 -0.17602131
0000f0 5e 36 7b 3d 3c 6a f5 ba aa aa a3 3c 4e 39 4e 3d
       0.061331145 -0.0018723677 0.01997884 0.05034762
000100 c2 bf 6e 3d 0f c8 05 3d c9 d0 93 3d 06 68 99 be
       0.058288343 0.032661494 0.07217557 -0.29962176
000110 a2 60 63 3c 51 91 8e bd da 1c f1 3b 09 ff b4 bd
       0.0138780195 -0.06961311 0.0073581757 -0.088377066
000120 66 31 85 bd 39 c8 c4 3d a1 4a c0 bc bd c6 79 3d
       -0.06503563 0.09608502 -0.023473086 0.060980547
000130 91 2e 18 bc e6 8e 92 bd a7 15 0d be 18 d0 4f bd
       -0.009288446 -0.07156162 -0.13777791 -0.050735563
000140 aa 81 82 bd 6f 9e 6c 3c 62 40 65 3d a9 ac 3a 3c
       -0.06372388 0.01444207 0.055969603 0.011393704
000150 3d 3a 1a 3e e0 fc 51 3d 68 85 f7 3c 6a 39 51 bd
       0.15061279 0.05126655 0.03021498 -0.051080145
000160 73 60 29 bc 45 6f 9f be 06 0d fe bc d3 5d 50 3d
       -0.010337937 -0.3113958 -0.03101207 0.050870728
000170 3e 55 5a bd b6 75 0f 3d 23 7b 33 be 3d 5f ce bd
       -0.05330395 0.035024367 -0.17527442 -0.10076759
000180 77 fa 75 3d b8 72 36 3d 86 af 2f bd 8d 9f 1a 3d
       0.060053315 0.044542998 -0.042892 0.037749816
000190 2f 00 fb 3c 66 9e 01 bc 88 d6 a6 bc 62 e5 0c 3c
       0.030639736 -0.0079113 -0.020365968 0.008599611
0001a0 6a 10 36 3d fe 71 38 bd fc f5 d1 ba 9b 56 5d 3d
       0.044449247 -0.045030586 -0.0016018744 0.05403767
0001b0 21 9b 09 bd af e9 aa bd 2b 7f 04 be d1 c7 78 bd
       -0.033595208 -0.08345353 -0.12939136 -0.060737435
0001c0 d5 85 84 3d 11 0f a9 3d 5d 84 99 be 52 8f 0a be
       0.06470839 0.08254827 -0.29983798 -0.13531235
0001d0 c0 97 6f be 71 26 74 be 8a 78 05 3d 9c 3e 70 3d
       -0.23397732 -0.23842789 0.032585658 0.05865346
0001e0 50 00 e4 bd 1f 00 76 bd a1 f6 81 be 23 a0 ad 3b
       -0.11132872 -0.06005871 -0.25383475 0.005298631
0001f0 6b c7 ed bc 9d 24 8b bc b8 43 85 bd d1 f9 da 3b
       -0.029025754 -0.016985232 -0.06507057 0.0066826125
000200 e6 4c df 3d f3 c8 e4 bb 90 40 e6 3d a9 fc 61 bd
       0.10903339 -0.006981963 0.11242783 -0.055172596
000210 08 90 56 be 4d 31 23 bd 36 12 87 be d3 a7 57 bd
       -0.20953381 -0.03984194 -0.2638108 -0.052650284
000220 81 07 8a be b9 d6 5c 3d a9 d5 88 be db 57 d2 bc
       -0.2695885 0.053915713 -0.2672551 -0.025676658
000230 aa fb a0 3d 2d 5b 91 be ca 6c 1d be 3f f3 97 bd
       0.07860501 -0.28389874 -0.15373531 -0.074194424
000240 14 77 31 bd b7 b1 33 3c d9 f1 92 be 58 92 81 be
       -0.043326452 0.0109676635 -0.2870014 -0.25306964
000250 b1 aa d4 3c 83 0c 02 be 53 8e b7 3c f7 45 78 be
       0.025960298 -0.12700085 0.022406733 -0.2424544
000260 63 fa 55 bc f3 30 ef 3c b5 24 47 3d 6b 75 4c be
       -0.013060185 0.029198145 0.04861899 -0.19966666
000270 9b fe 93 bc 9c ec e4 bc ee 51 a1 3d c1 43 48 3e
       -0.018065741 -0.027944855 0.07876955 0.19557096
000280 6e df ac 3b 2d 0a 26 3c 6d 02 b5 bd 02 2a 12 be
       0.0052756583 0.010134262 -0.08838353 -0.14273837
000290 91 32 5f 3d 42 7d cc bc 42 df 11 be bd 65 9c bd
       0.054491583 -0.024962071 -0.14245322 -0.076365925
0002a0 50 1b b4 3d fe 34 8a 3d dd 04 03 3d 66 20 84 3d
       0.08794272 0.06748389 0.03198706 0.06451492
0002b0 d6 54 a3 bd a4 30 dd bd d3 11 ee 3b 6b 8e 24 3b
       -0.079751655 -0.10800293 0.0072653084 0.0025109302
0002c0 cd 30 8f 3d 18 80 bf bd 99 0d 6e bd 17 68 a1 bd
       0.0699173 -0.09350604 -0.058118436 -0.07881182
0002d0 41 f1 97 3c 7c c8 ae bd bc 22 9b be e2 38 23 bb
       0.018547656 -0.08534333 -0.30299938 -0.002490573
0002e0 ca 62 43 3b 8e 77 b3 3d e2 e5 0c 3d 87 fd ac bc
       0.0029813522 0.087630376 0.03439892 -0.021116985
0002f0 25 3d d6 3b 8b 68 d7 bd a9 5e 5d 3d 9e e8 06 3e
       0.0065380507 -0.10517987 0.054045353 0.13174674
000300 92 c6 2b bc 6a 6e 1a bc 21 e4 4f 3d 60 76 0a be
       -0.010484355 -0.009425739 0.05075467 -0.13521719
000310 20 a5 a0 3d d3 94 4c bd c2 5a 27 3d fd b3 81 3c
       0.07843995 -0.049946617 0.040858038 0.015832895
000320 e6 b0 96 3d 16 61 b9 bc dc 47 8b bc 56 8e 96 3d
       0.073579594 -0.022629302 -0.017002039 0.07351367
000330 4a e6 dd 3d 40 76 bc 3c ee 43 67 be d4 45 81 3d
       0.1083494 0.023005605 -0.22584507 0.06312147
000340 fd 14 a7 bb e7 0d 9e bd 86 6d 33 bd fb 33 3a bd
       -0.0050989375 -0.077174954 -0.04380562 -0.04545973
000350 77 ff 1e 3e 0f 88 1a 3d 6a 30 50 3d 6f ee 81 bd
       0.1552714 0.03772741 0.05082742 -0.06344306
000360 2b 1f 63 3d e2 eb b3 bd 4a 1f be 3c e2 ff 8f bd
       0.055449646 -0.087852255 0.02320828 -0.07031228
000370 a3 fd 95 3d c6 f9 00 bc 33 6c c9 bd fd 7d 6d bd
       0.07323768 -0.007872051 -0.098350905 -0.05798148
000380 55 76 ab 3d 88 8a 43 be b4 bd 2c bd 2a 21 90 3c
       0.083721794 -0.19095814 -0.042173102 0.017593939
000390 dd 69 90 3c 37 84 24 3c 67 c3 9c 3c cb 5d 58 bb
       0.017628605 0.010041288 0.019136144 -0.003301489
0003a0 e9 7f 84 3d 6b 84 fe bc ff 23 d9 bd f4 b6 be bc
       0.064697094 -0.031069001 -0.10602569 -0.023280598
0003b0 16 09 b4 bd 20 4f 4b bc 12 8c d2 3d 6e 55 c1 bd
       -0.087907955 -0.012409002 0.102806225 -0.094401225
0003c0 51 cc d2 bb 29 87 98 bd 8e ae 8d bd 8b e5 1e be
       -0.006433048 -0.07447655 -0.06918059 -0.15517251
0003d0 5d cd 8e be b1 3a 25 3e 4d 14 e1 3c 47 c8 94 3d
       -0.27891055 0.1613567 0.0274755 0.07264762
0003e0 da 32 14 3d 8c e0 3c 3d 6c 90 80 bd 2d ad 53 3c
       0.03618131 0.046112582 -0.06277546 0.012919706
0003f0 9f c9 7f 3a af 3e 34 bd 30 00 f6 bc 19 34 31 bc
       0.0009757522 -0.044005092 -0.030029386 -0.010815644

conv1.nn.2.bias f4 [128]
000000 a8 aa c7 bd 3d ad 39 bd 36 dc e6 3b 50 31 5c bd
       -0.09749347 -0.04533123 0.007045294 -0.053757966
000010 40 e2 54 3d c5 6a 81 3d ba 39 b9 bd 54 bb 9c bd
       0.05197358 0.06319193 -0.090442136 -0.076529175
000020 68 2a 2b bd c7 7a 2e bd 01 3d 3a bd 90 f0 0d 3d
       -0.04178849 -0.04259756 -0.045468334 0.034653246
000030 7d c4 a9 bd c3 f6 64 bd 9e b7 a9 bd 3e 3c 22 3d
       -0.0828943 -0.055899393 -0.08286975 0.039608233
000040 c2 92 82 bd 22 bc b0 bd a6 a1 75 3d 19 fd 37 3c
       -0.06375648 -0.086296335 0.059968613 0.011229777
000050 b9 6d bb bd d7 92 53 3c dc 41 0e bc 47 03 9c bd
       -0.09151787 0.012913427 -0.008682694 -0.076178126
000060 33 b3 c5 bd 8e 73 63 bd d0 48 73 bc 04 44 bc bd
       -0.0965332 -0.055530123 -0.014848903 -0.091926605
000070 56 04 a2 bd bf 7b a8 bb 5e 7a 14 3d a4 70 17 be
       -0.07910983 -0.005141705 0.03624951 -0.14789063
000080 28 67 dc bd 5a 78 ca bd 9c 8a 55 bd 94 2b d4 3c
       -0.10761863 -0.098862365 -0.05213414 0.025899686
000090 75 12 a7 bd d1 06 38 3d 6a c1 8c 3d eb 08 04 be
       -0.08157817 0.044928376 0.06872828 -0.12894027
0000a0 a8 a8 56 bd 9e cc d0 3c 39 cf 73 bd 07 94 bb bd
       -0.052406937 0.025488194 -0.059523795 -0.09159093
0000b0 a1 1d 48 3d 6e 62 ce 3c 7a 3e 76 bd 34 a3 9e bc
       0.04885638 0.02519342 -0.060118176 -0.01936493
0000c0 2a 25 ef 3c d7 69 bf bd 17 fc 76 3c e3 b3 c3 bd
       0.029192526 -0.09346359 0.015074751 -0.09555795
0000d0 c6 82 4b bd 15 dd ac bd 65 89 2a bd 0c 0f bc bd
       -0.049685262 -0.084406056 -0.041634936 -0.091825575
0000e0 09 f3 07 3d 07 67 db 3c dd a0 37 bd 7d c0 03 bd
       0.03319076 0.026782526 -0.044831146 -0.032165993
0000f0 94 8f f8 3c d1 71 a9 3c c2 22 b6 bd e0 70 0b bc
       0.0303419 0.020684155 -0.08893348 -0.008510798
000100 a2 92 b0 bd a6 25 9c bd 07 45 0b 3d 94 a0 09 be
       -0.08621718 -0.07624368 0.034001376 -0.13440162
000110 48 f2 4e 3d 77 8c 2e 3c db fd f4 3d 06 30 26 3d
       0.050524026 0.010653607 0.119624816 0.040573142
000120 b9 01 6c bd 75 13 af bd ab 01 8c 3d 87 db 9f 3d
       -0.05761883 -0.08548633 0.06836256 0.078055434
000130 ac 35 f7 3a 1b 19 89 bd 4d 34 d9 3b 8a ba cc bd
       0.00188606 -0.066942416 0.006628549 -0.09996517
000140 22 46 63 3d 7e 4f 0b be 9d c7 d2 3a 89 03 be bc
       0.055486806 -0.13604543 0.0016081218 -0.023195045
000150 ae 55 f2 3b 9b 8e 45 bd a8 aa 8a 3d eb d3 a5 3d
       0.0073954677 -0.048231702 0.06770831 0.08097061
000160 57 28 5d 3d fe e9 25 3d 87 89 68 bd 2c 6b ed bd
       0.05399355 0.040506355 -0.05677178 -0.11592707
000170 c8 41 2c 3d 66 e9 c6 3a a7 8e 55 bd c7 5e 9e bd
       0.04205492 0.0015175759 -0.052137997 -0.07732921
000180 a6 ce b7 bd 2a 85 25 be 14 d5 16 be 06 65 3f bc
       -0.08974962 -0.1616408 -0.1472972 -0.011681801
000190 d7 33 44 bc 62 d1 4f bd 22 45 8d bd a1 2f 8b 3c
       -0.01197525 -0.050736792 -0.06897952 0.016990485
0001a0 e2 6e 44 3d bc ec c4 3c 09 f7 27 bd c9 e8 25 bc
       0.04795731 0.024038665 -0.041007075 -0.010126301
0001b0 b2 0a 53 3d 83 4c 7d bd fa 25 60 3c bd b2 95 3d
       0.05152387 -0.061840545 0.013680929 0.07309482
0001c0 d9 4e ea bc 29 9a d3 bd 45 be e8 3c 81 1e a3 3c
       -0.02860205 -0.10332138 0.02841104 0.019912006
0001d0 5e 6b 44 bd 73 a2 7f 3d ba 2c c5 3c 51 e5 d8 3b
       -0.047953956 0.062410783 0.024069179 0.0066191335
0001e0 33 eb 1f 3c 8a 83 45 bc a4 af 37 3d 2a 00 a8 3b
       0.009760666 -0.012055287 0.04484524 0.0051269727
0001f0 8b b1 8a 3e c9 7f a1 bd 5c 34 33 bd 90 cf 5d bc
       0.2708858 -0.07885701 -0.043751106 -0.013538256

conv2.nn.0.weight f4 [128, 128]
000000 97 ea a7 3d 0e b0 48 bb d7 d9 8f 3d e9 c9 96 3c
       0.08199041 -0.0030622515 0.070239715 0.018406825
000010 5c b0 9e ba e1 87 9e bd 69 1d ab bc 5b 22 93 3d
       -0.0012107003 -0.077407606 -0.020888047 0.07184287
000020 46 db 34 3d d0 51 56 3c fe a2 f3 bc 86 5a 06 bd
       0.044154428 0.013081029 -0.029740807 -0.032801174
000030 5a 45 9c 3c 38 8d c4 bc f3 ca 3b bd 3e 89 ff bc
       0.019076038 -0.02399312 -0.045847844 -0.031193372
000040 37 f5 0a 3d b2 ef d0 bd 97 c9 0b bd d9 bb 09 3d
       0.03392526 -0.10201968 -0.034127798 0.03362641
000050 f8 ff 8f 3d 38 27 6d 3d cb 1d b5 bd 3c 23 76 be
       0.07031244 0.05789873 -0.08843573 -0.24036878
000060 fe b6 69 3d 33 87 34 bd bc 5e b4 3c 98 15 4a 3d
       0.05705928 -0.04407425 0.02201783 0.049337
000070 c4 63 ff 3d 6f c6 9b 3b 81 dd a9 3d 19 db e5 3d
       0.12470201 0.0047538797 0.08294202 0.1122343
000080 0a 29 85 bd 8c ff 2c 3d 14 4a e5 bc 15 93 3c 3d
       -0.06501968 0.042235896 -0.027989425 0.046038706
000090 53 8c 7d 3d 1d e5 03 be 34 8c 53 bd 7f 3d 03 3e
       0.0619014 -0.12880369 -0.05164738 0.12816428
0000a0 63 09 67 3c ef 29 a2 3d 7c eb 3b 3d a8 b0 00 3a
       0.014101359 0.079181544 0.045878872 0.00049091363
0000b0 c7 25 39 3d 0a 32 75 3d d6 ed 68 3d b0 55 d5 bc
       0.045202043 0.059862174 0.056867443 -0.026041836
0000c0 99 f1 4a 3d b6 cd 8c bd 51 2d 9c ba f9 78 b8 bd
       0.04954681 -0.06875174 -0.0011915361 -0.09007449
0000d0 44 e9 6e 3d 6d a9 75 bd 30 20 bf bc 2d ce 3b bd
       0.05832793 -0.05997603 -0.023330778 -0.04585092
0000e0 37 b4 9e bd 2e 2d b4 3d b0 f1 40 3d 32 bd 8b 3d
       -0.07749217 0.0879768 0.04710549 0.068231955
0000f0 81 f2 31 bc 7e 27 36 bd 77 a6 76 3d 6e a4 f0 bc
       -0.01086104 -0.044471256 0.060217347 -0.029375281
000100 5c a0 39 bc 30 a7 b7 3b 53 69 0f bb fa b7 66 bd
       -0.011329737 0.005604647 -0.0021882846 -0.056327797
000110 4a 43 73 be c8 79 56 3d b8 e9 62 bd 4a 12 21 be
       -0.23756137 0.052362233 -0.055398673 -0.15729633
000120 96 b8 6c 3d e7 f6 da 3c a6 3c 88 3d a4 f5 cf bd
       0.057793222 0.02672906 0.06652193 -0.10154274
000130 fe 61 a7 3c 2b 89 0d bd fd 3a aa 3d 7b 69 e1 3d
       0.020432469 -0.03455464 0.08312032 0.11006447
000140 4e e4 0b bd 17 a0 3d bd 06 42 0f 3d 95 b8 99 3c
       -0.034153275 -0.04629525 0.034975074 0.018764773
000150 f7 40 84 3c 11 49 fc ba 9b 5b 10 bc 81 15 9e bd
       0.016144259 -0.001924785 -0.008810903 -0.07718945
000160 64 36 87 3c 0a ef 86 3d 6c e3 da bc a1 15 b8 bd
       0.016505428 0.06588562 -0.026719771 -0.089885004
000170 a0 a3 2a bd 4d 36 1b 3c d8 b6 b6 3c 25 31 f0 3c
       -0.04165995 0.0094733955 0.022303984 0.029320309
000180 f6 b4 a3 bd 00 81 d9 3d 17 f7 46 3e bd 93 83 bb
       -0.079935 0.10620308 0.19430195 -0.0040154145
000190 8d 90 ac bd e3 43 27 bd 05 49 a5 3d c0 9d 18 bd
       -0.084260084 -0.040836226 0.08070568 -0.037259817
0001a0 65 65 72 bd 8f 7e 26 3d fe c9 42 3d d1 a5 a8 3b
       -0.05917873 0.04064804 0.047555916 0.00514672
0001b0 7c 2e 1a 3d 38 98 34 bd 94 22 51 3d 8b e0 5a 3d
       0.037641987 -0.04409048 0.051058367 0.053436797
0001c0 cc 9a 52 bd 5c 3c 7c 3d 68 26 1a bd 6c ec 81 3d
       -0.051417157 0.061581 -0.037634283 0.06343922
0001d0 bd ec 80 bc 5b 86 11 3d 82 18 80 bd 8a 75 07 bd
       -0.015737886 0.035528522 -0.062546745 -0.03307108
0001e0 98 28 e2 bd da 43 c3 bc 40 87 ac 3c b2 2f ec 3d
       -0.11042899 -0.023836065 0.021060586 0.11532535
0001f0 57 92 6b bd 47 1b fb bd e8 a9 8c 3b e8 7e 0a bc
       -0.057512607 -0.12261062 0.0042927153 -0.008453108
000200 95 c2 99 bd 5f 28 06 bc da bb 4b bd 61 28 79 bd
       -0.07507817 -0.008188336 -0.049739696 -0.060829524
000210 45 8a 06 3c 0a d6 02 3d 30 88 d7 3b fa d1 8b 3c
       0.008211677 0.031942405 0.006577514 0.017067898
000220 b8 a6 b0 3d 48 06 66 3d 20 0d 4e 3d eb 2f 9e bc
       0.08625549 0.056158334 0.050305486 -0.019309958
000230 83 e3 28 3d fb c5 c0 ba fb ff bb 3d 7e 57 9a bd
       0.041232597 -0.001470744 0.09179684 -0.07536219
000240 af d3 c1 3b 81 56 dc bc be 6b 15 3d 73 53 1d 3d
       0.005915127 -0.026896717 0.036479704 0.03840966
000250 5c 5e 17 3c 83 ff fa bc b5 4f c3 3d 49 a7 9e 3d
       0.009238806 -0.030639416 0.09536687 0.07746751
000260 ae 3e c1 3d 8a c2 5b 3c 5f 8b a6 bd 2e ab 41 bb
       0.09435783 0.013413081 -0.08132052 -0.0029551494
000270 ff b8 3a be d4 b1 3f bd d6 bc 86 3d 9e 2f dd bd
       -0.18234633 -0.04680045 0.06578986 -0.10800098
000280 2a 6d f6 bc bf 67 68 bd 03 71 4a bd 3b cd 5d 3d
       -0.03008135 -0.056739565 -0.049424183 0.0541508
000290 a6 8a 1f 3d a7 9a 51 3d 71 6e 8f bc 5e c7 0f 3c
       0.038950585 0.05117288 -0.017508717 0.00877556
0002a0 59 78 ca 3d ba b4 b2 bb f7 f2 32 3a c4 53 68 bc
       0.09886236 -0.005453673 0.0006826366 -0.0141801275
0002b0 c9 de 8f 3d 4a cf 37 be 53 c4 5b bd e3 7b a7 3d
       0.07024915 -0.17950168 -0.053654026 0.081779264
0002c0 5b 3f 33 bd ec 35 9d bc 6b 41 14 bd 9c 20 d7 38
       -0.043761592 -0.019190751 -0.0361952 0.00010258073
0002d0 96 b2 c1 3c 37 79 48 bc 4d 37 0e bd 13 cb 9e 3a
       0.023644727 -0.012235931 -0.034720708 0.0012114964
0002e0 70 3d 2d bc 13 88 69 3c 50 55 b3 bc 25 ec 66 3d
       -0.01057373 0.014253634 -0.021891266 0.05637755
0002f0 11 e7 8b bd a7 18 d0 3c 41 54 65 bb 00 5b 91 bd
       -0.06831182 0.02540238 -0.0034992846 -0.07097435
000300 b3 41 6c bd 65 76 3d bd 85 e3 e4 3d 71 bd 65 bd
       -0.057679843 -0.046255488 0.111762084 -0.05608887
000310 50 7e 57 bd 7c ef 03 bd 08 2e a1 bd 7d 47 05 bd
       -0.052610695 -0.032210812 -0.07870108 -0.03253888
000320 ad 24 5d 3d 3a 55 87 bd fa 9d 98 3d 7b 10 1a bd
       0.053990055 -0.066080526 0.07452007 -0.037613373
000330 f5 81 81 bd 52 22 78 3d 64 43 0a be e5 98 f7 3c
       -0.063236155 0.060579605 -0.1350227 0.030224273
000340 69 4b 86 3d 19 db c3 bc fa 39 96 bd 8b 52 82 3d
       0.06557352 -0.023908185 -0.07335277 0.063634
000350 53 42 88 bb 1d 55 0e 3d eb c5 ed bc 13 4a 0e 3d
       -0.004158297 0.03474914 -0.029025039 0.03473861
000360 ae 43 a7 3d 68 aa a2 bd a5 b9 f0 3d fb be 15 3d
       0.08167206 -0.07942659 0.11754159 0.036559086
000370 b8 e3 13 bd f9 54 03 bd af 08 f7 3c 00 1c a8 3c
       -0.03610584 -0.032063458 0.030155508 0.020521164
000380 47 89 31 bd 47 89 ff 3d db 30 a4 be 16 ec d0 bd
       -0.04334381 0.124773555 -0.32068524 -0.1020128
000390 ea 75 cc 3c 38 ed 15 3d bf 6c d7 3b 45 eb 17 3d
       0.02495857 0.036603183 0.006574243 0.037089605
0003a0 a9 5d 3b 3d 0c 95 81 bd d0 be b0 38 16 e1 81 bc
       0.04574362 -0.063272566 8.4278756e-05 -0.0158544
0003b0 11 ae 20 3b d0 05 d2 3d 2e 72 ac bb a0 a5 83 bd
       0.0024517814 0.10255015 -0.0052626347 -0.06428075
0003c0 aa 2f f2 bc 82 b0 1d 3e e8 6f f6 3c 4a 73 80 bb
       -0.029563744 0.15399364 0.030082658 -0.0039199935
0003d0 e6 83 a4 3d a7 4c 41 3d e7 d5 4c bc 9f 79 c7 3d
       0.0803297 0.047192242 -0.01250217 0.09739994
0003e0 32 07 24 3d 14 82 35 3d 05 e2 0a 3c 22 2c 45 3e
       0.040045924 0.044313505 0.008476739 0.19255117
0003f0 ef dd 0f 3e de c6 9b 3d 4b 1f 92 bd 98 43 62 bd
       0.14049505 0.0760629 -0.07134875 -0.055240244

conv2.nn.0.bias f4 [128]
000000 ed e0 a2 bd 25 db 12 be 37 18 83 bd fb c4 eb 3d
       -0.079530574 -0.1434141 -0.06401103 0.115121804
000010 6b 81 89 bd a4 44 8a 3d 26 eb 8f bd 15 7a d7 bd
       -0.06714138 0.067513734 -0.07027273 -0.10521332
000020 cf 4d c8 bd 78 cd 3e 3d 60 fa de bd e6 d8 94 3c
       -0.09780466 0.04658267 -0.10887599 0.018169831
000030 c9 95 b5 bd 21 b0 46 bb 96 e1 49 3d 75 c7 7b bd
       -0.0886646 -0.0030317383 0.0492874 -0.061469514
000040 80 8a 4f 3c fb ea b3 3c 9b 20 b1 bd a6 ef 65 bd
       0.012667298 0.021962633 -0.08648797 -0.05613675
000050 37 f5 82 bb 63 23 fc bd af fc 12 3d 09 24 39 bd
       -0.003996517 -0.12311437 0.03588551 -0.04520038
000060 39 58 19 be 8b 75 8c bd d8 33 fb bd 89 0a 02 be
       -0.1497506 -0.06858357 -0.12265748 -0.12699331
000070 17 87 41 bd b0 f1 d7 bb d8 b9 0c be 0b 54 8e bd
       -0.047247972 -0.0065900907 -0.13742769 -0.06949624
000080 44 15 72 3d 8b 77 a7 bd 87 82 89 bd d9 f1 bf 3c
       0.05910231 -0.08177098 -0.06714349 0.023430752
000090 62 48 80 3d 73 c6 e9 3d 60 39 3a bd df eb 07 be
       0.06263806 0.11414804 -0.045464873 -0.13273571
0000a0 95 70 1f be c8 d5 4a bd 14 28 94 bc 9c c8 dd bd
       -0.1557029 -0.049520284 -0.018085517 -0.10829279
0000b0 05 a0 d6 b8 7f 84 24 bc cc 18 1c 3d 01 cc d5 bd
       -0.00010234121 -0.010041355 0.038109586 -0.10439301
0000c0 7d e5 64 3c 08 8d 80 be 13 7c d4 3c e3 62 80 bd
       0.01397073 -0.25107598 0.02593807 -0.06268861
0000d0 04 16 b3 bd b5 5b 73 bd 6d ee 9b bd b8 93 f2 bd
       -0.087444335 -0.05941363 -0.076138355 -0.11844581
0000e0 e8 d4 0c bd d8 fd 8c bd a5 ff 85 bc fe a2 f9 3d
       -0.03438273 -0.06884354 -0.016357252 0.121892914
0000f0 a7 76 7d 3c 25 14 5e bd 58 84 60 3d 8c 7a 08 bb
       0.015470183 -0.05421843 0.054813713 -0.0020824997
000100 84 3c e9 3d b1 a5 86 3d eb 07 a4 bc 3a 44 ea bc
       0.113884956 0.06574572 -0.020023307 -0.028596986
000110 0b 64 b3 bd d8 3a 37 3d 96 ec a2 bb 27 46 0c be
       -0.08759316 0.044733852 -0.004972051 -0.13698636
000120 ed aa 32 bd 55 71 07 3d f8 62 47 bd a9 5d d3 bd
       -0.04362004 0.033067066 -0.04867837 -0.10320599
000130 e1 dd 04 be 0f e1 bf bd 5e 14 ae bd 36 be dd 3b
       -0.12975265 -0.093690984 -0.084999785 0.0067670597
000140 23 b9 30 be cd 0e 48 bd af b4 ba bd e4 73 0e 3d
       -0.17258124 -0.04884224 -0.09116494 0.03477849
000150 4b 8c 02 be bc 9b 8f bd 58 3a 1d be b7 c0 22 be
       -0.1274883 -0.07012126 -0.15354288 -0.15893827
000160 04 ff 26 bd d4 21 ab bb 2e e9 5f 3d c0 8b c0 3d
       -0.040770546 -0.0052225385 0.054665737 0.09401655
000170 79 21 98 3c 05 f9 bc bd 50 e7 c5 bc 39 b7 f1 3c
       0.018570649 -0.09227184 -0.02415815 0.029506313
000180 e2 e4 4e bd 23 d5 8b 3d 99 06 35 3c 23 83 e0 bd
       -0.05051125 0.06827762 0.011048936 -0.10962512
000190 38 7e ba 3d da a7 32 bd 34 d9 23 3a 45 b0 84 bd
       0.091061056 -0.043617107 0.00062503223 -0.06478933
0001a0 4f bc 03 3e 3e ed bb 3c 54 58 f7 bd 1d 5a 26 bd
       0.12864803 0.022940274 -0.12077394 -0.040613282
0001b0 89 6f 20 3d fd b1 bf bd 94 38 bb 3c 31 c1 b8 bd
       0.03916887 -0.093601204 0.022854127 -0.09021223
0001c0 6c 98 5d bd 82 1c 93 bb d9 9c ad bd 2e a9 72 3c
       -0.05410044 -0.0044894824 -0.08477182 0.014810843
0001d0 a5 e4 3d bd e0 aa 9d bd 5c e1 39 3d fe 99 63 be
       -0.04636063 -0.076986074 0.045380935 -0.22226712
0001e0 8d 1f be bd d0 fc 35 bd ef 28 5f bd 7a 52 ff bd
       -0.092833616 -0.044430554 -0.054482397 -0.12466903
0001f0 3c fc 6b 3a b6 3e 1a 3d a7 1b e1 bc 00 de 0e be
       0.00090021244 0.037657462 -0.027479006 -0.13951874

conv2.nn.2.weight f4 [128, 128]
000000 78 e0 7f 3c de be 7a bc 97 1e b8 3c 41 35 39 3d
       0.015617482 -0.015304295 0.022475524 0.045216803
000010 f5 68 43 3c 1b 7c 88 bd a7 e9 bd bd 82 d6 68 3d
       0.011926879 -0.06664296 -0.09273081 0.056845196
000020 8b 74 be 3a 41 c7 15 3d 8b e3 c5 bd f7 c9 2a bc
       0.0014530582 0.036566976 -0.09662541 -0.010424129
000030 7f be 30 bc c3 0c d6 3c 41 48 04 3d cd 9c 58 bd
       -0.010787605 0.026129132 0.03229547 -0.052883912
000040 e6 75 89 3d 9f 3f 0c bc d8 95 97 bc 05 2c 6c 3d
       0.067119405 -0.00856009 -0.018504068 0.057659168
000050 70 80 a6 3b 8b 1f de bd 5b d9 31 3d a2 c0 f2 3c
       0.005081229 -0.1084586 0.043420177 0.02963287
000060 ee c6 16 bc f9 99 f4 bc 5d a8 e6 ba 51 d9 81 3d
       -0.009202702 -0.029858576 -0.0017597784 0.06340278
000070 e8 6b 7d bd 14 56 36 bd c6 4f 0c bd 9d 6c bf bc
       -0.061870486 -0.044515684 -0.034255765 -0.02336722
000080 7a 2b 01 3d 87 a2 d6 bb b3 22 9d 3c 83 7c 46 3d
       0.031535603 -0.0065501365 0.019181585 0.048458587
000090 74 85 7d 3d 3c 89 1a bd cf a5 2c bd 43 a1 68 3c
       0.06189485 -0.037728533 -0.042150315 0.014198604
0000a0 0f 33 c6 3d ad 5c 87 3b 7b 99 3f 3d c8 45 94 3d
       0.096777074 0.004130921 0.04677723 0.07239872
0000b0 55 05 39 3d 92 31 cf bc f3 f4 c3 bd 1d 93 80 3b
       0.0451711 -0.025292192 -0.09568205 0.0039237873
0000c0 88 e2 34 bd 74 97 f9 3c a4 0a 0a bd 4c 6b 71 bd
       -0.04416135 0.030467726 -0.033701554 -0.058940217
0000d0 0e 9d 8a bd 9b 2f af bd 89 19 00 3d bc 40 a9 bc
       -0.06768237 -0.08554002 0.031274352 -0.02066075
0000e0 2c b2 17 bd 05 b1 c3 bd c5 da 81 bc d2 04 b6 3c
       -0.037035152 -0.09555248 -0.015851388 0.022219095
0000f0 a9 8f 47 bd 5d 54 ad bd c7 d3 c0 bd 4f 1f 0f bd
       -0.04872099 -0.08463357 -0.09415393 -0.034941968
000100 b4 31 61 3c b4 3f 8f 3d e5 7a 31 3b c1 8b a3 bd
       0.01374476 0.06994572 0.0027081307 -0.0798564
000110 5d 7a c8 3c 3b 1d 29 3d 03 e9 d6 3c 00 8c 09 3d
       0.02447241 0.041287642 0.026234156 0.03358078
000120 68 6d b2 3c a4 a8 4b bd ed 05 32 3d a4 d6 94 3d
       0.021780685 -0.049721375 0.043462683 0.07267502
000130 d1 65 3d 3c 95 6b 5a bd 17 88 6e bc 6c f5 cc bd
       0.011559919 -0.053325254 -0.014558814 -0.10007748
000140 ec 99 34 bd 89 e8 a5 3d 77 ab 5f 3d b1 ed 10 bb
       -0.044092104 0.08100993 0.05460688 -0.0022114331
000150 ed c4 a6 3d e5 38 9b 3c cb 57 ed bd ff e7 91 bd
       0.08143029 0.018948028 -0.11589011 -0.07124328
000160 af c3 4c 3d f9 31 9e bd ff 4a f0 3c 0d d3 09 be
       0.049991306 -0.07724375 0.029332636 -0.13459416
000170 34 e6 c0 bd ed d0 85 3d f6 df a9 bc 1a 6b 98 3d
       -0.09418908 0.0653399 -0.020736676 0.07442303
000180 36 39 83 3a 24 dc a2 3c 74 9a 92 3c fe cf b0 bd
       0.0010011557 0.019880362 0.017895915 -0.08633421
000190 71 7a 32 bc ab d7 a5 3d b0 16 95 3b 9a 7b 10 3c
       -0.01089345 0.08097776 0.0045498237 0.008818531
0001a0 6e 6c 82 3d 29 8f 65 3c 01 cb 20 bd 2a 9d fb 3c
       0.063683376 0.014011183 -0.0392561 0.03071459
0001b0 62 f8 02 bd ba 24 a4 3c 6d ec 90 bc 28 fc a3 3c
       -0.031975158 0.020037044 -0.017690862 0.020017698
0001c0 5f fc 39 3d a9 1a a9 bc 70 e3 21 bd 01 b2 70 3c
       0.045406695 -0.020642595 -0.039523542 0.014690877
0001d0 0c 97 0a 3d e3 31 81 3c d7 82 54 3c ad 88 fd bd
       0.033835456 0.015770858 0.012970648 -0.123795845
0001e0 9e fb e7 bd 1a 35 9c bd c0 54 b7 3d 5a c9 d2 3c
       -0.11327289 -0.07627316 0.08951712 0.025730778
0001f0 ed bb 36 bd 19 75 0a bc f9 83 d0 bd e2 08 69 3d
       -0.044612814 -0.00845077 -0.10181422 0.056893237
000200 ef 6b 2d be 84 11 36 3c 65 c9 9e bd 6e 3a 94 3d
       -0.16935705 0.0111125745 -0.07753257 0.07237707
000210 a0 93 0e bd 37 32 13 be e5 05 86 bd 0b d2 d0 3c
       -0.034808755 -0.14374624 -0.06544093 0.025490781
000220 57 4e 13 be 38 40 84 3b 9d 32 b7 bd d5 67 d4 3d
       -0.14385353 0.004035976 -0.089452006 0.10371367
000230 96 23 93 bd f1 08 84 bd c5 02 38 bd b7 0c 7b bd
       -0.07184522 -0.06447018 -0.044924516 -0.061291423
000240 c1 1a 75 3d 92 0a d5 3c 88 b5 4b bd 4f eb 83 bc
       0.059839968 0.026006017 -0.04973367 -0.016103415
000250 19 93 86 bc ad 80 cf 3d 16 eb 85 3d ec c0 58 3e
       -0.016427564 0.10131965 0.0653898 0.21167344
000260 ec fe 6d be 4a f5 b2 bc a4 54 0d 3d af 3e 27 bd
       -0.23241776 -0.021845479 0.034504548 -0.040831264
000270 bd 52 08 3d 60 5f 8d be a1 43 69 3d 58 d8 01 3b
       0.03328203 -0.27611828 0.05694926 0.0019812789
000280 d3 01 88 3d 91 99 88 bc 34 8b 28 bd e0 8c bd bc
       0.06640973 -0.016674789 -0.04114838 -0.023138463
000290 d9 84 bd bc 60 0d a4 3d 04 88 55 bd de 24 f8 bd
       -0.023134636 0.080103636 -0.052131668 -0.12116407
0002a0 6e 1b f2 3c 89 c6 7a bd 68 41 97 bd 95 6e 55 3c
       0.029554095 -0.061224494 -0.07385522 0.013026853
0002b0 5a d0 29 3d b8 8e 2e 3c e3 a6 0c bd 0e b9 82 3d
       0.041458465 0.010654144 -0.034338843 0.06382953
0002c0 8d 60 ae 3b 46 00 b4 bc 48 43 60 bd d3 4d 9f 3d
       0.0053215683 -0.021972787 -0.054751664 0.07778516
0002d0 cc 01 f2 bd 4f 06 a9 bd db 66 a9 3c 18 95 56 bd
       -0.11816749 -0.082531564 0.020678928 -0.05238828
0002e0 c3 46 4c bd 11 21 74 3d d8 df 02 3e cd 6d 18 bd
       -0.04987217 0.059601847 0.12780702 -0.03721409
0002f0 4b f0 8a bc 56 b0 36 3d 70 78 13 3e 59 99 77 bc
       -0.016960284 0.04460176 0.14401412 -0.0151122445
000300 c7 d2 a3 be 19 a4 6b bd 50 fa 4d bd 2e 5b f7 bb
       -0.31996748 -0.057529543 -0.050287545 -0.0075487113
000310 04 5a d8 bc 87 84 26 bd a4 e8 39 3d cb 99 80 bd
       -0.02641011 -0.04065373 0.04538788 -0.06279334
000320 94 cc 52 bd f2 54 35 bd 94 0b 8b 3b 03 5d 60 3d
       -0.051464632 -0.044270463 0.0042433236 0.054776203
000330 1a b2 a6 3d 72 d5 cc bb 8c a7 2d 3d b5 15 3d bd
       0.08139439 -0.0062510306 0.042396113 -0.04616328
000340 70 21 f2 bb f2 23 fc 3b 71 b5 2c bb 52 af 56 3d
       -0.00738924 0.0076947147 -0.0026353265 0.052413292
000350 33 36 cb bb ee 66 16 bd 67 29 20 be d4 ce f5 bd
       -0.0062015294 -0.036719255 -0.15640794 -0.1200234
000360 9e 09 eb bc 65 b7 2f bc 6c 8d 86 bd a3 49 8f be
       -0.02869111 -0.010724877 -0.06569943 -0.27985868
000370 8e 0b ca bc c5 7d 9b ba 67 bd 65 3d ef 83 2e bc
       -0.024663713 -0.0011863044 0.05608883 -0.010651573
000380 24 10 c9 bd 33 7d 88 bc 02 30 f3 bd 61 03 dc bd
       -0.09817532 -0.016661262 -0.11874391 -0.10742832
000390 5b 91 25 3e d6 9c af bd d4 ad 98 bd e8 72 3a bc
       0.1616873 -0.08574836 -0.0745503 -0.011379935
0003a0 9a 39 53 be 1c c0 4d 3c b2 2a fa bc 5c 8f 26 be
       -0.20627442 0.0125580095 -0.030537937 -0.16265625
0003b0 49 1e 9c bc 86 fa 7f bd 17 34 91 bd 57 e6 38 be
       -0.01905741 -0.062494777 -0.070900135 -0.18056618
0003c0 d6 e8 41 3d d2 7b 1a be f5 f4 4f 3d 4f c6 4e bc
       0.04734119 -0.15086296 0.05077072 -0.012620523
0003d0 0f 95 2a 3c 86 44 02 be 5e 70 9d bd 11 2a 30 be
       0.010411515 -0.12721452 -0.07687448 -0.17203547
0003e0 ff d7 66 be 51 0d 40 3d 29 d1 91 bc a6 f3 60 be
       -0.22543333 0.0468877 -0.01779993 -0.21967945
0003f0 e4 93 25 bd 3b 5f 84 3c e3 6f d4 bd 67 fa 72 bd
       -0.040424243 0.01615869 -0.10372903 -0.059320834

conv2.nn.2.bias f4 [128]
000000 46 be e9 bd 7a 66 23 be 4f 40 15 bc 0b cb 39 bd
       -0.11413245 -0.1595706 -0.009109571 -0.045359652
000010 28 9c 11 3d cb 8e 8c 3d 6a 20 bf bd 8a 24 fe bd
       0.035549313 0.06863173 -0.09332354 -0.12409313
000020 7a da c6 bc 0d 0e f0 bd 84 da ab bc 1d cf 44 be
       -0.0242741 -0.1172143 -0.02097822 -0.19219632
000030 b8 0b 61 be 2a b1 e3 bd c8 66 3f 3d 41 2d 3b bd
       -0.21977127 -0.11117776 0.04672888 -0.045697454
000040 ea 52 31 be 48 ff 39 bd fd 63 15 bd 72 91 5c bc
       -0.17316785 -0.04540947 -0.03647231 -0.013462411
000050 6c f6 4a 3d 1b e0 17 be bb f8 62 3c 71 28 e5 bd
       0.049551412 -0.14831583 0.013853247 -0.11189354
000060 9c 8c 2b be c3 10 b0 bd a6 c5 9d bd ef ec 7a 3d
       -0.16752857 -0.08596947 -0.07703714 0.061261114
000070 8b 97 b8 3d 29 7e c7 3c 61 2d 1b be 10 5e d2 3d
       0.090132795 0.02435215 -0.1515403 0.10271847
000080 c7 24 d3 3d 08 d2 27 be 94 1d 12 be 7c de 5a 3d
       0.10309749 -0.16388714 -0.14269096 0.053434834
000090 84 23 a2 bd a2 24 92 3d cb 79 21 3d de 4b e2 bd
       -0.0791693 0.071358934 0.03942279 -0.11049627
0000a0 f9 ee ad bd 80 1f 4b bd eb 2c 7b bd 07 87 2a bd
       -0.08492846 -0.049590588 -0.061322134 -0.04163268
0000b0 3e 7d a7 3d 20 19 11 be 06 15 8d 3d 9e 9d af 3d
       0.08178185 -0.1416974 0.068887755 0.08574985
0000c0 ba 12 8b 3d 6c 53 03 be b2 3c c9 bd 06 cc 1b bd
       0.06790681 -0.12824792 -0.0982603 -0.03803637
0000d0 12 ef a8 3c 1c 59 34 3d c7 89 05 be 1a 63 9b bd
       0.02062181 0.044030294 -0.13040839 -0.075872615
0000e0 84 64 ed bd 11 61 4a bc 75 75 25 be e2 5f 94 3d
       -0.115914375 -0.012352244 -0.16158088 0.07244851
0000f0 6e 01 df 3d 2b 6b 5d bc 28 4a a5 3d 15 03 c9 3d
       0.108889446 -0.01351432 0.08070785 0.09815041
000100 be 1f 52 3d e3 8e f1 bd ba 34 d4 3d dc 64 6a bd
       0.051299803 -0.117948316 0.10361619 -0.057225093
000110 19 9e 34 be 7e f2 f7 3c d9 9d 23 be 58 71 e0 bd
       -0.17638434 0.030266996 -0.15978183 -0.109591186
000120 b9 ea 99 bd 6e 42 1a be fe 31 f4 3b 0a 3e 2b be
       -0.07515473 -0.15064403 0.0074522486 -0.16722885
000130 c2 3c d4 bd 89 cf 95 bd 08 53 8d 3a 7f a5 7d bd
       -0.10363151 -0.07314975 0.0010782192 -0.061925407
000140 6c 0d c2 bd ab e5 43 bd 41 06 a7 bd cb 70 86 3d
       -0.09475216 -0.04782645 -0.0815549 0.06564482
000150 1d 39 cf bd 39 e9 27 bc 14 7c 36 be 1e 2f 45 3d
       -0.10118315 -0.010248476 -0.1782077 0.048140638
000160 98 69 c9 bd 29 7c d9 bd 3f ea dc bd 43 35 dd 3d
       -0.098345935 -0.10619385 -0.107868664 0.108011745
000170 c8 87 78 3d 16 6f 9c bd 2e 1e 45 bd 65 19 f2 bc
       0.060676366 -0.076383755 -0.048124485 -0.029553125
000180 c3 8b 34 be 2e 2a 02 3e f7 97 3b bd 6b 9c be 3d
       -0.1763144 0.12711403 -0.04579922 0.09307178
000190 a8 8e 81 bd 03 04 b1 3d 55 4d a4 bd 02 7c 3c bd
       -0.06326038 0.08643343 -0.080225624 -0.0460167
0001a0 a4 17 94 3c 65 40 c3 3d 84 32 f5 bc 9b 6b 63 bd
       0.018077679 0.09533767 -0.029931314 -0.055522542
0001b0 0f 7f a4 bd 27 7c d5 3d 6d db 97 bd 4e c6 8f bd
       -0.08032047 0.10424071 -0.07414899 -0.070202455
0001c0 f8 92 0c 3d f4 25 0c 3d 91 e6 64 3d 82 64 cf bd
       0.034319848 0.034215882 0.055883948 -0.10126592
0001d0 d7 3d 66 3d 88 16 99 3d 05 f6 95 bd ec 9e a4 bd
       0.05621132 0.074750006 -0.07322315 -0.080381244
0001e0 26 6b d9 bd 5d 26 d2 bd 0b d6 de bd 5f 13 e9 3c
       -0.1061614 -0.102612235 -0.10880669 0.02845162
0001f0 91 88 b2 3d 96 5d 33 3d 27 86 56 bd 03 37 1c be
       0.08717454 0.043790422 -0.05237403 -0.1525536

out.weight f4 [128, 128]
000000 48 10 0c bd 9b 41 bc 3e fe 8d 0c 3e 06 15 43 3c
       -0.034195215 0.36768803 0.1372604 0.011906868
000010 36 4b c0 3d 2c d8 8b be 05 d6 2c 3d e4 37 97 bd
       0.09389345 -0.27313364 0.042196292 -0.07383707
000020 fa 0c ac bd 35 80 04 3e 30 8d 15 3e 70 4e 16 3e
       -0.084009126 0.12939532 0.1460464 0.14678359
000030 01 10 3b be b5 ff f3 bc f0 58 84 3e 38 4f 6d 3c
       -0.18267824 -0.029785017 0.25849104 0.014484219
000040 30 a7 bc 3d a1 90 4e 3d 57 ea ce bb 5c 92 ab 3d
       0.09211576 0.050430898 -0.0063145566 0.08377525
000050 6d 7a 01 be bb 3b 83 3d 8e 3e bb be bf 76 f4 3d
       -0.12644358 0.06407877 -0.36571163 0.119367115
000060 b6 3e d3 3d 85 f5 fc bd 3f ae d0 bd 7c f2 61 be
       0.103146955 -0.12351517 -0.10189485 -0.22065157
000070 22 dc c2 3d 74 24 34 3e c3 2d 86 be 38 ec e0 3d
       0.09514643 0.17592031 -0.26206788 0.10982555
000080 0f 3c 65 3e e7 c8 14 3e 88 60 66 3d 81 46 57 3d
       0.22386192 0.14529763 0.056244403 0.052557472
000090 76 8b a4 bd 96 29 be 3e 29 58 35 bd 81 00 3c 3d
       -0.080344126 0.37141103 -0.04427353 0.045898918
0000a0 d7 d8 22 bd f2 c9 9a 3d 07 00 1b 3d 4e 6c 00 3d
       -0.039757576 0.07558049 0.037841823 0.031353287
0000b0 59 7e 1b 3e d2 fe 96 bd 04 b7 1a 3e f8 0f b2 be
       0.15184917 -0.07372822 0.15108877 -0.34777808
0000c0 da 0d 93 3d f7 2b 2c bd b8 9e 13 3e 16 6e 25 bd
       0.07180376 -0.042034116 0.14416015 -0.04038819
0000d0 55 00 20 ba 99 56 cb 3d ca ab 7e 3d d7 67 14 3e
       -0.0006103565 0.099286266 0.06217555 0.14492737
0000e0 5c 31 c6 3c 92 08 f7 bd 18 55 f2 be 44 07 cb bc
       0.024193458 -0.120621815 -0.47330546 -0.024783738
0000f0 66 d5 3e 3e ca a2 7f be 88 92 97 3d fe 27 c7 be
       0.18636093 -0.24964443 0.074009955 -0.388977
000100 4b ac 80 bb be 2a 2a 3e d9 15 73 3e e7 1d 14 be
       -0.003926789 0.16617867 0.23738803 -0.14464532
000110 72 ed 51 3d 37 36 b8 3c 26 c3 96 bd fe 58 4c 3d
       0.051251836 0.02248679 -0.0736144 0.049889557
000120 c7 a5 68 3d 5e 17 e3 bd 6a 71 47 3d c0 b5 9f 3d
       0.056798723 -0.11088441 0.048692144 0.07798338
000130 0b c8 1c bd 62 dc b4 3d 9d ea df 3d b2 31 22 3d
       -0.038276713 0.08831097 0.10933421 0.039598174
000140 5a 3a 37 be 9b 13 6a 3d 04 7a 17 3c e9 0b ba be
       -0.17893353 0.057147603 0.009245399 -0.36337212
000150 d8 ff 01 3e be 60 24 3e 03 58 b8 3b e5 78 56 3d
       0.12695253 0.16052529 0.005625726 0.052361388
000160 dd 53 4f 3d 45 83 56 bd 31 ab a7 bd fb df 45 3e
       0.050617088 -0.052371282 -0.08186949 0.19323723
000170 32 c3 33 bd 4c e4 2c 3d d8 d7 11 3c 18 1c 93 3d
       -0.043887325 0.04220991 0.008901559 0.07183093
000180 c8 64 dd bd 79 0a 1b 3e ba 5f b5 bd 1a 1f da 3d
       -0.10810238 0.15140714 -0.08856149 0.106504634
000190 9c b5 72 3d 3b 77 50 3e fc b2 a8 be c0 fd 08 bd
       0.059255227 0.20357983 -0.32949054 -0.03344512
0001a0 2f 74 a3 3e 3a aa 3b 3e 92 32 dc 3d ec 52 3a 3d
       0.3192458 0.18326655 0.10751833 0.045489237
0001b0 dc 8a 20 be da 37 26 3e f3 20 ed 3d 5f 92 1d 3e
       -0.1567797 0.16232243 0.1157855 0.15387867
0001c0 3c fe 13 be 89 9b ad 3d e3 69 08 3c 9c bb 88 3d
       -0.14452451 0.084769316 0.008326027 0.06676409
0001d0 0a ff 2d 3d af 8e 0a be 9a 72 32 be 12 de 4b bd
       0.042479552 -0.13530992 -0.1742653 -0.04977233
0001e0 52 eb 0a 3e f8 99 a0 3d 5e 94 f4 3c c9 b4 89 3d
       0.1356633 0.07841867 0.029855903 0.06723935
0001f0 4a d5 f7 bd bb 61 f0 bd 2e 02 1c 3d e0 5b 89 3d
       -0.121012285 -0.117373906 0.038088016 0.06706977
000200 17 83 ae bc 8e f0 68 be 48 77 61 be 7d 50 7b 3d
       -0.021302743 -0.22748014 -0.22018158 0.061356056
000210 e2 06 d1 bd c3 cc 6d 3e 43 c2 55 3d 69 d6 59 bd
       -0.10206391 0.23222642 0.052187216 -0.053182993
000220 90 f4 85 3d 0f 46 da 3c 04 ca d4 bd 7d 8a 1b be
       0.06540787 0.026644735 -0.10390094 -0.15189548
000230 a9 ac 5c 3e 84 d9 60 bd 23 83 4d be e7 03 ff 3c
       0.2155024 -0.05489494 -0.20069556 0.03112979
000240 81 a0 ef bd e1 58 17 be ac a8 15 3d 06 72 1b 3b
       -0.117005356 -0.14779998 0.03653781 0.0023719086
000250 79 62 14 3e 30 74 9a bd ad c8 e5 3e 0a 2a 49 ba
       0.1449069 -0.07541692 0.44879666 -0.0007673806
000260 9b 8c 17 be b5 99 33 3d 29 18 25 bd a7 35 3e 3e
       -0.1479973 0.04384776 -0.040306244 0.18575154
000270 19 ee f7 bd e0 12 42 be dd 8f 4a 3e a1 a3 05 be
       -0.121059604 -0.18952513 0.19781442 -0.130507
000280 c9 4c 4f be fb ca 11 be 6a 0e 08 be ea 36 1f be
       -0.20244135 -0.14237587 -0.13286749 -0.15548292
000290 4b 29 e8 bb 0c 17 b3 be 41 a6 47 bb 92 44 04 be
       -0.0070850006 -0.3497852 -0.0030464085 -0.12916782
0002a0 32 79 1f bd bb 73 5f bd df 3e 27 3c f0 e8 42 3d
       -0.03893394 -0.05455373 0.010207861 0.047585428
0002b0 de 82 71 be 3d 9d 23 bc db 32 83 bd fe 37 c7 3e
       -0.23585078 -0.009986219 -0.06406184 0.38909906
0002c0 7c 59 23 be 2e e1 23 3d ca fb 51 be 3f dd ec 3c
       -0.15952104 0.04000967 -0.20506206 0.028914092
0002d0 cd 53 ba bd b4 a8 6f be c6 ad 9a bd cd 29 16 be
       -0.09098015 -0.23404199 -0.07552676 -0.14664383
0002e0 eb d7 47 3c dd f4 42 3e 0a 8d f2 3e 99 ef f0 3a
       0.012197475 0.1903872 0.4737323 0.0018381953
0002f0 b0 9d 58 be 31 f2 56 3e 98 a6 08 bd fb 1f 98 3e
       -0.21153903 0.20990826 -0.033362 0.297119
000300 48 0a d1 3d 3c 78 10 be 2f cb 6d be 24 c6 5b 3e
       0.10207039 -0.14108366 -0.2322204 0.21462303
000310 b9 15 18 3c 86 20 d0 3d f9 9a 13 3e c0 45 bf 3d
       0.009282523 0.10162453 0.14414586 0.09339476
000320 34 30 e9 bd 04 06 22 3d 66 b4 d6 bd fc 99 07 be
       -0.11386147 0.03955652 -0.10483627 -0.13242334
000330 ae e5 22 bb 6c f0 06 be 2d 89 e4 bd 62 d5 a1 bd
       -0.0024856138 -0.13177651 -0.11158977 -0.07902028
000340 6b 9d 75 3e 90 cc ce bd bb 9f ab 3d cc 76 97 3e
       0.23985831 -0.10097611 0.083800755 0.29582822
000350 ff 72 ba 3c 28 9c df bd 62 64 36 bd cf 52 84 bd
       0.022759913 -0.10918456 -0.044529326 -0.06461107
000360 48 67 af 3d 06 31 e4 3d 38 19 f2 bc e8 ea 81 be
       0.08564621 0.11142163 -0.02955304 -0.25374532
000370 f9 08 07 bd f9 98 06 3d 02 d7 60 bd 9e a2 f7 bd
       -0.03296754 0.03286073 -0.054892547 -0.12091564
000380 35 7c 83 3e f9 04 1c be fb 59 b0 3d 5e 92 60 be
       0.256807 -0.15236272 0.086109124 -0.21930835
000390 94 a0 bf bc c7 20 55 be 3d ac a4 3e 49 99 63 3d
       -0.023392 -0.20813285 0.32162657 0.055566106
0003a0 8f 70 97 be 35 64 45 be db bc b9 bd 21 a9 d0 bd
       -0.29578063 -0.19276507 -0.090692244 -0.10188509
0003b0 c0 03 2a 3e 4b 2b 3a be 7c 2d d2 bb 75 0a ff bd
       0.16602993 -0.18180577 -0.0064141136 -0.124531664
0003c0 84 73 0c 3e 89 88 52 be f7 ee de 3a b8 e8 1f bd
       0.1371594 -0.20559897 0.0017008473 -0.039040297
0003d0 ab ea bf bd d9 22 76 3d 9e ae a3 3d 5c 15 a2 3c
       -0.09370931 0.060091827 0.0799229 0.019785576
0003e0 b6 18 ff bd f6 93 f5 bd aa b3 15 bd 33 37 2f be
       -0.12455885 -0.11991112 -0.036548294 -0.171109
0003f0 cb 80 11 3e 17 16 1b 3e cd 4f b6 bd 6e cb 7a 3c
       0.14209287 0.15145145 -0.089019395 0.0153072905
