QM/src/kiba_best_qm.pt (torch, 548327 bytes, 16 tensors)

conv1.nn.0.weight f4 [128, 14]
00000000: 9f5e c2bd d03b 953d 1696 403f 76ff fbbe
00000010: cb65 84bd 2d20 4fbe 5748 f6be 1334 573e
00000020: 6db1 773e c617 59bd 9f22 073e c767 cf3d
00000030: dd5c a6be b1c4 d4bd 8de4 1bbe bde1 3c3e
00000040: e5c6 c73d 0652 123e f4d4 973d 111f 0bbe
00000050: fe29 1b3e 7176 50be 1864 bc3c b0a4 4ebd
00000060: 68b8 b93d 853d 80be 658a d43d 5a48 cf3d
00000070: dfc0 f8bc b9ea 41be 60f2 b03b ca36 5fbe
00000080: d127 13be 697d 4c3e 33ea 6b3e 394c fc3d
00000090: d12d b43c 4d48 43be 55b1 6b3d ae77 60be
000000a0: 7f9d 5cbe 6167 7e3e d623 f8bd 965b 893d
000000b0: ec71 1f3f 98b4 463e 0d96 0a3c 2551 0abe
000000c0: 4151 b9be 2a6e a03e 8a02 573d 147e 35be
000000d0: b1c8 bf3d dca3 d03e ce9c 34bf cdb3 6e3e
000000e0: ea74 4b3e e7c0 afbe 11a4 fa3e bf5d 503f
000000f0: 6c95 81be bc6c f1bd 9b13 59be 3015 e83d
00000100: 623f 0fbf 03d4 753e f9c6 c53d ac60 63be
00000110: a1b7 d63c caad ba3b 5824 83be 1ab2 033d
00000120: 650e 82be 860f 5a3d 264b 783e 300c b9bc
00000130: 33c0 da3d 361b 583e 10fa fd3d 51d1 0a3e
00000140: c5f9 493e 6516 5abe fbf9 4abe cf4a 8f3c
00000150: 5653 d73d 3ec6 92be ac02 8cbf b9da 43bf
00000160: ee12 0c3f cdff e03d bd3f 163e 7291 04be
00000170: 7f93 a43e 0c70 003e cf06 3f3e 1232 d1bd
00000180: b8f5 923e ccfa b5bb 8937 08be 0026 63be
00000190: 82c6 d23c 4a79 1cbe 4ff4 6f3e efbe 3b3e
000001a0: 1471 39bc 45d9 883d f7ea 6dbe 98a6 093d
000001b0: fbc0 923d 2ddc 823d 62fe f0bc c81e 6fbe
000001c0: 11ca 943d 239b 503e cacb 7c3f ebb3 3e3e
000001d0: e71c 00be 13e7 f4be cf0d fabe 1840 b4bd
000001e0: 611c 51be 0c1c c7bd 641b 68bd 4171 7ebc
000001f0: 9334 89be 4790 07bf f60c 75bd 063d fd3c
00000200: 7ec1 743e fe4a 4f3d 5746 75be e379 1abe
00000210: 468a 3b3e 1167 863e 765e 123e db45 30bd
00000220: 08b6 84be 06a2 65be fac8 ddbb 04ca 76bd
00000230: d31d 1abd b5d5 883d 0514 cebf f70b 3fbf
00000240: 6dc6 f03d 8677 c33d 2670 fe3e c52b a93d
00000250: 402d 90be 4010 7b3e dc20 87bd 1efe 1b3d
00000260: 5a0b 1fbd 930c 0d3e c4f1 74be 756f 413e
00000270: 975e c53d b4aa 003e 3327 86be ed36 4bbe
00000280: 0c74 e6bd 7f30 263e d3d2 2c3c 5f49 a6bb
00000290: 241b 23be 7d4c fcbd f3e7 923d 9d42 58be
000002a0: 43f7 10bd d9fd fb3c 925d 3a3d 5800 ff3d
000002b0: 6e69 0abe 00ec 0f3d 7c32 0b3e 7c4f a73c
000002c0: c58d 42be 7bd9 343e 0e8c 01be 770c 4ebe
000002d0: 5e63 0ebe ad1c 103e fc49 5fba 3896 1c3e
000002e0: b33b 3c3f 827a d53c a19f cebf 74a3 e3be
000002f0: ba67 183f c3f7 42bf 2651 c53e e73f 423e
00000300: 6be7 48be 5f25 f8bd ac34 1c3e 4388 0b3e
00000310: 6afa 3b3d 6b0e 2fbe 810a cabe 59a6 d9be
00000320: 372f 9fbd 7c4f 863e f735 33bf aa6f eebe
00000330: be5b c03e 23d0 8fbd a34f c43d 74f9 ac3e
00000340: dfff c73e 07c3 48bf 8c9a 80bc 300a 1ebe
00000350: 2283 273d eb7f 87bd 4a3a 24be 60bd 463e
00000360: c1d3 6f3e 8b17 023e 668d bfbc 8bd8 e83d
00000370: 57c2 0fbe 4411 3d3e 731b 463e 8f08 ec3d
00000380: e93f acbd 1449 84be 83d0 d6be 571c 963f
00000390: b4fd ed3e c146 063f 83e6 4a3e 1fab d73d
000003a0: 9f66 eabe b3be 783d 9a2d 4fbe ed4b 933e
000003b0: 7f2a 5a3e e4da ecbd 01b7 a03d afc3 6c3d
000003c0: bfde b8bc 8735 8d3e 24cc 00bf 6195 8cbe
000003d0: b563 4f3f dacb 753d 430d b7be e726 a4bd
000003e0: 73d1 1e3d ec26 2b3e ced0 d83d 7368 04bf
000003f0: db6d 263e c981 79be d8a9 8bbf a0bc 13bf
-0.09490704 0.07286799 0.7522901 -0.4921834 -0.06464728 -0.20227118 -0.48102066 0.21015958
0.24188776 -0.053001188 0.131968 0.10127216 -0.32492724 -0.103890784 -0.15223904 0.18445487
0.09754733 0.14289102 0.074136645 -0.1358607 0.15152737 -0.20357682 0.022996947 -0.050450027
0.09068376 -0.25046936 0.10377959 0.10121222 -0.030365406 -0.18937196 0.005399987 -0.21798244
-0.14370658 0.19969715 0.23038559 0.12319226 0.021994503 -0.1907055 0.057542164 -0.21920654
-0.21544455 0.24844123 -0.1211621 0.06706922 0.62283206 0.19404829 0.008458626 -0.13507517
-0.36194804 0.31334049 0.052492656 -0.17723876 0.09364451 0.40750015 -0.70551765 0.23310776
0.19868818 -0.3432686 0.48953298 0.81393045 -0.25309312 -0.117883176 -0.21198885 0.11332166
-0.5595609 0.24006657 0.09657092 -0.22204846 0.026210608 0.005696987 -0.25613666 0.032152273
-0.25401607 0.05323746 0.24247417 -0.02258882 0.1068119 0.2110413 0.12401211 0.1355641
0.19724186 -0.21297605 -0.19821922 0.017491726 0.10513942 -0.28666872 -1.0938315 -0.7650562
0.54716384 0.1098629 0.14672752 -0.12946108 0.3214378 0.12542742 0.18654941 -0.10214628
0.28703094 -0.005553579 -0.13302435 -0.22182465 0.025729422 -0.15280643 0.2343304 0.18334554
-0.011318464 0.06682066 -0.23234163 0.03360614 0.07165714 0.063896514 -0.029418174 -0.23351586
0.072651036 0.2037168 0.9874846 0.18623321 -0.12511025 -0.47832546 -0.4883866 -0.088012874
-0.20420982 -0.097221464 -0.056666747 -0.0155299315 -0.26797923 -0.52954525 -0.059826814 0.030912887
0.23901936 0.050608627 -0.23952614 -0.15085559 0.18314466 0.26250508 0.14293846 -0.04303537
-0.2592013 -0.22425088 -0.006768343 -0.06025125 -0.0376261 0.066813864 -1.609986 -0.7462763
0.11756597 0.09544282 0.49694937 0.082603015 -0.28159523 0.24517918 -0.06598064 0.038084142
-0.038829185 0.13774328 -0.23920351 0.18890174 0.09637182 0.12565118 -0.26201782 -0.19845171
-0.11252603 0.16229437 0.010548311 -0.0050746645 -0.15928322 -0.123192765 0.07173147 -0.21119161
-0.035392057 0.030760692 0.04549939 0.124512374 -0.1351678 0.035137177 0.13593477 0.020423643
-0.18999393 0.17661087 -0.12651083 -0.20121942 -0.13905093 0.14073439 -0.00085177994 0.15291679
0.73528594 0.026059393 -1.6142465 -0.44460642 0.59533274 -0.76159304 0.38538474 0.1896969
-0.19619529 -0.12116503 0.15254468 0.13626198 0.04589311 -0.17095344 -0.3946114 -0.42509726
-0.077726774 0.26232517 -0.7000422 -0.46569568 0.37569994 -0.07022121 0.09585502 0.33784068
0.39062402 -0.7842259 -0.015698694 -0.15433574 0.040896542 -0.06616195 -0.1603786 0.19408178
0.23420621 0.12704293 -0.023382854 0.11369427 -0.14038979 0.18463618 0.19346409 0.1152507
-0.084106274 -0.25837004 -0.41955957 1.1727399 0.46482623 0.5245171 0.19814496 0.10530686
-0.4578142 0.06072874 -0.2023224 0.28768864 0.21305273 -0.115651876 0.07847405 0.057803806
-0.022567151 0.275799 -0.50311494 -0.27457717 0.81011516 0.06000886 -0.35752305 -0.080152325
0.038773965 0.16714066 0.10586701 -0.51721877 0.16252844 -0.24365915 -1.0911207 -0.57709694

conv1.nn.0.bias f4 [128]
00000000: c4cd cc3e 0b1b 853e 35dc 7cbe 6a55 663e
00000010: b63a b4bd 304f a8bc f652 153e 1ac5 72be
00000020: bd34 31bf f29b 88be 1319 5cbe a600 723e
00000030: 336b 16be 93c6 df3e 7e29 42bc eee5 58be
00000040: b1ea a13e 3277 0bbf 0757 12be fea9 debe
00000050: 64aa 1fbe fbe7 75be cfbf c43e 9848 e23d
00000060: 98fe 863e df6a ca3d 7a77 753e 666b 2abe
00000070: b802 403d d1d8 c7be a336 683e 9ecb ae3d
00000080: f1cf 54be 7e3f 5abe a8c8 4cbe cf3d 1abd
00000090: 8a37 93be c28d f9bd bf23 533e 5f53 ce3d
000000a0: 88e9 d4be dc0c 383e 9341 5abe 1bc4 df3d
000000b0: 06e2 be3e e207 6cbe d538 5d3c 1e29 adbd
000000c0: 9eef abbe d66a 5fbe 5290 a53e 52ae 3e3e
000000d0: b008 38be 8090 62bb 98bb 7bbd 6e05 96be
000000e0: e447 f73d f2af 423e 938b 6e3e 8a60 1d3e
000000f0: 2317 14bf aa5a 9c3d 4539 b0be 0725 373e
00000100: c456 fabe f3b3 23be 642f 0ebf 1d6f f9be
00000110: 5bcc 983d e84f 68be abfd bdbd d07c f3bc
00000120: 402e 4a3d 46d3 d93d 848e 223e 9c6b 90be
00000130: 2e6b e3bd 13a2 323e ce74 97be 36bb 85be
00000140: 0273 0ebe f266 a63e e714 2b3d 1592 c7be
00000150: 3b78 43be 4710 38be 57a5 5dbe 7992 0dbf
00000160: 5476 39be 1302 13be 72aa d43e b6f4 3b3e
00000170: eb14 373e ad9d 1bbf 258b d33c 0c38 fabd
00000180: 57ea ed3c aba7 7c3d 5356 75be 87f2 86be
00000190: cd81 123e ddee 46be a189 7c3e d73a 8cbe
000001a0: c1c4 7ebe 129a e2be 37dd 293e 134f cdbe
000001b0: 4dde 0fbe 19d8 87bd 9003 203d 9f5a 10be
000001c0: be7e 31bf 46a7 983d dfc0 143c fa05 21bf
000001d0: 8e19 e9bd 052f e9bd c4dd bbbe ff03 353e
000001e0: 82a7 783e ec17 00bf 2001 5bbe dd02 b8bd
000001f0: 6197 103d cf0f 10be 3293 f63d ff65 4abd
0.40000737 0.25997195 -0.24693377 0.2249352 -0.08800261 -0.020545572 0.14582428 -0.23708001
-0.692211 -0.26681477 -0.2149394 0.2363306 -0.14689331 0.43706188 -0.011850713 -0.21181461
0.31624368 -0.5447875 -0.14291011 -0.4348907 -0.15592343 -0.24014275 0.38427588 0.110490024
0.26366115 0.09883665 0.23971358 -0.16642532 0.046877593 -0.39032605 0.22677092 0.08534931
-0.20782448 -0.21313283 -0.1999842 -0.0376566 -0.2875331 -0.12185241 0.20619105 0.100744955
-0.4158442 0.17973655 -0.21314077 0.10926076 0.37281817 -0.23049882 0.013502319 -0.08455108
-0.3358125 -0.21818098 0.3233667 0.18621185 -0.17972064 -0.0034570992 -0.0614582 -0.29301018
0.12074259 0.1901243 0.23295431 0.15368858 -0.57847804 0.0763448 -0.34418693 0.17885219
-0.48894322 -0.15986614 -0.5554106 -0.48717585 0.07460853 -0.22686732 -0.09276899 -0.029722601
0.049360514 0.10636 0.15874678 -0.282071 -0.11104427 0.17444639 -0.29581302 -0.26119393
-0.1391106 0.32500416 0.04176798 -0.3897864 -0.19088833 -0.1797496 -0.21645103 -0.55301625
-0.18111545 -0.1435626 0.4153629 0.18355069 0.17879073 -0.6078747 0.025823185 -0.12217721
0.029042406 0.061683338 -0.23958711 -0.2635691 0.14307328 -0.19427057 0.24661876 -0.2738864
-0.24879743 -0.4425817 0.16588293 -0.4009939 -0.14049645 -0.06633014 0.039065897 -0.14097069
-0.6933402 0.0745378 0.009079187 -0.62899745 -0.11381827 -0.113859214 -0.3669263 0.17677306
0.24282649 -0.500365 -0.21387148 -0.08984921 0.035300616 -0.1406853 0.12039794 -0.049413677

conv1.nn.2.weight f4 [128, 128]
00000000: 34c7 833d bef9 8ebd 31d4 7ebd 7034 5b3d
00000010: b696 0bbe 90ca d33c 4924 583c b5a1 e33c
00000020: d68b e3bd 4c74 0bbd 2a23 f93c c254 5e3d
00000030: d3d4 3c3d 12b5 8b3b 3070 263d 31f1 76bd
00000040: d85e e23c a158 473c 388c 333c d838 3b3d
00000050: 4c92 853d 0d07 963b 3f24 1dbd 2109 e23c
00000060: f5fb acbd d90c 933c b804 723d d733 debd
00000070: 1f87 14bd b4f0 bebd 6fcb 1fbd d4a4 8b3d
00000080: 210f 6d3c a8d1 463b d811 b3bd 89ae 50bd
00000090: 5dd7 4abd f187 52bc f755 0e3d cc55 dcbc
000000a0: 1bd2 c1bd 077e 9ebd 7133 48bd 2a86 06bd
000000b0: 1fdd c0bd a8de 6f3d d061 4bbd 28c9 c93b
000000c0: e408 76bc 21a7 843d a651 a03c 6bb4 163d
000000d0: e8d7 95bd 34c7 b1bd 6779 01bd a7bf fcbc
000000e0: c127 46bd d228 853b 9324 83bd 7516 523d
000000f0: 35dd febc e659 623d b016 fd3c c226 8dbc
00000100: 284f 90bd 624a 85bd 1408 553d 5ef3 cfbd
00000110: 85f3 a5bd c511 bebd 26ad 53bd 44da a83c
00000120: 84f6 91bd 6e47 8c3d 91e4 1a3c 746b 353c
00000130: 85db 0e3d c1ac 12bd bc6d d0bd 52b1 ddbd
00000140: a67d bb3c 73df 5ebb 538d ad3d 5835 f5bd
00000150: d1fa 58bc 8416 40bd 2c6c b4bd d9c9 46bc
00000160: 88c5 b3bd 7f06 a83c f3e3 923d 0dfd d3bc
00000170: b679 bdbc cd0d e2bd 4033 c9bc 7e96 423c
00000180: 54e8 1d3d 7323 d0bd 1813 0f3d c56d 173d
00000190: edfa acbb 6b29 b0ba 06cd a3bd f5d3 02bd
000001a0: 9770 9bbc 3f6c 113d 01b7 a83d 4475 fcbc
000001b0: fea8 d73c 78ff 473d 3d22 873d 57a2 e93b
000001c0: 0e3e 49bc 8744 c1bc 8f4c 083d ca4c cb3b
000001d0: 64f6 3abd 1b48 54bd 0737 f2bd f17e 293d
000001e0: 81ba a5bc 9aa3 a5bb 6d8d 9bbb 0c05 b3bc
000001f0: 058d f5bc 2772 9fbc 479c a9bd 53ce 50bd
00000200: db10 eb3b 3c68 e3bc a893 b43d cc63 6e3c
00000210: b00a a53b 43f8 17bc 2294 bbbd 4753 a53d
00000220: 6585 78bd 3865 d03c ff96 83bd 7ac3 5a3d
00000230: 2e84 c7bc dd57 2dbd b058 39bd 42f1 13bd
00000240: 8943 8cbd ffe0 aa3c ec1c c1bd 5d9d 883c
00000250: a17f 57bc 9eb5 24bd 4e4b bebd 1c0e c5bd
00000260: bd74 9abc 199f 723d a1f4 24bd 8975 cfbd
00000270: 11dc b9bb 3ae4 4c3d c22c 84bd 0fa3 2e3d
00000280: 2840 5b3d cfa9 05bc bd4f 3fbb 1e05 803d
00000290: c6bd 6a3d cbbb 3dbd c538 823b 843a 973d
000002a0: a609 b2bd bc96 3c3d 0652 18bc 1759 a63d
000002b0: 9ba0 acbd b976 7bbd c39d 61bd 8cae 2cbc
000002c0: 254e a3bd f8d2 89bc 5545 bfbd b464 033d
000002d0: c1c3 403d 4c36 5a3d 09ed b4bd a63d 6f3a
000002e0: 3055 2d3c 5fda 96bd 59b3 b0bd 0337 973d
000002f0: eb6e c53a c4bc 983d defd bfbd f078 63bd
00000300: 83aa c1bc 3a58 b63c 54fb 393d 65e1 8b3d
00000310: d3ce 83bd cec3 653d badd d2bc 877c 8ebd
00000320: c812 ab3b c297 753d dd9c 8cbd 0ebc 7ebd
00000330: 1a81 323d 4f12 af3c fe54 513c ee58 913c
00000340: 82c2 bbbd 6bea 863b 2478 70bc 43f6 ab3b
00000350: b042 353c 698a a6bd 3b76 6e3d 20d2 83bc
00000360: 5d00 99bd 2d5f d2bc a539 793c 0757 26bd
00000370: b9ce acbb b7ee 8e3d 87da 4a3d e291 60bd
00000380: 1ffa d5bc 5b3d f93b 76bf 91bc 4755 433d
00000390: c65d 66bd 3720 3f3b d8bc 97bd 3927 7e3c
000003a0: efb6 95bd 3f00 cbbc 374d d4bc 21b1 c4bd
000003b0: 233a 53bd 6c60 6bbd af16 d43c c82a 223d
000003c0: 0c8e 703d 8fa4 a8bc e870 89bc d7cc c8bd
000003d0: 80af 623c b053 273d 6553 0f3c a84b 90bc
000003e0: 49d8 ccbd 3d92 fbbc 57d8 44bd 27c1 463d
000003f0: aceb 66bc 831c 7fbd 72dc 1d3d 6d9c 8c3d
0.06434479 -0.06981228 -0.06221408 0.053516805 -0.1363171 0.025853425 0.013192245 0.027787069
-0.11110656 -0.034046456 0.030412275 0.05428005 0.046101402 0.0042635286 0.040634334 -0.06028861
0.027633116 0.012167127 0.010958724 0.045708507 0.065220445 0.0045784772 -0.038364645 0.027592244
-0.084464945 0.017950462 0.05908653 -0.108497314 -0.036261674 -0.09323254 -0.03901237 0.06818548
0.014468939 0.0030337367 -0.08743638 -0.0509477 -0.049521793 -0.012849794 0.03474995 -0.02689638
-0.094639026 -0.077388816 -0.048877183 -0.032842793 -0.094171755 0.05856195 -0.04965383 0.006158013
-0.015016768 0.0647719 0.019570183 0.036793154 -0.073165715 -0.08680573 -0.03160992 -0.030853106
-0.048377756 0.004063704 -0.0640346 0.051290948 -0.03111134 0.055261515 0.030894607 -0.017230395
-0.07046348 -0.06508328 0.052009657 -0.101538405 -0.08103088 -0.09280733 -0.0516788 0.02061189
-0.07127097 0.06849562 0.009453909 0.011072982 0.03487732 -0.035809282 -0.1017718 -0.10824837
0.022887062 -0.0034007698 0.08474221 -0.11973065 -0.013243393 -0.046896473 -0.08809695 -0.012133085
-0.087779105 0.02051091 0.07172384 -0.0258775 -0.023129325 -0.110377885 -0.02456057 0.0118767
0.038551643 -0.101630114 0.03493032 0.03696992 -0.005278936 -0.0013440078 -0.079980895 -0.03194042
-0.018974585 0.035503622 0.0823803 -0.030817635 0.026325699 0.04882762 0.06598327 0.007129948
-0.012282861 -0.023592247 0.033276137 0.0062042223 -0.045645133 -0.051826578 -0.11826902 0.041380826
-0.020230534 -0.005054903 -0.004747084 -0.021852992 -0.02997447 -0.019463612 -0.08281761 -0.050978016
0.00717364 -0.027759664 0.08817226 0.014550161 0.0050366744 -0.009275499 -0.091591135 0.080725245
-0.06067409 0.02543889 -0.064252846 0.053409077 -0.02435502 -0.04232012 -0.045250595 -0.036118753
-0.06848819 0.02085924 -0.094293445 0.0166766 -0.013152988 -0.040212266 -0.09291707 -0.09621832
-0.018854493 0.05923376 -0.04027236 -0.1012984 -0.005671986 0.05002234 -0.064538494 0.042635974
0.05352798 -0.008158161 -0.0029191815 0.06250976 0.05730989 -0.04632167 0.0039740526 0.07384208
-0.086932465 0.04604219 -0.0092969 0.08122461 -0.084290706 -0.06139252 -0.055082094 -0.010539662
-0.07973889 -0.01682423 -0.09339396 0.03207846 0.047061685 0.053274438 -0.08834273 0.0009126313
0.010579392 -0.0736587 -0.08627958 0.073835395 0.0015062963 0.07457879 -0.09374593 -0.055535257
-0.023640877 0.022258867 0.0454057 0.068301 -0.06435933 0.056094937 -0.025740493 -0.069573455
0.0052207448 0.05995918 -0.06865857 -0.06219106 0.043580152 0.021371035 0.012776611 0.0177426
-0.09167959 0.0041173003 -0.014677081 0.0052478625 0.011063263 -0.081318684 0.058218222 -0.016091406
-0.074707724 -0.025680149 0.015211497 -0.04061034 -0.0052736667 0.06979125 0.04952481 -0.054826625
-0.026120244 0.007606191 -0.017791491 0.04768875 -0.056241773 0.0029163489 -0.07409066 0.015512281
-0.073102824 -0.02478039 -0.025915725 -0.09604097 -0.051569115 -0.057465002 0.025889723 0.03959158
0.058729216 -0.02058628 -0.01677747 -0.09804695 0.013835788 0.040851295 0.00874791 -0.0176142
-0.100021906 -0.03070938 -0.04805788 0.04852405 -0.0140942745 -0.06228305 0.03854031 0.06865773

conv1.nn.2.bias f4 [128]
00000000: e9dc 583c 270f 5ebd 72ab 2fbd f701 15bd
00000010: 1ebb 393e 2c53 3cbd 58be f43d 0cfd 03bd
00000020: 75f9 393d fd87 2fbe 9284 c9bc 76de e8bc
00000030: 7947 a2bc 6f06 b7bd d375 8bbc 86af 07bd
00000040: e099 c7bd b2a0 dcbb 1df4 6a3c 2579 b5bd
00000050: a66a ac3c 12da 46bd 4f1e f13b d197 b6be
00000060: da7a 9dbc 807c bcbd c47a 2fbc d706 a33e
00000070: d197 c0bd 7652 e83d c754 0c3e 1ef1 bebb
00000080: 9f5b d23a 5411 a9bd 4435 85bd 0252 49bc
00000090: e6d8 453d 78dd c1bd 8b31 05bd e807 dfbd
000000a0: 7923 8dbd b8bb 8fbd 5e41 99bd 0e56 8ebd
000000b0: a127 b13c 4d87 963c 0c5d 293e de15 3a3d
000000c0: 2399 503d bd2f 343e 21a2 acbc bf74 a0bd
000000d0: af81 7abc 53ed bfbb 23a3 513c 3120 383d
000000e0: 3ee3 083d 8b17 aabd 6db4 83bd fe68 523e
000000f0: 6548 993c 35e1 51bd 4a93 603d fbf2 7fbd
00000100: fb14 663d 6f60 a23c a843 173d 122a 6ebd
00000110: c894 03bd 88b7 9fbc c795 acbd bd06 f4bc
00000120: dddb 863d a437 87be 8f8f fabd ea24 293d
00000130: e268 79bd 6fe3 243e c0d1 fc3a 625a ca3e
00000140: 9fb2 a83b 5242 ca3b 5d4f 9d3c 05fe e63d
00000150: 51fc 9ebd e437 01bd 4650 97bd d246 08be
00000160: ef7d 3d3d 7880 b8bc cdb3 09bd c405 433d
00000170: 86c9 7e3c c760 16bd bf11 38bd a90b 34be
00000180: 0df0 79bd c280 b63d 9d36 75be ae10 61bc
00000190: 5cbe fb3c 9eda c8bd 0e66 b7bd 8a03 f8bc
000001a0: a0d4 d8bd 498b 2dbd fbdb 833b 3a0d 743c
000001b0: 88bb a8bd e537 193d 3bdd 1fbd 17db 393d
000001c0: 2f44 54bd 4413 4939 c280 483d 9443 a1bd
000001d0: 97e9 c73d 056c 94bd 95ce 68ba b6f1 3ebd
000001e0: 9d43 373d caef 70bd 6754 383d 2809 12bc
000001f0: bdda 26bd 4ebf 3e3e dad0 0a3d 354a 14be
0.013236263 -0.05421367 -0.042888112 -0.036378827 0.18137786 -0.045977756 0.11950368 -0.032223746
0.045403916 -0.17141719 -0.024599347 -0.02842639 -0.019809471 -0.08936774 -0.017023956 -0.033126377
-0.09746146 -0.0067330236 0.014340428 -0.08860997 0.021046948 -0.04854781 0.0073583494 -0.35662702
-0.01922362 -0.09203434 -0.010710422 0.31841156 -0.09403957 0.11343853 0.13704215 -0.0058270833
0.0016049034 -0.08255258 -0.065043 -0.012287619 0.048302554 -0.0946607 -0.03251795 -0.1089018
-0.068915315 -0.070182264 -0.07483171 -0.069500074 0.021625342 0.018375063 0.16539401 0.04543101
0.050927293 0.17596336 -0.021073403 -0.078347676 -0.015289708 -0.0058571487 0.0127952425 0.044952575
0.03341984 -0.08305272 -0.06430898 0.20547864 0.018711278 -0.051240165 0.054827966 -0.062487584
0.056172352 0.019821374 0.036929756 -0.05814559 -0.03212431 -0.019496694 -0.08427005 -0.02978837
0.06584904 -0.26409638 -0.12234413 0.04129497 -0.06089104 0.16102384 0.0019288585 0.39522082
0.0051482464 0.006172457 0.019202882 0.11278919 -0.07762969 -0.031547442 -0.07388358 -0.13308266
0.046262678 -0.022522196 -0.033618737 0.04761292 0.015550977 -0.036713388 -0.0449388 -0.17582573
-0.061019946 0.08911277 -0.23946615 -0.013736887 0.030730419 -0.09807323 -0.08955012 -0.030275125
-0.1058743 -0.04236916 0.0040240264 0.014895732 -0.08238894 0.03740682 -0.03902934 0.045374956
-0.051822837 0.00019176031 0.048950918 -0.07874218 0.097613506 -0.072471656 -0.0008880881 -0.046617232
0.044742215 -0.05882243 0.045002367 -0.008913316 -0.04073595 0.18627664 0.033890583 -0.14481433

conv2.nn.0.weight f4 [128, 128]
00000000: d67a a93d 7dba 653d 0fdc 993c eed3 2cbc
00000010: 5f70 e83d 79ed 83bc 4c9e 28bf 3bc9 873c
00000020: 2da7 0bbd 5187 bbbd 56b8 9c3b 5e5f e03c
00000030: 02d4 75bd 21ef 6a3d ad8a 8f3d d16c 4cbd
00000040: c361 8ebd 1fb6 9a3d cda6 74bd c02f 24be
00000050: 48fb 5ebd 4f1a c2bc ee81 85bd 0871 93be
00000060: 3547 11bd 8dde a3bd 047f 9b3d b6c0 d53d
00000070: dd84 4bbe 063f dbbe 003d 873e 6985 96bb
00000080: 7749 9bbd 09c7 623d 1103 91bd e5c0 08bd
00000090: db4a bbbc ec3f b33d 55fd 023d a86b 3d3d
000000a0: f5b5 e6bf a1fc 23bd 984b 633c e727 833d
000000b0: 7c51 a2bc b2cb 753d ba51 2b3e 771a 0a3d
000000c0: 6ec4 eebb a854 ce3d a557 9abc 5072 97ba
000000d0: a762 b73c e8c5 d03b 8389 083d 71cb 60bd
000000e0: f0dd 94bc d3c1 e5bc c0b5 a0bd d8d7 573a
000000f0: 8a77 923d 2d2c b43d 0b1e 66be 7ca4 77bd
00000100: 0565 a83d 49e7 a5be 56f3 5fbc b229 e43b
00000110: 309d adbc c4b6 babd 7a8b 943d 807b debe
00000120: 4d6c 96bd 3cda af3e 056d 4e3d 3b12 a6bd
00000130: a99e ae3d c29a 61bf 2988 6bbc 508e e03c
00000140: 9ea6 43bd 1ecc 4dbd c3ec fa3b 6783 963d
00000150: dfa1 363d c242 1ebf 1389 abbd bfad b9bd
00000160: 48ea 1abd d012 afbc f745 29bd 28b1 36bd
00000170: ea2a 843d 8d71 08bd 760e 9abd 997b c2be
00000180: b5b6 9ebd 2001 e3bb bd78 813d e9f8 9c3c
00000190: 40d7 9d3d 1f82 a63d 9b49 533c f1da e8be
000001a0: 2b2d e33b c649 35bd c18a 36bd f09c b1bc
000001b0: 561b e9bc 8a71 993c 2554 033c 1ee8 9f3d
000001c0: 1085 f13b 35c9 1bbe 6387 07bd 02c3 4abd
000001d0: c1a7 783d 102a 9dbc 55e2 5a3d 1f05 3c3d
000001e0: 747d 8d3d 760d 02bd 52a1 283d 8157 903d
000001f0: ccbf 4fbc 25f2 343e 43b2 7ebb 13bc 45be
00000200: ec81 2c3d 7aa4 b03d 750e 77bd 72c3 d73c
00000210: 7d1c a8bc c062 683d d07f 383d 0db8 c1bb
00000220: 80d9 89bd f082 45bd f3cc 9abd 9b0e 24bd
00000230: d9c0 3cb8 b78c 0dbd 4ed6 7bbd 1ca0 1bbd
00000240: 0fe0 25bc a5f8 943d 5bd1 4dbb f912 023d
00000250: e49d 8f3d af6d 5a3d 01dd e13c 680d 52bd
00000260: 3321 c83c 7955 d2bc d9f2 24bd 860a 8c3d
00000270: 30be d7bb d3b6 f5bd bbda 1b3d 057f 58bd
00000280: 318a e43c 678e 33bc aa13 b1bd a31e a33d
00000290: d560 7cbd c0fd 0dbd de8c 98bc f415 b4bd
000002a0: 030b 5fbc f759 383d f28d 1d3c 4fc3 b43d
000002b0: c219 8e3d 41da 97ba 1060 aabd 4263 ac3d
000002c0: 01b4 023d 3676 94bd 3cf4 943b aff8 83bd
000002d0: d076 10bd 1b6a 36bd e471 193d c21f 8a3b
000002e0: a44a 90bd 7f89 16bc 527c 00bd 41a0 3fbd
000002f0: b5dd 773d 7e88 a13d 1fea 94bd d658 d1bc
00000300: dcf8 b9bc 5afd 9abd 5cf2 0b3d 1d3a 6c3d
00000310: 3e8c 993d 9164 fc3c 92cd 02bb f2a3 87bd
00000320: 1493 763d 0b95 9d3c aaa6 4f3d 24f3 a73c
00000330: 5c11 ec3c 42e5 94bd 950b 00bd 6c8d 5fbd
00000340: 119c 8b3d fabf 86bd 099d 043c c7dd 773c
00000350: 78f1 99bc fdf6 f2bd 75cc d8bb 05ac 89bc
00000360: 2cdc 963d e4f6 ccbd 94cf 98bc e0e0 213d
00000370: 5a69 e9b9 4c40 923d 7de4 5e3d 3d86 91bd
00000380: b753 b23d 4119 7bbc d374 893d 9f47 71bd
00000390: 15a7 1f3c 7ffb 963d 9c9f 39bd 2bc0 8ebd
000003a0: cdb8 563d 25bc 913c 46e4 8cbd 81d4 6a3d
000003b0: 7567 f0bc 3d38 5d3d 3020 80bd a57d a0bc
000003c0: 262d 97bd 6e90 95bd 74bc 01bc db34 863d
000003d0: 8f82 a9bd 1f77 81bd 2638 ca3c b8ad 91bc
000003e0: e826 1bbd bbf3 caba 73e9 dc3c 24bb a4bd
000003f0: 1344 8d3d 0fa5 2cbd 68b0 dc3a 466a 24bd
0.08275382 0.056086052 0.01878169 -0.010548575 0.11349558 -0.016104447 -0.6586654 0.016575446
-0.034094978 -0.09156669 0.0047827167 0.027389225 -0.06001664 0.057356957 0.07008872 -0.049908463
-0.0695224 0.07554268 -0.059729386 -0.1603384 -0.05443886 -0.023694186 -0.06518923 -0.28797174
-0.0354683 -0.080014326 0.07592586 0.10437147 -0.19874902 -0.4282152 0.26413727 -0.0045935404
-0.07582372 0.055365596 -0.07080663 -0.033387084 -0.022862842 0.087524265 0.031979878 0.046245247
-1.8024279 -0.040035848 0.013873003 0.06404095 -0.019814245 0.060008712 0.16730395 0.033716645
-0.0072866 0.10074741 -0.01884062 -0.0011554454 0.022385908 0.0063712485 0.033334266 -0.054881517
-0.018172234 -0.028046524 -0.07847166 0.00082337623 0.071517065 0.08797488 -0.22472398 -0.0604596
0.08222393 -0.3240302 -0.013668856 0.0069629783 -0.021193117 -0.09116891 0.072531655 -0.43453598
-0.073448755 0.34346187 0.050396938 -0.08108946 0.08526356 -0.88126767 -0.014375725 0.02741161
-0.04776632 -0.05024349 0.0076576187 0.07349282 0.044587966 -0.61820614 -0.08375754 -0.090663426
-0.037821084 -0.021371275 -0.04132649 -0.044602543 0.06453498 -0.033311415 -0.075222895 -0.37984923
-0.07749692 -0.0069276243 0.06321857 0.019161658 0.07707071 0.081302874 0.012895967 -0.4547954
0.0069328747 -0.04425981 -0.04456592 -0.021681279 -0.028455418 0.018730897 0.008015667 0.07807945
0.0073705986 -0.15213473 -0.0330881 -0.04950238 0.060706858 -0.019185096 0.053438503 0.04590332
0.06908694 -0.03175112 0.041169472 0.0704794 -0.012680005 0.17670496 -0.0038863576 -0.19310026
0.04211609 0.086251214 -0.06031652 0.026338313 -0.020521397 0.0567348 0.045043766 -0.005911833
-0.06730938 -0.048220575 -0.07558622 -0.04005299 -4.5002296e-05 -0.034558024 -0.061483674 -0.03799449
-0.0101242205 0.07273988 -0.0031405303 0.031756375 0.07012537 0.05332726 0.027571203 -0.051282316
0.024429893 -0.025675522 -0.04027066 0.06837945 -0.0065839514 -0.119977616 0.038050395 -0.05285551
0.027897926 -0.010959244 -0.08646329 0.07964828 -0.061615784 -0.034665823 -0.018621858 -0.0879325
-0.013613465 0.045007672 0.009616362 0.08826315 0.06938507 -0.001158543 -0.08319104 0.084173694
0.031909946 -0.072491094 0.0045457166 -0.06443917 -0.03526956 -0.044534784 0.03746213 0.0042152116
-0.070454866 -0.009188055 -0.03136856 -0.04678369 0.06051417 0.07887362 -0.072712176 -0.025555056
-0.022701673 -0.07567854 0.03416668 0.05767261 0.07497452 0.030809673 -0.0019958955 -0.06623067
0.06019886 0.019236108 0.050696053 0.02050168 0.028816871 -0.0727029 -0.031261045 -0.05457823
0.06816877 -0.065795854 0.008094081 0.015128559 -0.0187919 -0.118635155 -0.00661617 -0.016805658
0.07366213 -0.10008028 -0.018653668 0.039521098 -0.00044519716 0.0714117 0.054417122 -0.07105682
0.087073736 -0.015325845 0.067117356 -0.058906194 0.009744425 0.07372188 -0.04531823 -0.06970247
0.052422334 0.01778991 -0.06879477 0.057331566 -0.029346207 0.05400871 -0.06256139 -0.019591162
-0.07381658 -0.073029384 -0.007918466 0.0655305 -0.08276855 -0.06321549 0.024684977 -0.01778303
-0.0378789 -0.0015484014 0.026966786 -0.08043507 0.0689775 -0.0421496 0.0016837241 -0.040140413

conv2.nn.0.bias f4 [128]
00000000: efbf 23be 5c22 4cbd 9d3c 4c3d 338c 28bc
00000010: 1e54 afbe 0a3c 4dbe 1ca6 9fbd 5304 773e
00000020: d4d1 95bd 52be 553c 4e77 c7bd 285c 3cbe
00000030: 8fb3 a9bd 72f0 2b3e 5653 bebd 8b3b 06be
00000040: 59ce 8d3c ebc2 a5bd 5706 39bd 1b7a 8fbe
00000050: 1b4b 81be 904b a9bd 58cd 133e df27 893e
00000060: d3dd 1ebe 5d9a 7f3d 2ac1 9f3d ddb8 c1bb
00000070: 0991 353d 04c4 7d3d f258 f9bc f92a 07be
00000080: d72b 43be 4294 003d fde5 c0bd 5faf 88be
00000090: e119 11be ecb1 e5bd d9d9 72bd 3cc4 8abd
000000a0: 26ac b4bd c498 a8bd 4de0 e73d 16be f4be
000000b0: bda5 d83d 4e64 e43e 9724 543d af62 833d
000000c0: d4b4 5c3c 65b6 dbbd 1c8e 7f3d a675 283e
000000d0: 7443 8a3c d52c 44be 5d82 373e d05a 32bd
000000e0: 544f d63b 651f 04be 6077 f0bc e286 b3bd
000000f0: 9fab eb3d 2efd 01be c64d 1bbd 9f67 6dbc
00000100: 2b0f 29be 8994 863e c3ed f03d bba5 1b3e
00000110: a2e7 b4bd 9905 5bbc 022d c8bd 7aec 31bc
00000120: a85d c5bc 2377 02be 7e33 26bc cdf6 cabd
00000130: 6406 d0bd 3ef0 05be d448 c8bd 9d0f 27be
00000140: b6ec d1bd da71 d0bd d534 113d 49c1 433d
00000150: 0304 bbbd 2b53 823c 5959 e8bd 2528 8dbe
00000160: 5a3d ebbe 4190 9f3e 192f 88be 6c97 4b3b
00000170: 6a68 d3bd e244 c8be 0a32 283e 797a b5bd
00000180: 2e02 8e3b 87cc cdbd 26d2 9dbe 5394 a8bc
00000190: 6658 21bc 7178 f4bd 906d 343c a773 00be
000001a0: e460 a5bd 71b5 c7bd 9453 0fbe 0734 b2bd
000001b0: aa30 063e 0986 82bd e5cc 0c3d 9b2b 44be
000001c0: 52e6 0abe aad0 02bd 1843 f0bd 94e7 973d
000001d0: 62a1 1fbe 458a 403c e3ce 843d 04db bbbd
000001e0: de00 8fbc c249 a6bd 43f1 3bbd a37a 3ebe
000001f0: 4895 2c3d a050 babd 0ae7 b6bd 5a70 0a3d
-0.15991186 -0.049837455 0.049862493 -0.010287332 -0.34243864 -0.20042434 -0.07795355 0.24122743
-0.07315412 0.013045864 -0.097395524 -0.1839453 -0.08286201 0.16790941 -0.09293239 -0.13108651
0.017310308 -0.08093818 -0.04517206 -0.28022847 -0.25252613 -0.082663655 0.14433801 0.26788232
-0.15514307 0.06240307 0.07800515 -0.00591193 0.04432777 0.061954513 -0.03043792 -0.13199987
-0.19059692 0.03139139 -0.09418867 -0.26696298 -0.14170028 -0.112155765 -0.059289787 -0.0677571
-0.08821897 -0.08232263 0.11322079 -0.47801274 0.10578487 0.44607776 0.051792707 0.06415307
0.013470847 -0.10728148 0.062391385 0.1645113 0.016877867 -0.19157727 0.17920823 -0.043543637
0.0065402184 -0.12902601 -0.029353797 -0.08765961 0.115073435 -0.12694237 -0.037915967 -0.014490037
-0.16509692 0.26285198 0.117640994 0.1519994 -0.08833243 -0.013368034 -0.097742096 -0.010859603
-0.02409251 -0.1274076 -0.010144113 -0.09910355 -0.10157469 -0.13079926 -0.09779516 -0.1631455
-0.10250227 -0.101779655 0.035450775 0.047791753 -0.091316245 0.015908798 -0.11345167 -0.2756969
-0.45945245 0.31164744 -0.26598433 0.0031065596 -0.1032265 -0.39115053 0.16425338 -0.088612504
0.004333756 -0.10048776 -0.30824393 -0.020578539 -0.009847736 -0.11937035 0.01101245 -0.12544118
-0.08075121 -0.09751404 -0.13996726 -0.0870133 0.13104501 -0.063732214 0.03437509 -0.19157259
-0.13564423 -0.03193728 -0.11731547 0.07417217 -0.15588906 0.011751716 0.06484773 -0.09172633
-0.017456468 -0.08119537 -0.045884382 -0.1860147 0.042134553 -0.09097409 -0.08930786 0.033798553

conv2.nn.2.weight f4 [128, 128]
00000000: 3274 acbb 0465 923d f88d 8bbf 3006 53be
00000010: 7b74 19bf db04 3fbe e6d1 2abe 74b7 c5be
00000020: 7b4f 0a3e 52f1 d3bb ebd4 62bf c1b0 7e3e
00000030: 31cb d93c 2fb0 cbbd c010 9c3c 55ad 69be
00000040: 539f 84be 1ed6 eabd 0939 23bf 5948 c0be
00000050: bff8 23be 684c 6cbe 0e7e 873e 941b 57be
00000060: 8f8d 81bd c546 5d3e 2016 c53d 1a39 35be
00000070: 6b33 8b3d 20b0 96be 9523 93bc 6385 08bd
00000080: 50d3 823e 37da 47bc 476a cc3d 4392 c4be
00000090: 31f4 9f3b ec33 59bd 3606 f03d c221 023e
000000a0: fe24 5b3d cab7 733c cbe0 5d3e 8940 83bc
000000b0: e221 513e 1bfe aabe 683f 5e3e cfd8 2bbf
000000c0: adef 2dbf 470e 82bd 8392 fbbe fc2f 98be
000000d0: 114e 5a3c e7f1 d1be 41fc afbe 42a7 723e
000000e0: 9793 053d c87f 77bd c200 18be 3131 eb3d
000000f0: 5149 3ebe 5448 f13d b9f1 ac3d 7eef da3c
00000100: fde1 f33e e23e 7c3d 5da7 c43e c5fe a9be
00000110: 37c3 9dbc 55b2 4a3d 507b 9b3d 35bd 733d
00000120: f1a2 77bd 804b 8dbe d2e4 d9bc 4bf9 1dbf
00000130: 1459 16bd 1cd1 eb3d 3374 903d 76e1 863e
00000140: e2af a23d 4e7a a1be 9af1 ffbe 7d52 94be
00000150: 8a65 b5be a793 95be 2dc7 a6be 7e42 433d
00000160: c56e 83be 9750 a4bd 2546 9a3c 0b7b 0cbe
00000170: b75c 14bd 696f 063e b94f 82be 40d4 e2be
00000180: c4b5 d83d e034 7abd f608 0f3e 5021 6f3e
00000190: 79a0 65bd d6f5 b7bd 4edc adbe 4a76 85bc
000001a0: d98c 853d f4de f83c 6634 a5bd 6130 45ba
000001b0: df5f 2c3e 90ab 5bbe 47d5 75ba 9ffb 25be
000001c0: cb02 303e fa1a 10be 553e 4fbc 5d43 c13d
000001d0: ccc1 b63d e782 33be a67e 993c 7aae d23e
000001e0: 3dc7 e2bc 6359 423e 39ae e0bd 2531 17be
000001f0: 9088 c8bd 6432 b93d d66b a43e 68c6 3abd
00000200: aa7c a6be 8e32 993d 3df9 d33d 6571 2d3e
00000210: 758e 90be d405 8e3e dd6a a2be ab6c 16bf
00000220: 5842 143e f7bd ddbd f9a7 833e d042 073f
00000230: 47df 2abe 9a12 99bd 9336 9a3c 78f3 babe
00000240: 6124 0d3e ef2a 78bd 24bc 773e a928 febd
00000250: 692d 0dbe a306 c33e 2898 8b3d fd84 55bd
00000260: 87bf e93c 83bc 6cbe 5cbf 0cbe 72bf 14be
00000270: 2c39 40bc 524b 233d d8fe b73d 0821 553d
00000280: 755e 78be 6efd 71be 656d 8ebe fdc7 68bd
00000290: 3bff 81bf 5f10 c8be b6d6 61be 1ac0 fabd
000002a0: 1836 95be d565 9dbd 7acf 42bf 84d0 4a3d
000002b0: 9eb5 11be 229a aabe ab93 52be 8aa2 943d
000002c0: d4a0 50be 8368 373e 35af f7be c353 d2be
000002d0: 332e 31be d60f 89be 357a 32be c792 32bd
000002e0: 0579 5fbd 3d4e 96be 8b88 c9be cbd8 17be
000002f0: e4fb 263d e45d e3bd 7f14 7e3d 4b32 50bd
00000300: b494 c6be 8bed 2bbd c874 6a3d 766d 4abd
00000310: 1746 67bd de6d 02bf ff0c fc3c 9bbc f0bd
00000320: 1ac3 f63c fccf 49bd d24f a23d fe81 06bf
00000330: 9e7c 26bd 4e49 fcbe f6f5 61be 080c 843e
00000340: 8411 60bd abf2 cdbe 203b 8cbe 8c12 bebe
00000350: ad1c 1ebe 287c cebd 4970 37bd b898 8d3e
00000360: 823e fabb c86c 38bf 5055 a9bd fd55 08bf
00000370: 31ee 33bd da37 c33d 5729 3d3c 4d1d c4be
00000380: bd7f a6be 80cb 293d 24f6 7fbe 3ae3 0c3d
00000390: 947c d93d bfae 1ebd 18bd 2ebf 4c3d 67bd
000003a0: 43fe 9ebe f590 b3bd 3b34 19bc 17aa a63e
000003b0: 127f 84be 935c 93bd 0b85 2bbe ffed e1bd
000003c0: d70b a9be 9d7b 263d f57a 463d 3eda c83d
000003d0: a296 9b3a a826 b8be 2c3b 903d dbd9 e33d
000003e0: d319 f0bc 3171 82be 15df ec3d c058 83bd
000003f0: 9d81 ef3d 59e4 293d 2bba 0ebf 07cc 18bd
-0.005262875 0.071481735 -1.09027 -0.20607829 -0.5994336 -0.18654196 -0.16681632 -0.38616526
0.13506882 -0.0064679766 -0.8860614 0.24872114 0.026586147 -0.09945714 0.019050956 -0.22820027
-0.25902805 -0.11466621 -0.63758904 -0.37555197 -0.16012858 -0.23076022 0.2646336 -0.21006614
-0.06325828 0.21609028 0.09623361 -0.17697564 0.067969166 -0.29431248 -0.017961303 -0.033330332
0.25551844 -0.012198023 0.09981208 -0.3839284 0.004881405 -0.053028032 0.11719935 0.1270819
0.053502075 0.014875362 0.21667783 -0.016021984 0.20423082 -0.33396992 0.21703875 -0.671277
-0.6794384 -0.063503794 -0.49135217 -0.2972411 0.013324277 -0.4100487 -0.34372142 0.23696616
0.032611456 -0.060424596 -0.14844039 0.11483992 -0.18582655 0.117813736 0.084445424 0.026725527
0.47633353 0.061583407 0.38408938 -0.33202186 -0.019258125 0.049486477 0.07591879 0.059506614
-0.060458127 -0.27596664 -0.026598368 -0.61708516 -0.036706045 0.11514494 0.07053413 0.26343888
0.07943703 -0.31538624 -0.49989015 -0.28969184 -0.3542903 -0.29214212 -0.32573834 0.047670834
-0.25670448 -0.08023184 0.018832276 -0.13718812 -0.036221232 0.13128437 -0.2545145 -0.4430256
0.10581544 -0.06108558 0.13968262 0.23352551 -0.05606124 -0.08982436 -0.33957142 -0.016291756
0.06521005 0.03037975 -0.08066635 -0.00075221626 0.16833447 -0.21452165 -0.0009377789 -0.16209267
0.17188565 -0.1407279 -0.012649138 0.09436677 0.089236826 -0.17530404 0.018737148 0.4114874
-0.027682895 0.18979411 -0.1097073 -0.14764841 -0.09791672 0.090428144 0.32113522 -0.04559937
-0.32516986 0.07480346 0.10350273 0.16937788 -0.28233686 0.27738822 -0.31722155 -0.58759564
0.14478433 -0.108272485 0.2571409 0.5283632 -0.16686736 -0.07474251 0.018824851 -0.36513877
0.13783409 -0.06058782 0.24192864 -0.12410099 -0.13786854 0.38091 0.06816131 -0.05212878
0.02853371 -0.23118787 -0.13744873 -0.14526156 -0.011732381 0.039866753 0.089841545 0.052033454
-0.24254782 -0.23631832 -0.27817836 -0.05683135 -1.0156015 -0.3907499 -0.22054562 -0.12243672
-0.29142833 -0.076854385 -0.76097834 0.049515262 -0.14229438 -0.3332072 -0.20564143 0.07257564
-0.20373851 0.17910962 -0.4837586 -0.4107953 -0.1730278 -0.26769894 -0.17429431 -0.04359701
-0.054558773 -0.29356566 -0.39361987 -0.14828794 0.040767565 -0.111018926 0.062031265 -0.050829213
-0.38785326 -0.041974586 0.057240278 -0.049420796 -0.056463327 -0.50948894 0.030767916 -0.11754724
0.030122329 -0.049270615 0.07925381 -0.525421 -0.040646188 -0.49274677 -0.22066483 0.2579043
-0.054704204 -0.40224203 -0.2738886 -0.37123525 -0.15440626 -0.10082275 -0.044784818 0.27655578
-0.007636846 -0.72040987 -0.08268225 -0.5325621 -0.04392833 0.09532137 0.011545501 -0.38303605
-0.32519332 0.04145384 -0.24996239 0.034396388 0.106194645 -0.03874087 -0.68257284 -0.05645494
-0.3105336 -0.08767883 -0.009350832 0.32551643 -0.25878197 -0.071953915 -0.1674997 -0.11031722
-0.33016846 0.04064523 0.048457105 0.098072514 0.0011870454 -0.35966992 0.07042536 0.11125537
-0.029309189 -0.25476983 0.11565987 -0.06413412 0.11694644 0.041477535 -0.5575282 -0.03730395

conv2.nn.2.bias f4 [128]
00000000: 273d c43c 4328 1dbc 7b8c ea3d 6b7c 763b
00000010: 6e63 29be f096 1cbd fcb8 013e 0cee b9bd
00000020: 709c 09be 692a 0cbe 6144 83be c766 babd
00000030: dede 41be 3e70 3fbd f753 82be a63b c5bd
00000040: b9b5 1f3d 60d4 1a3d b635 70bd bbb6 28be
00000050: eb83 eabe b235 1f3d a1e4 27be 6ea5 44be
00000060: 4e6a 823b 1675 ad3d b98e 0a3e b20e 6cbd
00000070: b340 893e 4564 e4bd 7172 65bd a37e c2be
00000080: 6d71 d9bc 2681 2cbd e1b1 8a3d 4627 b03d
00000090: 9a22 a9b9 6c16 2cbd 9674 6dbd cae0 5fbe
000000a0: e0e6 1abe fb0b 39bd 2fd9 23be de96 c63d
000000b0: 048b e5bd 37a8 01be d4f7 dabd b085 333d
000000c0: 1090 d7be 18da adbd f944 1abe 8513 87be
000000d0: 0529 03be 776e 77bd 2e8c 493e ae88 5dbe
000000e0: 00dd 063b ea09 d7bc a259 b4bb 9384 a83a
000000f0: 68dd bebd 3dea 09be 90e5 aebd 7f8e 1b3e
00000100: dd31 bf3c 9ea4 06bd a6ab 3ebe 3bb6 973e
00000110: e9a3 22be ea8b 84bd 8811 4fbe f33e 013d
00000120: 74fc 71be 2ca4 413d a1c1 843d dfbc 313e
00000130: 2469 0abd 3231 d8bd 4266 33be a2b2 aebe
00000140: 2f38 c13d 2fe0 2a3d e675 253d eb11 e9bd
00000150: 4669 cabd 7e6f 293d 7512 bebd 60d4 26bd
00000160: ed4e 7bbd a990 94bd 2e8c 87be d499 c83c
00000170: 4eb2 83bd a507 e0bd 9603 0dbe d841 6bbe
00000180: 477d 7c3d bba9 c8be efbc 773d 2244 05be
00000190: 66f2 4ebc dee3 85bd f401 58bc 3c02 70be
000001a0: 5941 8a3e 7349 0ebd d28e 09be 51f8 3fbe
000001b0: d0ab 6b3c 864d 853d 9c83 88be 545c 6dbc
000001c0: 60ee cabd c19b 2b3d 0921 9cbe ce89 a0bd
000001d0: 692e 66be 138e 65be 2e57 b6bd d609 16be
000001e0: 2e4e cbbe 7678 0bbf 99f8 1cbe 7479 84be
000001f0: 9340 5dbd 15ac 083b 2713 e4bd 3683 4abe
0.023954941 -0.009592119 0.11452576 0.003761078 -0.16541836 -0.038229883 0.12668222 -0.09078607
-0.13438582 -0.13688053 -0.25638106 -0.091016345 -0.18932673 -0.046737902 -0.25454685 -0.09630518
0.038991664 0.037800193 -0.058644973 -0.16475956 -0.4580377 0.038869567 -0.16395809 -0.19203731
0.0039799577 0.08469598 0.13531007 -0.057631202 0.26807174 -0.111519374 -0.056017343 -0.3798724
-0.026543343 -0.042115353 0.06772209 0.08601241 -0.00032259972 -0.04201357 -0.057972513 -0.21863094
-0.15127134 -0.04517744 -0.16000818 0.096967444 -0.11208156 -0.12661825 -0.10691801 0.043828666
-0.42102098 -0.08488864 -0.15065373 -0.2638208 -0.12808616 -0.06040808 0.1968238 -0.2163417
0.0020578504 -0.026249845 -0.005503849 0.0012856893 -0.09319574 -0.13468261 -0.08539879 0.15191077
0.023339206 -0.032871835 -0.18620166 0.29631218 -0.1588284 -0.06471999 -0.20221531 0.031554174
-0.2363146 0.047275707 0.06482244 0.17357205 -0.033791676 -0.10556258 -0.17519477 -0.3412066
0.09434544 0.041717704 0.04039564 -0.11380371 -0.098833606 0.041366093 -0.09280864 -0.04072988
-0.061354566 -0.07254154 -0.26474136 0.024487413 -0.06430493 -0.10938958 -0.13770899 -0.22974336
0.06164291 -0.39191994 0.060482915 -0.13014272 -0.0126310345 -0.06537603 -0.013184059 -0.23438352
0.2700298 -0.034738015 -0.13433388 -0.18747069 0.014384225 0.06508927 -0.2666291 -0.014487345
-0.09908748 0.041896585 -0.30493954 -0.07838784 -0.22478642 -0.22417478 -0.08903347 -0.1465219
-0.39708084 -0.54480684 -0.15329207 -0.2587391 -0.05401666 0.0020854522 -0.111364655 -0.19776616

out.weight f4 [128, 128]
00000000: 3504 b6be 8b43 863e 1f49 593e a24d 28bd
00000010: 9256 1fbf ac17 fc3e b381 203e 06d8 d63e
00000020: 3643 cb3d 3ee9 10bf 6aa7 ca3d 79e5 963d
00000030: 5886 633f d010 123f 7f28 b0be 7416 013c
00000040: daf5 143f f804 9f3d 79ba ec3e 1fe2 ef3c
00000050: d850 9cbe 0d42 a9bd 8387 2cbe a1d9 c6bd
00000060: fb2a 4d3d 6101 c2bd bf3f 143d bb7e 823d
00000070: 2207 91be b68d 883e 3b50 7b3e d208 04bf
00000080: 90a1 3d3c fdd9 563e a3f3 1d3f e008 1c3f
00000090: 92ee fb3c da2c 2b3e f527 cb3e f423 823c
000000a0: 1972 9fbd caad cd3d 4a12 d9bd 2905 67bc
000000b0: c7cc 373d 769b b0bc fb7b a53d 620c 87be
000000c0: fbda 6d3f b996 ec3d cddd e1bc 5dbb 2bbd
000000d0: e1c7 cd3d b901 ef3d f184 9abd 7145 a3be
000000e0: c6a0 62be 9ab7 e1bd 12b7 fdbd bfca ecbd
000000f0: d7e9 6a3e 5ce9 a2be 4c1e 493e 6819 b53e
00000100: 14bf 41bd 1b10 803e c297 1abe d1e8 babe
00000110: f3cd a93d a00a c7be 93f5 d63e b56a 65be
00000120: ab9b 3ebd 49e9 3e3e 01d6 b73b ed68 f53e
00000130: fe13 133e 4d50 fc3e a30e ccbb a201 2cbe
00000140: 0168 f4be 6232 02bf 1d3d 463e 2323 b3bc
00000150: 3e20 0b3f 289e 6f3d 05d4 303e 49dd eebe
00000160: aa74 703c 63ff 84be 7057 303f 3411 c53e
00000170: 18a4 253d 4e4f 9e3d 6b06 06bf 0aed 0a3f
00000180: 9aa4 1a3e 3702 8ebe 428d c53d 383f 443e
00000190: 4049 0bbe 12e8 27be fc0b 54bd 6fe0 223e
000001a0: a41e b1bd d04a 7f3c 7a07 803d 26f1 f73e
000001b0: 7cb0 8cbc a7c1 263e 692c 9e3b 103f 8b3e
000001c0: ed4f 453c 0928 a03e f5b8 64be 1b19 7e3e
000001d0: 0db0 163c 41f6 b7bc 7f25 103e 377c 6ebe
000001e0: e2ae 49be 6460 293f e8ef 99bb 20ce 92bd
000001f0: 881c 7a3d 0673 273e a8fe e63d d09b f0be
00000200: 5052 c2bc b53e 45bf bd83 03bf c2b2 ae3b
00000210: 98bb 1b3f 2d5b 06bf 5322 a7be 8706 593e
00000220: 2e6d 813d 3598 46bf 189e 0dbf b28c 953e
00000230: 8404 12bf 59fe 63bf 476f b3bc 28da 35bd
00000240: cc18 393e 960e c13d ddbd 0cbe ab28 e63b
00000250: 2ef0 223f bba4 7d3d f0ca cdbd fe28 843e
00000260: c850 a23d f693 203b b124 1d3e c13d 5abd
00000270: 0373 5f3e 5f68 04bf 2a07 323d 95e3 f13e
00000280: add5 2b3e eb40 3e3e d5c7 e6be 2c2d 92be
00000290: e6da f93d ef11 2c3e 083f cdbe f66a 4a3e
000002a0: 4cea f5bb ab87 883e 8d09 ad3e 777e 42bd
000002b0: 38e8 c8bd 1943 503d 43dd 0ebe d1ee 8bbd
000002c0: c8a0 e3be 81b7 a33c 0acf 0abf 998d adbd
000002d0: db4c 97bc 737d 903c 7b5d 833e ece2 a33e
000002e0: 1bb7 d83e d5e8 d13d a53c b6bd 4d4b 1f3f
000002f0: 7373 c4bd 7993 06bc f7fd c83e 762a 02bf
00000300: 9a50 65bd 7454 ca3e ebb2 723e fec1 553d
00000310: 19b0 36be 677f 92bd 7a6f fcbd f031 8b3d
00000320: d3c8 3f3e 3b06 d03c 3888 173e 3f83 a0be
00000330: 72cf 863e d4a9 023c 77aa 193e 6375 6c3e
00000340: 3578 8f3e 92ea cd3e 54da 103e 3d9d 0b3e
00000350: e92b a53c 6fda 37bf d28c a4be a863 ae3e
00000360: 7b70 3a3e 6f40 e13d 5f95 81be 2c87 e0be
00000370: 109a cd3e 1858 edbc e914 123f 20b5 773e
00000380: c192 5dbd 3d46 233e b5d2 ebbe 6fcb acbe
00000390: 4956 9e3d b0aa 5c3e 92db 9c3b 3da5 69bd
000003a0: 5a8a adbe de5b 1f3d d977 ffbc 93d8 3dbf
000003b0: c06c 89be 7e70 583d 5080 13be 5437 a9be
000003c0: d4d8 84bd fafa 6d3d 5cd6 ad3e 7e55 2abf
000003d0: d744 b6bd 0fc3 9b3d c3f4 1bbc 820f 0d3e
000003e0: e0db f63e 595f b5bd 3d52 853d f5e0 3a3d
000003f0: f10e ec3d 2d5e 39bc 13d8 04bf dc8c 2e3f
-0.35550085 0.26223406 0.212193 -0.04108966 -0.6224147 0.4923681 0.15674476 0.41961688
0.09924929 -0.566059 0.09895213 0.07367987 0.8887687 0.57056904 -0.34405896 0.007878888
0.5818764 0.077646196 0.46236017 0.029282628 -0.3053043 -0.08264551 -0.16848569 -0.09709478
0.050089817 -0.09472919 0.036193606 0.06371828 -0.28325754 0.26670617 0.24542324 -0.5157596
0.011574164 0.20981593 0.61699885 0.6095104 0.030753408 0.16716328 0.39678922 0.015886284
-0.07785434 0.10042913 -0.105991915 -0.014100351 0.044873025 -0.021558505 0.08080288 -0.26376635
0.9291226 0.115521856 -0.027571583 -0.04192673 0.100478895 0.116702504 -0.07544888 -0.31888917
-0.22131643 -0.11021347 -0.123884335 -0.11562108 0.22940765 -0.31818664 0.19640464 0.35370946
-0.047301367 0.25012287 -0.15096954 -0.3650575 0.08291235 -0.38875294 0.41984233 -0.22403987
-0.046535175 0.18643679 0.005610228 0.47931615 0.14363095 0.49280015 -0.006227331 -0.16797498
-0.477356 -0.5085813 0.1935925 -0.02186734 0.5434607 0.05850044 0.17268379 -0.46653202
0.014676252 -0.25976095 0.6888342 0.38489687 0.040439695 0.0772997 -0.52353543 0.5426794
0.15101853 -0.27736065 0.096460834 0.19164741 -0.13602161 -0.16397122 -0.05176924 0.15905927
-0.08648422 0.0155818015 0.06251426 0.4842617 -0.017173998 0.1628481 0.0048270714 0.2719655
0.012042982 0.31280544 -0.2233618 0.24814264 0.009197247 -0.02245629 0.14076804 -0.23289572
-0.19695619 0.66162705 -0.0046977885 -0.071682215 0.061062366 0.16352472 0.112790406 -0.46993876
-0.02372089 -0.7704881 -0.5137289 0.005331368 0.6083312 -0.52482873 -0.32643375 0.21193896
0.063196525 -0.77576 -0.55319357 0.29208905 -0.5703814 -0.8905998 -0.021903647 -0.044397503
0.18075866 0.0942661 -0.13744302 0.007023891 0.63647735 0.061924677 -0.10048473 0.25812525
0.07925564 0.0024502254 0.15346028 -0.05328155 0.21821217 -0.5172176 0.043463863 0.47243944
0.1678073 0.18579452 -0.45074335 -0.28550088 0.12199955 0.16803716 -0.40087152 0.19767365
-0.007504737 0.26666006 0.3379635 -0.047483888 -0.09809917 0.05084524 -0.13951592 -0.0683266
-0.44458604 0.019984962 -0.54222167 -0.08474273 -0.018469265 0.017637944 0.25657257 0.32009065
0.42327198 0.10249487 -0.08898286 0.62224275 -0.09592333 -0.008213871 0.3925626 -0.5084604
-0.05598507 0.39517558 0.23701064 0.05218696 -0.17840613 -0.07153206 -0.1232595 0.06796634
0.18728952 0.025393596 0.14798057 -0.31350133 0.26330143 0.0079750605 0.15006433 0.23091654
0.28021398 0.40218025 0.14145786 0.136342 0.02016254 -0.7181768 -0.32138687 0.34060407
0.1820697 0.10998618 -0.25309274 -0.43853128 0.40156603 -0.02897267 0.57063156 0.24190187
-0.054095034 0.15944763 -0.46059194 -0.33748958 0.07731301 0.21549487 0.004786917 -0.05704235
-0.33894616 0.03890597 -0.031185078 -0.7415859 -0.26840782 0.052841656 -0.14404416 -0.33050025
-0.06486669 0.058100678 0.33952606 -0.665367 -0.08899849 0.07605564 -0.009518805 0.13775447
0.48214626 -0.08856077 0.06509826 0.045624692 0.11526287 -0.011313957 -0.51892203 0.68183684

out.bias f4 [128]
00000000: 5268 42bc a6a1 8a3c 31cf f3bc f883 c5bc
00000010: a5b2 30bc 3ac0 833c 7102 0cbd b62a 38bb
00000020: fe81 12bd f9c5 5a3c 3cb8 733d dc3f d2bb
00000030: 5b1a bc3b 2298 8e3d 3d7c 353d 3212 443c
00000040: 6ea5 f03c eb7b 5f3d f3da 87bd 7a15 453d
00000050: 69ab b1bc 6068 fbbc dbb5 9cbc f273 ff3c
00000060: 4466 d13c 7de7 ebbc 8e4d ebbc 3c6a 153b
00000070: 1f90 973b 487a 413c efa3 57bc cf85 a6bc
00000080: b7d5 f33c 387b 64bc 821a 1e3d 33fb e93c
00000090: f5cb eebc 0c39 ff3b c053 653c 24e6 d33c
000000a0: 366f 55bd 2ade 473c d021 d43c 13c1 11bc
000000b0: 4ab3 a43b 493f da3a 0fd4 c23c 1c4b 5a3c
000000c0: 27e2 9c3c 1ce8 c63a 25e8 50bd 18fe 223c
000000d0: 5a84 a4bd a48d d73c c93e aabb b46b 403d
000000e0: 3b6d 41bb 69ba 63bd ac52 bdbc 1fd3 253d
000000f0: c952 2ebb 3282 153d ea8e db3c 029a 2cbc
00000100: 1f6a 8dbc 7861 343d ce40 61bc 3982 b8bc
00000110: c3fc 013d 6a18 30bc 923b 023d e7e7 433c
00000120: 79e4 053d d6fd 9ebd 88d9 4c3d 36dd 88bc
00000130: ea3e 283c d857 473d 633c b7bc f3ab dfbc
00000140: b67a 33bd 36a4 923c 6981 4bbd bf53 11bd
00000150: 3554 66bd effe 9d3d 25b0 20bd 05d0 afba
00000160: 870c 11bd 2b91 7d3a 0c01 8f3d 42d4 bf3c
00000170: e36a 793d 278a c73c 7a33 69bb 12e6 a13c
00000180: 8dba 2bbd ddbf ec3c 39ef 76bd 6fb4 9a3b
00000190: 305e cbbd 193a 6a3d 1610 debc 606b 933c
000001a0: f089 9b3c 939d 593c f0f9 11bd 6907 373c
000001b0: a162 ab3c 3141 e43c a503 dfbc d0ce 833d
000001c0: 6544 573d 933d f1bc 67c6 e93b 4856 77bc
000001d0: 73a2 143d 4c0e 19bd 171f 3b3d c33e 773c
000001e0: f992 833b 3780 4dbd 1a27 04bc 3ec1 64bd
000001f0: 70ef 6cbb 8245 d6bc 6e07 1a3c 828f 183d
-0.011865692 0.016922783 -0.029761882 -0.02411078 -0.01078478 0.016082872 -0.034182016 -0.002810163
-0.0357685 0.013352864 0.05950187 -0.006416304 0.0057404465 0.06962611 0.044307936 0.011967229
0.029375758 0.054561537 -0.06633558 0.048116185 -0.02168818 -0.030689418 -0.019129684 0.031183217
0.02556146 -0.028796906 -0.028723504 0.0022798916 0.004625335 0.011808939 -0.013161643 -0.020327477
0.029764993 -0.013945393 0.0385995 0.028562164 -0.029149989 0.007788783 0.013997018 0.025866576
-0.052108012 0.012198964 0.02589503 -0.00889613 0.0050262557 0.001665094 0.023782758 0.0133235715
0.019150807 0.0015175375 -0.05100264 0.009948276 -0.080330566 0.026312657 -0.005195473 0.046977714
-0.002951457 -0.055597696 -0.02311071 0.040484544 -0.0026599637 0.036501117 0.026801545 -0.010534765
-0.017262517 0.044038266 -0.013748361 -0.022523033 0.031735193 -0.010748008 0.031795092 0.011957145
0.03268859 -0.07763259 0.05001214 -0.016707044 0.010268906 0.04866776 -0.022367662 -0.027303671
-0.0438182 0.017900568 -0.049683962 -0.035480257 -0.05623265 0.0771464 -0.039230485 -0.0013413435
-0.035412338 0.0009672816 0.069826216 0.023416642 0.06089295 0.024357868 -0.003558366 0.019763026
-0.041925956 0.028900081 -0.060286734 0.0047212164 -0.09930074 0.057184312 -0.02710728 0.017995536
0.018986672 0.0132821975 -0.03563875 0.0111712 0.020921053 0.027863117 -0.027223418 0.06435931
0.05255546 -0.029448306 0.007134247 -0.015096255 0.036287736 -0.03736715 0.045683946 0.015090647
0.0040153232 -0.050171103 -0.008065963 -0.055848353 -0.0036153458 -0.02615619 0.009401185 0.037246235
