QM/src/kiba_model.pt (torch, 548277 bytes, 16 tensors)

conv1.nn.0.weight f4 [128, 14]
0	0xbe400a81	-0.18754007
1	0x3df82b6c	0.12117657
2	0xbe3f0aef	-0.18656515
3	0x3e5c2a2a	0.2150046
4	0x3d98a990	0.074542165
5	0x3df68186	0.120364234
6	0x3c843feb	0.01614376
7	0xbdd13580	-0.102152824
8	0x3dac90aa	0.0842603
9	0x3e751527	0.2393385
10	0x3d40d4ec	0.047078058
11	0x3d902547	0.0703836
12	0x3e718a74	0.23587972
13	0x3d917743	0.071028255
14	0x3e091311	0.1338618
15	0xbe6c014b	-0.23047368
16	0xbe4c59fd	-0.19956203
17	0x3e242e12	0.160332
18	0xbb56d768	-0.00327822
19	0xbe8cf03f	-0.27527043
20	0x3df56b2d	0.11983333
21	0x3d5752d2	0.052569218
22	0x3e414637	0.18874441
23	0xbdc86874	-0.09785548
24	0x3e6a344d	0.22871514
25	0x3da7db6e	0.0819615
26	0x3e2a6831	0.16641308
27	0x3d22677d	0.039649475
28	0xbdd84b5e	-0.1056125
29	0xbd841f3b	-0.06451269
30	0x3e3eb9b9	0.18625535
31	0x3e52a84c	0.20572013
32	0x3ce28088	0.02764918
33	0x3e02debe	0.12780282
34	0xbda7ed52	-0.08199562
35	0xbcf52a6d	-0.029927457
36	0xbe4a32f5	-0.19746001
37	0x3b19843b	0.0023424763
38	0xbe7e7a5d	-0.24851365
39	0xbe70bdf3	-0.2350996
40	0xbe7e98c1	-0.24862958
41	0x3e8546e9	0.26030663
42	0xbe19ee3e	-0.15032288
43	0x3d940440	0.07227373
44	0xbe72360f	-0.23653434
45	0x3c9f5223	0.019448346
46	0xbc8d0964	-0.017216392
47	0x3ccd4984	0.025059469
48	0xbe6734fa	-0.22578803
49	0xbcce3c1f	-0.025175152
50	0xbe0c7c0b	-0.13719194
51	0xbddbc8b9	-0.10731644
52	0xbdacd816	-0.084396526
53	0x3e8726e5	0.26396862
54	0x3d8b34d0	0.067971826
55	0xbe755abe	-0.23960397
56	0x3e2f1ff6	0.17102036
57	0xbe570826	-0.20999202
58	0x3e54d0f2	0.20782831
59	0x3e7095f2	0.234947
60	0x3e5f7080	0.21820259
61	0x3d75102c	0.059829876
62	0x3dac7594	0.08420864
63	0xbe5aa8d0	-0.2135346
64	0xbc092dd6	-0.008372745
65	0x3be352cc	0.0069373604
66	0x3bd569cf	0.0065128575
67	0xbe72ee93	-0.23723821
68	0xbe73795a	-0.2377676
69	0x3e35d190	0.17755723
70	0xbe421822	-0.18954518
71	0xbd827622	-0.06370188
72	0xbe7a27c2	-0.24429229
73	0xbd7c613c	-0.061616167
74	0x3d1737db	0.036918502
75	0xbd0ea769	-0.034827624
76	0xbd7e95ed	-0.0621547
77	0x3dd34c4e	0.10317288
78	0xbe828f5e	-0.25500005
79	0x3e7aee5e	0.24504992
80	0xbda91a57	-0.08256977
81	0x3bdc17bf	0.006716698
82	0x3e6ee05a	0.23327771
83	0xbd1f2377	-0.03885218
84	0x3e79f49f	0.24409722
85	0xbe422a98	-0.1896156
86	0xbe53935d	-0.20661683
87	0xbe62309e	-0.22088858
88	0x3e213ab3	0.15745048
89	0x3d58becb	0.05291633
90	0x3d63f00a	0.05564884
91	0x3daecbab	0.0853494
92	0xbdc9a1f6	-0.09845345
93	0x3df2d275	0.11856548
94	0x3e3074c9	0.1723205
95	0x3e5292b8	0.20563781
96	0x3f4ea51c	0.80720687
97	0xbf24a653	-0.6431629
98	0x3e815c84	0.25265896
99	0x3cd69489	0.026193874
100	0x3e0aa1e4	0.13538319
101	0xbdb17d19	-0.086664386
102	0xbe57dc6e	-0.21080181
103	0xbe6400ca	-0.22265926
104	0xbd9a2304	-0.0752621
105	0xbdff95f7	-0.124797754
106	0xbde97453	-0.1139914
107	0x3e2e14f8	0.17000186
108	0xbe1fe5ec	-0.15615052
109	0xbe5b88d7	-0.21438919
110	0x3f123ce6	0.57124174
111	0xbe911e90	-0.2834363
112	0x3e66d0d0	0.22540593
113	0xbb73b822	-0.003718861
114	0x3e6ddbaf	0.23228334
115	0x3e51193a	0.2041978
116	0xbe5a4d0a	-0.2131845
117	0x3db3b7e6	0.0877531
118	0xbbbc8984	-0.005753698
119	0x3e298c5c	0.16557449
120	0xbdd8b25a	-0.10580893
121	0xbe317526	-0.17329845
122	0x3d1f0792	0.03882558
123	0x3cc6d089	0.02426936
124	0x3eb0f83e	0.34564394
125	0xbdc41b60	-0.09575534
126	0x3e19a49b	0.15004198
127	0x3e5afbf9	0.21385182
128	0x3d92eb4a	0.07173784
129	0xbe0fbb93	-0.14036398
130	0x3d1191a2	0.035539277
131	0xbe8663e7	-0.26248094
132	0xbdc4f6c9	-0.09617383
133	0x3dca82fd	0.09888265
134	0x3dd70c37	0.10500377
135	0xbe1ac4cb	-0.15114133
136	0xbd8c2511	-0.06843007
137	0xbe8cc0bb	-0.27490792
138	0x3f137a75	0.5760873
139	0xbe82ff73	-0.25585517
140	0x3e0b6545	0.1361285
141	0x3da9e83c	0.08296248
142	0xbe2333c7	-0.1593772
143	0xbe770178	-0.24121654
144	0xbdaa8848	-0.08326775
145	0x3e0630fb	0.13104622
146	0xbcc90eba	-0.024543155
147	0xbe4b14a7	-0.19832097
148	0xbc857556	-0.016291302
149	0xbd432288	-0.047640353
150	0x3bd75aa6	0.0065720854
151	0x3dbdc97f	0.09266948
152	0x3f1f0414	0.621156
153	0xbe321083	-0.17389111
154	0x3c8e0b19	0.017339276
155	0xbd8ebf53	-0.06970086
156	0x3e48aa62	0.19596246
157	0x3c64393b	0.01392966
158	0xbd36e11b	-0.04464827
159	0xbe41760a	-0.18892685
160	0xbea1c9dd	-0.31599322
161	0xbe4612ba	-0.19343081
162	0x3e0ddd33	0.13853912
163	0xbdff9144	-0.12478879
164	0x3e01ee10	0.1268847
165	0x3e106ef1	0.14104821
166	0x3e6abffd	0.229248
167	0xbe172ea0	-0.1476388
168	0x3e7a4426	0.24440059
169	0x3e4bd9f5	0.19907363
170	0xbd0906f8	-0.03345391
171	0xbe94a31c	-0.29030693
172	0xbe829659	-0.2550533
173	0x3cde4691	0.027133258
174	0xbe8eecc4	-0.27915013
175	0x3cbee6ad	0.023303354
176	0xbea165e9	-0.31523064
177	0xbe145fb1	-0.14489628
178	0x3e069327	0.13142072
179	0x3e678ffd	0.22613521
180	0x3f1c6f73	0.6110756
181	0xbf049818	-0.51794577
182	0xbd933b6f	-0.071890704
183	0x3d5b04e7	0.053471472
184	0xbdbfa867	-0.09358292
185	0xbdb19c56	-0.08672397
186	0xbdd2c09c	-0.102906436
187	0xbb89efe4	-0.0042095054
188	0x3dd43fff	0.10363769
189	0xbdfa73e3	-0.12229135
190	0xbd97b4de	-0.074075446
191	0x3d3ef530	0.046620548
192	0xbd986ba8	-0.07442409
193	0x3e166536	0.14687046
194	0xbdba6474	-0.09101191
195	0x3e26f1eb	0.16303222
196	0xbe4e87bf	-0.2016897
197	0xbdaab999	-0.08336181
198	0x3cc3d0fd	0.023903364
199	0xbe672177	-0.2257136
200	0xbe5d02e5	-0.21583135
201	0x3e8707ba	0.26373082
202	0xbe5d3e09	-0.21605696
203	0xbd8cf69d	-0.06882975
204	0xbe86bab8	-0.2631433
205	0x3e0d36a2	0.13790372
206	0xbdb4e61c	-0.088329524
207	0x3e19638a	0.14979377
208	0xbe86a949	-0.2630103
209	0xbe581b58	-0.21104181
210	0x3e086bfe	0.13322446
211	0xbd958d05	-0.07302288
212	0xbda15125	-0.07876805
213	0xbcc649d7	-0.024205131
214	0xbe84fc17	-0.2597358
215	0x3d3223e4	0.04349126
216	0x3ecc21b8	0.39869475
217	0xbe87979a	-0.2648285
218	0x3e66bef3	0.22533779
219	0xbe373b94	-0.17893821
220	0xbdbb307e	-0.091401085
221	0x3da80b96	0.08205335
222	0x3f1cb070	0.6120672
223	0xbf29f6f2	-0.66392434
224	0x3e710ada	0.23539296
225	0xbd479a21	-0.048730973
226	0xbbaf769b	-0.005354715
227	0xbe4bbd13	-0.19896345
228	0xbdb57051	-0.08859313
229	0xbe7f5a87	-0.24936877
230	0x3d037f3e	0.03210377
231	0x3d9c26e4	0.07624605
232	0xbdc8f211	-0.098117955
233	0x3e7c8e0d	0.24663563
234	0xbd03ec66	-0.03220787
235	0x3e3926fd	0.18081279
236	0x3f0765c0	0.52889633
237	0xbece270c	-0.40264165
238	0x3e67f90c	0.22653598
239	0x3e411570	0.18855834
240	0x3e8802a8	0.26564527
241	0x3df28c93	0.11843219
242	0x3bdb0e9f	0.0066850926
243	0x3c7fd671	0.015615092
244	0x3def5b14	0.11687294
245	0xbe3e6b4c	-0.18595618
246	0xbe5dc6ec	-0.21657914
247	0x3cee28e7	0.029072238
248	0x3e85d275	0.26137128
249	0x3d984e07	0.074367575
250	0x3ea222d7	0.31667206
251	0xbeb812a9	-0.35951737
252	0xbe6def80	-0.23235893
253	0x3e4d830f	0.20069526
254	0xbe2b8a0e	-0.16751882
255	0x3de77473	0.11301508

conv1.nn.0.bias f4 [128]
0	0xbdfcc6f6	-0.12342636
1	0xbdf3efd2	-0.119109765
2	0x3d2b1eca	0.04177741
3	0xbe15f83a	-0.14645472
4	0x3de18349	0.11011369
5	0x3d7ca918	0.061684698
6	0x3d95f5bf	0.07322263
7	0x3d81d72b	0.06339868
8	0x3e7e94f6	0.24861512
9	0x3dfb731d	0.122778155
10	0xbe0d2f6a	-0.13787618
11	0xbe62109c	-0.22076648
12	0x3e70657a	0.2347621
13	0x3d5240b6	0.051331244
14	0xbdedff02	-0.116209045
15	0x3d802adc	0.06258175
16	0xbe09ef49	-0.13470186
17	0x3e23cdc7	0.15996467
18	0x3e67f39c	0.22651523
19	0xbd7eea72	-0.062235303
20	0x3e8150df	0.25257012
21	0xbc9a9e36	-0.018874269
22	0x3e51a849	0.20474352
23	0x3d4b9b20	0.049708486
24	0xbe3ff2e2	-0.18744996
25	0x3e172d44	0.14763361
26	0x3d0ff89d	0.035149205
27	0xbcab93a6	-0.020944428
28	0xbbc75c7e	-0.006084024
29	0xbe4f3b32	-0.20237425
30	0x3e4e918a	0.20172706
31	0xbcb42276	-0.021989089
32	0x3e30848b	0.17238061
33	0xbc2db05b	-0.010601128
34	0x3dba2ff3	0.09091177
35	0xbe659412	-0.22419766
36	0xbe79e202	-0.24402621
37	0x3dc7d7a5	0.09757928
38	0x3dae3759	0.085066505
39	0xbba4c5d2	-0.005028465
40	0xbcba7bf6	-0.022764187
41	0xbe0bd8b9	-0.13656892
42	0xbe471b85	-0.19444092
43	0xbca7f515	-0.020502606
44	0xbe37187a	-0.17880431
45	0xbe35f7c5	-0.17770298
46	0x3e2b5daa	0.16734949
47	0x3e26cb6e	0.1628854
48	0x3e5ed4ae	0.21760818
49	0xbdd15d1f	-0.102228396
50	0x3d9e70e3	0.07736375
51	0xbe2d37fa	-0.16915885
52	0x3d829d5c	0.0637767
53	0xbb4025b4	-0.0029319348
54	0xbe537f0d	-0.20653935
55	0xbd98c2eb	-0.07459053
56	0xbe06f299	-0.13178481
57	0xbe666a8e	-0.22501585
58	0xbd80602d	-0.06268344
59	0x3be6ba48	0.0070412494
60	0x3e16da7d	0.14731784
61	0xbde5c0b7	-0.11218398
62	0xbd39f64a	-0.045400895
63	0xbdce5b02	-0.10075952
64	0x3e76e651	0.24111296
65	0xbe66a09e	-0.22522208
66	0xbd72e970	-0.059304655
67	0xbe1c3fe5	-0.15258749
68	0x3e1ee292	0.15516117
69	0xbdf4f084	-0.11959937
70	0xbe84f701	-0.259697
71	0x3df40892	0.11915697
72	0x3dcd4528	0.10022956
73	0xbe2915bc	-0.16512197
74	0xbca29446	-0.019846093
75	0x3dce6c76	0.10079281
76	0xbe4c562a	-0.19954744
77	0x3cb0d7b0	0.021587223
78	0xbd97ff6c	-0.07421765
79	0x3d567fc3	0.052367937
80	0x3d270586	0.040776752
81	0xbdeecced	-0.1166018
82	0x3da9c538	0.082895696
83	0xbd1c68a4	-0.03818573
84	0xbe9283fb	-0.28616318
85	0x3da2997e	0.079394326
86	0x3d06928f	0.032854613
87	0x3e7bdb05	0.24595268
88	0x3d4442be	0.047915213
89	0xbe12c45a	-0.14332715
90	0x3e1a66c6	0.15078267
91	0x3daf36b8	0.08555359
92	0x3da41106	0.080110595
93	0x3e83d341	0.2574711
94	0x3dd12716	0.10212533
95	0xbd100bb4	-0.03516741
96	0x3d57fdba	0.052732207
97	0x3cf6280f	0.030048398
98	0xbd94dff4	-0.07269278
99	0x3de13178	0.109957635
100	0x3df2961b	0.118450366
101	0xbd8760a8	-0.066102326
102	0xbe18c1c6	-0.14917669
103	0x3e5d945e	0.21638629
104	0xbe4c7f4a	-0.19970432
105	0xbdaf500a	-0.08560188
106	0xbe832513	-0.25614223
107	0xbd89cdae	-0.067286834
108	0x3da93f7e	0.08264063
109	0x3dbe6a9d	0.092976786
110	0xbcedf04f	-0.029045252
111	0x3e17efda	0.1483759
112	0xbe119fbe	-0.14221093
113	0xbdbbc892	-0.09169115
114	0xbe6d7d70	-0.23192382
115	0x3df9c9fe	0.1219673
116	0x3d92a00e	0.07159434
117	0x3e84680d	0.25860634
118	0x3e8030b9	0.25037172
119	0xbe7312c9	-0.23737635
120	0x3e2f5dc0	0.17125607
121	0xbe0fdfb2	-0.14050177
122	0xbd4c89d6	-0.049936138
123	0x3e98091d	0.29694453
124	0xbe8b3b1b	-0.2719353
125	0x3dadd0c5	0.08487085
126	0x3e47b6be	0.19503304
127	0xbe077bd8	-0.13230836

conv1.nn.2.weight f4 [128, 128]
0	0xbd506ef1	-0.050887052
1	0xbce94077	-0.028473122
2	0xbda94bdf	-0.082664244
3	0xbbd680f0	-0.0065461323
4	0x3d67e76d	0.05661719
5	0x3ba23560	0.0049502105
6	0xbd01366f	-0.031546053
7	0xbc179a79	-0.009253138
8	0x3cd74c5a	0.026281524
9	0xbd8c8838	-0.06861919
10	0xbd8e3951	-0.06944526
11	0x3cebce6a	0.02878495
12	0xbcc3cb00	-0.023900509
13	0x3d7eb210	0.062181532
14	0x3d62f981	0.055413727
15	0x3c879944	0.016552575
16	0xbb0bb9db	-0.0021320495
17	0x3d188735	0.03723832
18	0xbdb40978	-0.087908685
19	0x3c7a2bad	0.015269202
20	0x3bd03f27	0.0063551846
21	0x3d410981	0.047128204
22	0xbd31f5ce	-0.04344731
23	0xbd85f59e	-0.065409884
24	0xbab4d356	-0.0013795893
25	0xbc64e442	-0.0139704365
26	0xb955dd36	-0.0002039567
27	0xbc373007	-0.011180884
28	0x3d7f4de9	0.06233016
29	0x3d408fe2	0.047012217
30	0xbd51a386	-0.05118134
31	0x3d8390c5	0.06424097
32	0xbdae0b4f	-0.08498251
33	0xbbb9b060	-0.0056667775
34	0xbc6d8527	-0.014497078
35	0x3d8eb6ad	0.069684364
36	0x3a9545eb	0.0011388635
37	0xbca79b48	-0.020459786
38	0xbd8393b2	-0.06424655
39	0xbcd01cc3	-0.02540434
40	0x3c28a878	0.010294072
41	0x3bb6291c	0.0055591
42	0xbda63430	-0.08115423
43	0xbd801201	-0.06253434
44	0xbd0f2a84	-0.034952655
45	0x3b84a8f5	0.0040484616
46	0x39e46de3	0.0004356942
47	0xbcc972a8	-0.024590805
48	0xbccdfa8b	-0.025143882
49	0x3cbc95e1	0.023020687
50	0x3da83a3a	0.08214231
51	0xbdaf28b5	-0.08552686
52	0xbd669033	-0.056289863
53	0x3d923cc5	0.07140497
54	0x3d223423	0.039600503
55	0xbd00d407	-0.031452205
56	0x3d3b719d	0.045762647
57	0x3c5f4d7c	0.013629314
58	0x3baabb20	0.0052102953
59	0xbcc4644e	-0.02397361
60	0xbca1142d	-0.01966294
61	0x3be5e8ea	0.007016291
62	0x3d330c63	0.043712985
63	0xbcc507fb	-0.024051657
64	0x3c2b9dd8	0.010474645
65	0x3d4381a8	0.04773107
66	0x3cf86c01	0.030324938
67	0xbdb71417	-0.08939379
68	0x3cb8a189	0.022537963
69	0xbd0023dd	-0.031284202
70	0x3b704a39	0.0036665334
71	0xbd5bda12	-0.053674765
72	0xbd98bb14	-0.07457557
73	0xbdc1f441	-0.09470416
74	0x393d9be1	0.00018082514
75	0xbb42f5e5	-0.0029748615
76	0xbc898a95	-0.016789714
77	0xbdb14513	-0.08655753
78	0xbdb17d32	-0.08666457
79	0xbd7bc758	-0.061469406
80	0xbbbb154d	-0.0057093264
81	0x3c875485	0.016519794
82	0x3cbbed94	0.022940435
83	0x3d0d5afa	0.03451059
84	0xbd398b37	-0.04529878
85	0x3d4b34d3	0.049610924
86	0xbd55dc6c	-0.052212164
87	0x3d5c4696	0.053778253
88	0x3cc7ea44	0.024403699
89	0xbd4e1f72	-0.050322957
90	0xbd51de70	-0.051237524
91	0xbc810cd9	-0.015753197
92	0x3d97f4af	0.074197166
93	0xbd3fb11a	-0.046799757
94	0xbd7c8333	-0.06164856
95	0x3ca1b136	0.019737821
96	0x3d80c3b5	0.06287328
97	0x3d106ab9	0.03525803
98	0x3cb2915c	0.021797828
99	0xbd9374a0	-0.07199979
100	0xbdb3089a	-0.08741875
101	0xbd790685	-0.060797233
102	0xbd49fdfa	-0.049314477
103	0xbd9cae70	-0.07650459
104	0x3d690eb5	0.05689879
105	0xbd870c12	-0.06594099
106	0x3cdc29ff	0.026875494
107	0xbd3f5ceb	-0.046719473
108	0x3c82e204	0.015976913
109	0x3da7ab1b	0.08186933
110	0xbd89281e	-0.06697105
111	0xbd313c40	-0.04327035
112	0x3d861011	0.06546033
113	0xbda801bc	-0.08203456
114	0x3c3ab3c7	0.011395401
115	0x3c10792d	0.008817953
116	0xbd704cc4	-0.05866696
117	0x3ca8c03b	0.020599475
118	0x3d0b6b18	0.03403768
119	0xbd71a1e0	-0.058992267
120	0x3ccfc005	0.025360117
121	0x3d7a38d3	0.061089348
122	0xbc4db355	-0.012554963
123	0x3c494a3b	0.012285764
124	0x3d7d59b7	0.061853137
125	0xbdaeaf1e	-0.08529495
126	0x3d82cce3	0.06386735
127	0x3ba3e62f	0.0050018053
128	0xbd38e12a	-0.04513661
129	0xbd662320	-0.05618584
130	0x3ca95fd5	0.02067558
131	0xbd17c940	-0.03705716
132	0xbd1e9f62	-0.038726218
133	0x3c634eb0	0.013873741
134	0xbd11071e	-0.035407178
135	0x3ba7e475	0.0051236697
136	0x3b0482d5	0.0020219584
137	0x3a0d5bd3	0.0005392406
138	0xbc2a1960	-0.010382026
139	0x3d459013	0.048233103
140	0x3ccb9239	0.024849998
141	0x3da6821d	0.08130286
142	0xbd615023	-0.055008065
143	0x3d3b950f	0.04579645
144	0xbd92dc6c	-0.071709484
145	0xbcf89769	-0.030345635
146	0x3d95397e	0.072863564
147	0xbcd11f8a	-0.025527734
148	0xbd995af4	-0.07488051
149	0x3caccdd1	0.021094235
150	0x3d27aebd	0.040938128
151	0x3a9c4c58	0.0011924608
152	0x3c8058e8	0.015667394
153	0xbd845dfd	-0.06463239
154	0x3c690baa	0.014223972
155	0xbd5a441b	-0.053287607
156	0x3c39714a	0.011318514
157	0x3d840ced	0.06447778
158	0x3d1dea4e	0.03855353
159	0x3d062f2e	0.032759838
160	0x3cf79c52	0.030225907
161	0xbda1addd	-0.0789449
162	0xbc9f21f5	-0.019425372
163	0xbcadd5e2	-0.021220151
164	0x3cae8fd6	0.02130882
165	0xbd4abe83	-0.049498092
166	0xbdacd85a	-0.08439703
167	0xbbacf7ed	-0.0052785785
168	0xbd43e039	-0.047821257
169	0x3d22c5dc	0.039739475
170	0x3d74ba0f	0.05974775
171	0x3da1405f	0.07873606
172	0xbd9148eb	-0.07093986
173	0xbd9a6e6a	-0.07540591
174	0xbd840b5f	-0.06447481
175	0x3d3b2a76	0.04569479
176	0xbbb971bc	-0.00565931
177	0x3c0c34f3	0.008557546
178	0xbd1103db	-0.035404067
179	0x3d866dc8	0.06563908
180	0xbbafda6d	-0.0053666146
181	0x3d35473a	0.04425738
182	0xbd0ba5a4	-0.034093514
183	0xbda8cf25	-0.08242635
184	0x3cdb39ea	0.026761014
185	0xbc9537f4	-0.018215157
186	0xbdc02bbf	-0.09383344
187	0xbd890d00	-0.06691933
188	0x3bec2787	0.0072068605
189	0xbd47d73b	-0.048789244
190	0xbdbd5621	-0.092449434
191	0xbce27d63	-0.02764768
192	0x3ab3aeca	0.0013708707
193	0x3c15bb76	0.009138932
194	0xbd389e68	-0.045072943
195	0x3d421dc0	0.047391653
196	0x3c0bb5ae	0.0085272025
197	0x3d45e852	0.04831726
198	0x3d702410	0.058628142
199	0xbdbf39c5	-0.093371905
200	0x3d6fae4c	0.05851583
201	0x3c81b9c7	0.015835656
202	0xbda346b6	-0.079724714
203	0x3d39d209	0.04536632
204	0x3aaf7640	0.0013386682
205	0xbda13ba5	-0.078727044
206	0xbb9751bb	-0.0046178973
207	0xbc7a4e04	-0.015277389
208	0xbd918722	-0.07105853
209	0x3d896def	0.06710421
210	0xbda89aeb	-0.08232673
211	0x3d9ab0e7	0.07553273
212	0xbcc1a0fc	-0.023636334
213	0xbd22dace	-0.03975945
214	0x3c0ef5cf	0.0087255975
215	0xbc11a2f2	-0.008888947
216	0x3d953363	0.07285192
217	0xbc8bdb17	-0.017072244
218	0x3cb23f81	0.021758797
219	0xbd29078c	-0.041266963
220	0x3d3ab076	0.045578443
221	0x3cbb33d3	0.02285186
222	0x3da1db29	0.079031296
223	0x3d98d99c	0.07463381
224	0xbbed733e	-0.007246404
225	0x3bd7aab8	0.0065816306
226	0x3cdd0db6	0.026984077
227	0xbdaad780	-0.083418846
228	0x3cc4d2e7	0.024026347
229	0x3d3dea77	0.04636618
230	0x3daf5e56	0.08562915
231	0x3d738305	0.05945112
232	0x3d16a8fc	0.03678225
233	0x3db4938c	0.08817205
234	0xbc5757ce	-0.013143493
235	0x3b9afe62	0.004730032
236	0x3d5803f0	0.05273813
237	0xbd0d274a	-0.034461297
238	0xba063b45	-0.0005120526
239	0xbd311638	-0.04323408
240	0xbd94a7d7	-0.072585754
241	0xbbe0953d	-0.006853728
242	0xbd0592e0	-0.032610774
243	0x3d81035a	0.062994674
244	0xbd969150	-0.07351935
245	0x3d2cfc42	0.04223276
246	0xbd8163a6	-0.063178346
247	0xbbee12ae	-0.0072654104
248	0xbda8f81c	-0.08250448
249	0xbd110940	-0.035409212
250	0xba6779a5	-0.0008830077
251	0xbd6881a1	-0.05676425
252	0xbd87e00c	-0.066345304
253	0xbd0130d3	-0.031540703
254	0x3d52312b	0.05131642
255	0x3ca7153f	0.020395873

conv1.nn.2.bias f4 [128]
0	0xba24645c	-0.0006271058
1	0xbc3be9d7	-0.011469326
2	0x3c4a3f1c	0.012344148
3	0xbd5db595	-0.05412825
4	0xbd9ac03c	-0.07556197
5	0xbd944de4	-0.07241419
6	0x3cf97ec3	0.030455953
7	0xbd685190	-0.05671841
8	0x3da1e3ea	0.07904799
9	0xbdb6cf6a	-0.0892628
10	0x3c738760	0.014863819
11	0xba77882b	-0.0009442593
12	0xbdc90615	-0.09815613
13	0x3a7b0e72	0.00095770427
14	0x3cd0325f	0.025414644
15	0xbcdca1cf	-0.026932625
16	0xbbe1d9c3	-0.0068924143
17	0x3d22af4a	0.03971795
18	0x3d8d1fdc	0.06890842
19	0xbdaddacb	-0.08488997
20	0xbdbba692	-0.0916263
21	0xbcd1175a	-0.02552383
22	0x3d79a58e	0.0609489
23	0xbcee120f	-0.029061345
24	0x3d439eeb	0.047758978
25	0xbca04dcd	-0.019568348
26	0xbdcbad52	-0.099451676
27	0xbdd21364	-0.10257605
28	0xbbfd6de5	-0.0077340477
29	0xbb5a676f	-0.0033325811
30	0xbd38363e	-0.044973604
31	0xbd98a6ad	-0.07453666
32	0xbb436d09	-0.0029819629
33	0xbd919b3e	-0.07109688
34	0xbdc84efd	-0.09780691
35	0x3c4b2632	0.012399243
36	0xbcd9e50c	-0.026598476
37	0xbd6006af	-0.054693874
38	0xbdaa0e7a	-0.083035424
39	0x3b5dd87d	0.003385096
40	0xbcdd715e	-0.027031597
41	0x3c1c78a9	0.009550252
42	0x3d46bc1e	0.048519246
43	0x3d15bbf6	0.036556207
44	0x3d7db59f	0.061940785
45	0xbd3ebd01	-0.046566967
46	0x3d1fbc7c	0.038998112
47	0xbdc10c8e	-0.09426223
48	0xbd060e2f	-0.03272837
49	0x3d5b352e	0.053517513
50	0xbd3b5129	-0.045731697
51	0xbd9585b0	-0.073008895
52	0xbce4ccaf	-0.027929632
53	0x3cba3819	0.022731828
54	0x3c8a93b4	0.016916133
55	0x3c671997	0.014105222
56	0x3caf2611	0.021380456
57	0x3d283e95	0.041075308
58	0xbd0b7cc4	-0.034054533
59	0xbd3f9d08	-0.046780616
60	0xbd902ba6	-0.07039575
61	0xbd84b6b6	-0.06480162
62	0xbce315fe	-0.027720448
63	0xbd027925	-0.031853814
64	0xbcea1352	-0.028573666
65	0xbd3a9a7f	-0.045557495
66	0xbd702b53	-0.058635067
67	0xbd314c2b	-0.04328553
68	0xbddea949	-0.10872132
69	0xbd97fd23	-0.07421329
70	0xbc4e2fcc	-0.012584638
71	0x3d73b75b	0.059501033
72	0xbd881d6f	-0.06646239
73	0xbd31b4dc	-0.04338537
74	0x3d07e9cc	0.03318195
75	0xbdda23f2	-0.10651387
76	0xbdb9e01e	-0.0907595
77	0xbaa80830	-0.0012819823
78	0x3c01b812	0.007917421
79	0x3be5df51	0.007015147
80	0x3d9f3d95	0.07775418
81	0xbd8b53c6	-0.06803088
82	0xbcfc2d84	-0.030783422
83	0xbc3a27f6	-0.0113620665
84	0xbc8322a0	-0.016007721
85	0x3d569fdf	0.05239856
86	0x3ce2b32b	0.027673325
87	0xbd551287	-0.052019622
88	0x3b510ed2	0.0031899703
89	0xbda149ab	-0.07875379
90	0x3d3dcc39	0.04633734
91	0x3c917dd5	0.017760197
92	0xbdbddff4	-0.09271231
93	0x3c7cb86b	0.015424828
94	0x3c04d933	0.008108425
95	0xbd239770	-0.039939344
96	0xbd092737	-0.033484664
97	0xbd5183b0	-0.051150978
98	0xbd8aef8a	-0.0678397
99	0xbd1b2e58	-0.037885994
100	0x3d982d43	0.07430508
101	0xbc7491c9	-0.014927336
102	0xbd8c2041	-0.068420894
103	0xbd90f291	-0.07077516
104	0xbd92f231	-0.071751006
105	0xbd89945a	-0.06717749
106	0x3cbc9266	0.023019027
107	0x3cf2d0fb	0.029640665
108	0x3d1e8534	0.03870125
109	0xbcc983c4	-0.024598964
110	0xbdb1a1d4	-0.086734444
111	0xbd5a4f5f	-0.05329835
112	0x3d416192	0.04721219
113	0xbd385c0a	-0.04500965
114	0x3d328499	0.043583486
115	0x3cb972a6	0.022637676
116	0xbdcdcdd6	-0.10049026
117	0xbcd4d00f	-0.025978116
118	0x3d91da5e	0.07121728
119	0xbdd4b4fd	-0.10386083
120	0x3d7388ed	0.059456754
121	0xbd00d3bf	-0.031451937
122	0xbcce370c	-0.025172733
123	0xbce79d6c	-0.028273307
124	0x3ce4120d	0.027840639
125	0x3d71008c	0.058838412
126	0x3d1ab0a4	0.037766114
127	0xbdb74629	-0.08948929

conv2.nn.0.weight f4 [128, 128]
0	0xbd71a1b3	-0.0589921
1	0x3d42cead	0.047560383
2	0x3d1f44ac	0.03888385
3	0x3c90a020	0.017654479
4	0x3cd2e537	0.025744064
5	0x3d66175d	0.056174625
6	0xbc5d8425	-0.013520275
7	0xbdb1cd20	-0.086817026
8	0x3cca863d	0.024722213
9	0x3d25a5d2	0.04044134
10	0xbb1c9a71	-0.0023895765
11	0xbc740f82	-0.0148962755
12	0xbbff3c95	-0.0077892044
13	0xbdc0423d	-0.09387634
14	0xbd1a5c77	-0.037685838
15	0x3d400bc6	0.046886228
16	0x3cfce664	0.030871578
17	0xbd5dfd99	-0.054196928
18	0x3d061e95	0.03274401
19	0xbcfd36bb	-0.030909887
20	0xbc476bbd	-0.012171683
21	0xbdbed220	-0.09317422
22	0xbd49c2a0	-0.049257874
23	0x3cd2993f	0.025707839
24	0xbc86249b	-0.016374877
25	0xbd2d18d5	-0.04226001
26	0x3cc70564	0.024294563
27	0x3d13c84f	0.0360797
28	0x3d7690ab	0.06019656
29	0x3c0a73e7	0.008450485
30	0x3cc5f188	0.024163023
31	0xbdc019b2	-0.09379901
32	0x3d1cf3bc	0.03831838
33	0xbd1203c6	-0.03564813
34	0x3b42c5d9	0.0029719977
35	0xbc5d8978	-0.013521545
36	0x3d44baeb	0.04802982
37	0x3d53385f	0.05156743
38	0xbd5cc9a1	-0.053903226
39	0x3d0aba64	0.033869162
40	0xbc94700d	-0.018119836
41	0x3d269886	0.0406728
42	0xbcebc432	-0.028780077
43	0xbd218436	-0.039432727
44	0xbdb74397	-0.089484386
45	0x3c58cbe8	0.013232209
46	0x3a3c73c6	0.00071888824
47	0x3da56ee0	0.08077788
48	0xbcaded37	-0.021231277
49	0x3d3521fc	0.044221863
50	0xbdd3a4d4	-0.10334173
51	0xbcc0fa48	-0.023556843
52	0x3c811055	0.015754858
53	0xbd3f7742	-0.046744592
54	0xbd021704	-0.03176023
55	0x3d94d2ea	0.07266791
56	0xbc3eef48	-0.011653729
57	0xbcaacdf1	-0.020850154
58	0x3d9006c2	0.07032539
59	0x3a3cc048	0.0007200283
60	0xbd35e963	-0.044412028
61	0x3d33eed1	0.043928925
62	0xbd8c763e	-0.068584904
63	0xbd9602c3	-0.073247455
64	0xbd39a711	-0.045325343
65	0xbc06e7e7	-0.008234001
66	0x3b9d4843	0.004799874
67	0xbd2d5a8c	-0.04232268
68	0xbc96b552	-0.018397007
69	0xbd3656dc	-0.04451643
70	0xbcad1a1e	-0.021130618
71	0xbd1990ce	-0.037491612
72	0x3d58feeb	0.052977484
73	0x3d745803	0.059654247
74	0x3c84e301	0.016221525
75	0xbd5c6a1a	-0.053812124
76	0x3d8d15ed	0.06888948
77	0xbd7d703d	-0.061874617
78	0x3d33be52	0.043882675
79	0x3d1c3522	0.03813661
80	0xbdb8aa55	-0.09016863
81	0x3d981220	0.07425332
82	0xbcf770bd	-0.030205125
83	0xbd6fb2cf	-0.058520135
84	0x3ca1d3d1	0.019754322
85	0x3cf0f3e0	0.029413164
86	0xbd3b20ed	-0.045685697
87	0xbca1cdf6	-0.01975153
88	0xbce66401	-0.028123857
89	0xbda34130	-0.07971418
90	0x3c9e2b69	0.019307809
91	0xbcdd1fc9	-0.026992695
92	0x3d384224	0.04498495
93	0x3bfe1409	0.007753853
94	0xbd5be733	-0.053687286
95	0xbd9ef8f0	-0.07762325
96	0xbde3bc43	-0.111198924
97	0x3cb8af62	0.022544567
98	0xbd0fa6b4	-0.03507109
99	0xbd879e74	-0.066220194
100	0x3d55609e	0.052094094
101	0xbd360c9c	-0.04444562
102	0xbd99b386	-0.075049445
103	0xbc37528a	-0.011189112
104	0xbdb9607b	-0.09051605
105	0xbd18c4dd	-0.03729712
106	0x3d98fb9e	0.07469867
107	0x3ca9edea	0.02074333
108	0xbd9c31a0	-0.07626653
109	0x3d0c88e9	0.034310255
110	0x3cb1fb5d	0.021726305
111	0xbd52c3f7	-0.051456418
112	0xbb60c13b	-0.0034294862
113	0xbd4c4322	-0.04986871
114	0xbd245541	-0.040120367
115	0xbd8195c8	-0.06327397
116	0x3d0a8b6d	0.033824373
117	0x3d410417	0.04712304
118	0x3d5f909f	0.05458128
119	0xbd644cec	-0.05573742
120	0x3c906355	0.01762549
121	0x3d29f1d9	0.04149041
122	0x3d254e3f	0.040357824
123	0xbd8bcfde	-0.06826757
124	0xbd9eae49	-0.07748086
125	0xbc18aa75	-0.009317984
126	0x3d9b92d5	0.07596365
127	0xbc6d02d4	-0.014466006
128	0xbaacc149	-0.0013180162
129	0xbcf9bda2	-0.030485932
130	0x3bd30c9d	0.0064407126
131	0x3cfddcc5	0.03098906
132	0x3bb63e05	0.0055615925
133	0xbd2c4a26	-0.0420629
134	0xbd3a659c	-0.04550706
135	0x3d1788dd	0.036995757
136	0xbda69073	-0.0813302
137	0xbda004f3	-0.07813444
138	0x3d451c85	0.0481229
139	0x3cc9b156	0.024620693
140	0x3cfe0e27	0.031012608
141	0xbdab4aab	-0.08363851
142	0xbcfcdcf3	-0.030867076
143	0x3d80ca10	0.0628854
144	0x3c614e1a	0.013751531
145	0xbdabfb09	-0.083974905
146	0xbde27ace	-0.110585794
147	0xbc3f362c	-0.01167063
148	0xbd9a95f1	-0.0754813
149	0x3c56ddeb	0.013114433
150	0x3c41e603	0.011834624
151	0xbcb6e284	-0.022324808
152	0x3d1912cf	0.037371453
153	0x3d0405df	0.03223216
154	0xbdcea1aa	-0.10089429
155	0xbce872dd	-0.028375084
156	0xbd7078ea	-0.058709063
157	0xbd177ba3	-0.036983144
158	0x3d5a87c2	0.053352125
159	0xbd3effb1	-0.046630565
160	0xbc86602b	-0.016403278
161	0xbcfbfacf	-0.030759243
162	0xbcb1203d	-0.021621818
163	0xbdcf14d7	-0.10111397
164	0x3c44510a	0.011982212
165	0xbda260ea	-0.07928641
166	0xbdad90a4	-0.08474854
167	0xba3776bd	-0.00069985894
168	0xbd00ce25	-0.031446595
169	0xbd2f9d65	-0.042874712
170	0xbcff6ae4	-0.0311789
171	0xbcb212e9	-0.021737533
172	0xbd72feec	-0.059325144
173	0x3bfc0b71	0.0076917936
174	0xbdb07a73	-0.08617105
175	0xbd8c1955	-0.06840769
176	0xbdc6b2d9	-0.09702081
177	0xbd8a922a	-0.0676616
178	0x3d2f1801	0.0427475
179	0xbc5ce792	-0.013482945
180	0xbd69e93d	-0.0571072
181	0x3d80c8e1	0.062883146
182	0xbdb41b7c	-0.08794305
183	0x392dbfd8	0.00016570033
184	0x3d924852	0.071427
185	0xbdf3eac1	-0.1191001
186	0x3d8a03b9	0.06738991
187	0xbc8d5abf	-0.017255185
188	0xbd6769bb	-0.056497317
189	0xbd76d326	-0.06025996
190	0xbc0037f1	-0.0078258375
191	0xbd148fa0	-0.036269784
192	0x3b9c0f5b	0.0047625727
193	0xbd50fe92	-0.051024027
194	0xbb6d7619	-0.0036233722
195	0xbcfdaf84	-0.030967481
196	0xbdd7ba91	-0.105336316
197	0xbd1187e0	-0.03552997
198	0xbda6f090	-0.081513524
199	0xbb0b5600	-0.0021260977
200	0xbcea4877	-0.028599007
201	0xbd6b4ae7	-0.05744448
202	0x3dcfe554	0.10151163
203	0xbda04f18	-0.07827586
204	0xbdb4bef9	-0.08825488
205	0xbd244930	-0.04010886
206	0xbdc2186d	-0.09477315
207	0xbc86c65c	-0.016452007
208	0xbddc249e	-0.10749172
209	0xbd9bc4db	-0.076059066
210	0x3d290afa	0.041270234
211	0x3d69c2d5	0.057070572
212	0xbd7988ec	-0.060921595
213	0xbb897f1e	-0.0041960618
214	0xbd9f32ba	-0.07773347
215	0x3cd05817	0.02543263
216	0xbc4f15ea	-0.012639502
217	0xbb9244cc	-0.0044637676
218	0x3c34bcde	0.011031358
219	0x3d92bf58	0.07165402
220	0x3d9ffc0e	0.078117475
221	0xbd83d2d6	-0.06436698
222	0xbbd5ef74	-0.006528789
223	0x3d51e97c	0.05124806
224	0x3cfa91ac	0.03058704
225	0x3d57e533	0.052708816
226	0x3b1cb44a	0.0023911172
227	0xbda02d26	-0.078211114
228	0x3c286fdb	0.010280575
229	0x3d6bae78	0.057539433
230	0xbb7ee978	-0.0038896482
231	0xbda064b5	-0.07831708
232	0xbd2201a3	-0.039552342
233	0xbdab1255	-0.08353106
234	0xbc1aac09	-0.00944043
235	0x3d18f165	0.037339587
236	0x3ce40e9e	0.027839001
237	0xbd817908	-0.06321913
238	0x398c83f0	0.00026801182
239	0x3aebc538	0.0017987853
240	0xbda15051	-0.07876647
241	0x3d9c2e6b	0.07626041
242	0xbd8f93b7	-0.07010596
243	0xbdaa8865	-0.083267964
244	0xbd69c44a	-0.05707196
245	0xbd8f8ea2	-0.07009627
246	0xbce04dc7	-0.027380837
247	0xbdba2d11	-0.09090627
248	0xbcd8689b	-0.026417067
249	0xbd8db965	-0.06920127
250	0xbd9f68fe	-0.077836975
251	0xbdaa9269	-0.08328707
252	0xbb4c351c	-0.0031159585
253	0xbd5b63c4	-0.05356194
254	0xbced2512	-0.02894834
255	0x3d401b85	0.046901245

conv2.nn.0.bias f4 [128]
0	0x3d04f1d6	0.032457195
1	0xbde0c737	-0.10975497
2	0xbdb36169	-0.08758814
3	0xbde1864e	-0.11011945
4	0x3be595fe	0.007006406
5	0xbddd443e	-0.10804032
6	0xba89d299	-0.0010515034
7	0xbe1d3fb9	-0.1535634
8	0xbdcac9c6	-0.099017665
9	0x3cac5baa	0.021039803
10	0xbd536d3e	-0.051617853
11	0xbdb20169	-0.08691675
12	0x3d3f23b4	0.04666491
13	0xbde4a899	-0.1116497
14	0xbd3f12c3	-0.046648752
15	0x3cd9566a	0.026530463
16	0x3c3677b3	0.011136937
17	0xbdca0493	-0.09864154
18	0x3dad5bca	0.08464773
19	0x3d7bcddf	0.06147563
20	0xbe459277	-0.19294153
21	0x3d7ffa75	0.062494714
22	0xbd94fd0e	-0.07274829
23	0xbd9941ce	-0.074832544
24	0xbd728d6f	-0.059216913
25	0xbdde5d9a	-0.10857697
26	0x3d93ab72	0.07210435
27	0x3d356fc3	0.044296037
28	0x3cfa7a93	0.030576026
29	0x3d4944d0	0.04913789
30	0x3c1e0e58	0.0096469745
31	0xba9388e2	-0.0011256004
32	0xbcd544a3	-0.026033705
33	0x3cebe93c	0.028797738
34	0x3d6fbc99	0.05852947
35	0xbd7ed33e	-0.062213175
36	0x3d77fddb	0.06054483
37	0x3d1e8969	0.038705263
38	0xbd2f2ef9	-0.042769406
39	0xbdb34ab7	-0.08754485
40	0xbd441cc9	-0.047879014
41	0x3bb27261	0.005445764
42	0xbe1aee04	-0.15129858
43	0xbd835158	-0.064119995
44	0x3cfdbf21	0.030974926
45	0xbd4f670e	-0.05063539
46	0xbd806fe8	-0.062713444
47	0xbdbdd3c7	-0.09268909
48	0xbdd6a2b7	-0.10480254
49	0xbdfc6a9e	-0.12325023
50	0xbb6431f9	-0.0034819825
51	0x3d0e38e6	0.03472223
52	0xbd96f9b4	-0.07371846
53	0xbc11f59a	-0.008908654
54	0xbd8c53a7	-0.06851893
55	0x3d91e47c	0.07123658
56	0x3d549f51	0.05190975
57	0xbe02c70d	-0.12771244
58	0xbc933d9f	-0.01797372
59	0xbd1579b8	-0.036493033
60	0x3de9e97b	0.11421486
61	0xbd9d8598	-0.076914966
62	0xbd5622b9	-0.052279208
63	0xbdbe2e23	-0.09286144
64	0xbd3ed347	-0.04658821
65	0xbb7a5da6	-0.0038202791
66	0x3cff53a2	0.031167809
67	0x3d6d213e	0.05789303
68	0x3c7ca7b6	0.015420845
69	0xbd53195f	-0.051537868
70	0xbdd5d9e3	-0.10441949
71	0xbc021d9c	-0.00794163
72	0x3db34fdd	0.08755467
73	0x3d987668	0.07444459
74	0xbe1933e5	-0.14961202
75	0xbb12f915	-0.0022426296
76	0xbd435eac	-0.047697708
77	0xbdbec995	-0.093157925
78	0xbce459d9	-0.027874874
79	0xbd3d7bff	-0.04626083
80	0xbdb4cb89	-0.08827884
81	0x3d01a93b	0.03165553
82	0xbda529a4	-0.08064583
83	0xbd8e7625	-0.06956128
84	0xbde82015	-0.11334244
85	0x3c4fef0b	0.01269127
86	0xbdea9af3	-0.114553355
87	0xbd9f0927	-0.077654175
88	0x3bf4db22	0.0074724117
89	0xbd2fa04e	-0.042877488
90	0xbd809889	-0.06279094
91	0xbe162caf	-0.14665483
92	0xbdd2a8f4	-0.102861315
93	0x3dae44e9	0.08509237
94	0xbd23b9d3	-0.039972138
95	0x3cdad508	0.02671291
96	0xbd13785b	-0.03600345
97	0xbe1d990c	-0.15390414
98	0xbd03e49c	-0.03220044
99	0x3ce8725d	0.028374845
100	0x3d87d9d1	0.06633342
101	0x3d1d6d52	0.038434334
102	0xbdd1dfe1	-0.1024778
103	0xbcc67244	-0.024224408
104	0xbd3c499d	-0.04596864
105	0x3d8b9e9e	0.06817363
106	0xbda6034c	-0.081060976
107	0xbd09674d	-0.03354578
108	0x3d2e4cee	0.042553835
109	0xbd0655e0	-0.03279674
110	0xbd8bea09	-0.06831748
111	0x3d852d15	0.06502739
112	0x3ac9a7e7	0.0015385122
113	0xbd646edb	-0.055769783
114	0xbdef08fa	-0.11671634
115	0x3d68e31b	0.05685721
116	0xbddd0f3c	-0.10793921
117	0x3a838f13	0.0010037146
118	0x3c983e38	0.018584356
119	0xbb4daf76	-0.00313851
120	0x3caa2194	0.020767964
121	0xbd66e0be	-0.056366675
122	0xbd0af1d6	-0.03392204
123	0x3da81146	0.0820642
124	0x3cab64f8	0.02092217
125	0xbdb357e8	-0.08757001
126	0x3cbfb5db	0.023402145
127	0xbc9e8c2c	-0.019353949

conv2.nn.2.weight f4 [128, 128]
0	0xbd986aa4	-0.07442215
1	0x3da28bd6	0.07936828
2	0x3c51b728	0.0128000155
3	0xbd47e696	-0.04880389
4	0xbd59ae05	-0.053144474
5	0xbc915714	-0.017741717
6	0x3da9752a	0.082743004
7	0x3d564e64	0.052320853
8	0xbc91bde4	-0.017790742
9	0x3db48f9f	0.08816456
10	0xbda0e946	-0.078569934
11	0x3d82996c	0.06376919
12	0xbc42b460	-0.011883825
13	0xbd8d14ad	-0.06888709
14	0x3d284bac	0.04108779
15	0xbcc0308b	-0.023460647
16	0x3d82bec5	0.06384043
17	0x3c0c646d	0.008568865
18	0xbc05857c	-0.008149501
19	0xba6d6207	-0.000905544
20	0xbd579190	-0.052629054
21	0x3d5ece5c	0.05439602
22	0x3d4216e4	0.04738511
23	0xbd5862c1	-0.052828554
24	0xbca9ba06	-0.020718586
25	0x3d0c14eb	0.034199636
26	0xbbfffbed	-0.0078120143
27	0xbcb32e59	-0.021872686
28	0xbbebc02e	-0.0071945405
29	0xbd3c220f	-0.04593092
30	0xbbc2cd88	-0.0059449114
31	0xbd20b346	-0.03923347
32	0x3da33c63	0.07970502
33	0xbd93fa33	-0.07225456
34	0xbd79ed95	-0.06101759
35	0x3c2d44fc	0.010575529
36	0xbd7e09da	-0.062021114
37	0xbc2259cb	-0.009909104
38	0x3c239085	0.009983187
39	0x3da8aa8e	0.08235656
40	0x3ca40b50	0.020024925
41	0xbd137216	-0.035997473
42	0x3d3ac6ab	0.04559962
43	0x3da32505	0.07966045
44	0xbd7866cf	-0.06064492
45	0x3cf3c31a	0.029756118
46	0xbce9bdc3	-0.028532868
47	0x3bccb207	0.0062468085
48	0x3d227342	0.0396607
49	0xbbd8b7c6	-0.0066137044
50	0x3d196d7f	0.03745794
51	0xbda3ffda	-0.08007784
52	0x3c8307fc	0.015995018
53	0xbcf6cc59	-0.030126737
54	0x3d6138c5	0.05498578
55	0xbd0c8eea	-0.03431598
56	0x3ca2ae37	0.019858463
57	0x3d842a1d	0.06453345
58	0xbd186911	-0.037209574
59	0xbda23cfb	-0.07921787
60	0xbd97750a	-0.0739537
61	0xbd737b9e	-0.059444062
62	0x3c96d7a1	0.018413367
63	0x3d436f5d	0.047713626
64	0xbd375625	-0.04475989
65	0x3d0ed9e8	0.03487578
66	0xbb5e2c3c	-0.0033900877
67	0x3d64c64c	0.055853173
68	0x3cd4ca83	0.025975471
69	0x3d216f3e	0.03941273
70	0xbd1dd334	-0.038531497
71	0x3cffef85	0.031242142
72	0x3d8fe137	0.07025378
73	0xbd852e1f	-0.065029375
74	0x3daa649f	0.08319973
75	0xbd23d18e	-0.03999477
76	0x3c34b2e2	0.011028977
77	0xbd8f4ac6	-0.06996684
78	0x3c48e692	0.0122620035
79	0xbcc44046	-0.02395643
80	0x3d4b517a	0.04963825
81	0x3d384398	0.044986337
82	0xbc1ed0c6	-0.00969333
83	0xbd0844f8	-0.0332689
84	0xbd309fc7	-0.043121126
85	0x3d66b4fb	0.05632494
86	0x3d04c3c6	0.032413267
87	0xbd0d9618	-0.03456697
88	0xbcc41285	-0.023934612
89	0x3d9474c1	0.072488315
90	0x3d0ef5c8	0.034902364
91	0xbd6e9f6b	-0.0582575
92	0x3c99791a	0.018734504
93	0xbcf8e361	-0.03038186
94	0xb8e54ef5	-0.00010934278
95	0xbdbc6bdb	-0.09200259
96	0xbdad6115	-0.084657826
97	0xbd76d8af	-0.06026524
98	0xbd4d587e	-0.05013322
99	0xbd849631	-0.06473959
100	0xbd915f16	-0.07098214
101	0xbccb6ebf	-0.024833081
102	0x3acbaf1d	0.0015539859
103	0xbd9cf9a7	-0.07664805
104	0xbb9fb517	-0.0048738825
105	0xbcd97407	-0.026544584
106	0xbd92a7a7	-0.071608834
107	0xbd9e643a	-0.077339604
108	0xbd92993f	-0.071581356
109	0x3b1b1346	0.002366261
110	0x3bc4f3d1	0.0060105105
111	0xbda70b24	-0.08156422
112	0xbc227d34	-0.009917546
113	0xbdb46765	-0.088087834
114	0x3ceb9325	0.028756687
115	0x3d74824c	0.059694573
116	0x3c167800	0.009183884
117	0xbdb15792	-0.08659281
118	0xbd722a36	-0.059122287
119	0x3d7015f0	0.05861467
120	0xbc358c3f	-0.011080801
121	0x3cb97633	0.02263937
122	0xbd81067e	-0.063000664
123	0x3d29bbfa	0.041439034
124	0x3c90ddbb	0.017683854
125	0x3d9c600a	0.076355055
126	0x3bd3bbe3	0.006461607
127	0xbd7b4f67	-0.06135502
128	0x3d89ee1e	0.067348704
129	0xbddcc951	-0.107805856
130	0xbe1efdbd	-0.15526481
131	0x3c832f4e	0.016013768
132	0xbdade2fd	-0.0849056
133	0xbd8012be	-0.06253575
134	0xbe207286	-0.15668687
135	0x3d80e0e1	0.06292892
136	0x3d0e18c7	0.0346916
137	0xbdf988a9	-0.12184269
138	0x3c8bece1	0.017080726
139	0x3d8052c0	0.06265783
140	0x3d803cfa	0.0626163
141	0xbdb7e0b1	-0.08978403
142	0x3dc1597e	0.094408974
143	0xbce098d9	-0.027416633
144	0xbd1eb841	-0.038749937
145	0xbd5eac7c	-0.054363713
146	0xbdb3432b	-0.08753046
147	0xbcc96c65	-0.02458782
148	0xbd89c6b8	-0.06727356
149	0xbd7e7fea	-0.062133707
150	0xbdbf9244	-0.0935407
151	0x3cf74521	0.03018433
152	0x3dda9899	0.10673637
153	0x3c2c4cf2	0.010516392
154	0xbd661f07	-0.056181934
155	0x3d66b2e3	0.056322943
156	0xba0017d5	-0.0004886364
157	0xbe08a799	-0.13345183
158	0xbd5d181f	-0.05397808
159	0xbb69e69b	-0.003569043
160	0x3d9d2f23	0.07675006
161	0x3b803347	0.0039123627
162	0xbcc6dd9a	-0.02427559
163	0x3db70038	0.089355886
164	0x3d4365f1	0.04770464
165	0xbca78c91	-0.02045277
166	0x3cca1ae9	0.024671035
167	0x3d9dfa82	0.07713796
168	0xb859d211	-5.193247e-05
169	0xbd53f4a8	-0.051746994
170	0x3d2a650b	0.04160027
171	0x3cfca18a	0.030838747
172	0xbcf8d3bd	-0.030374402
173	0x3d2f75fc	0.042837128
174	0x3c5b466c	0.013383489
175	0x3d792fd0	0.060836613
176	0xbc06eaa4	-0.008234654
177	0xbd404e99	-0.046949957
178	0xbd07c00e	-0.033142142
179	0x3c885515	0.016642133
180	0xbaa31580	-0.0012442321
181	0x3d267554	0.040639237
182	0xbd7efa9f	-0.06225073
183	0x3d32b288	0.043627292
184	0xbd838582	-0.06421949
185	0x3d8a3e12	0.0675012
186	0x3d6439be	0.05571913
187	0xbcac41fe	-0.021027561
188	0x3d3ecd34	0.046582416
189	0xbca449b5	-0.020054678
190	0xbd056a3f	-0.032572027
191	0xbc564b1c	-0.013079431
192	0x3ceceefc	0.02892255
193	0xbcd025fa	-0.025408734
194	0x3d9ff9b4	0.07811299
195	0xbccc7fd6	-0.0249633
196	0xbd465c7b	-0.04842804
197	0xbc8585de	-0.016299184
198	0x3e39439a	0.18092194
199	0x3d513025	0.051071305
200	0xbda736d1	-0.08164752
201	0xbdbbedea	-0.09176238
202	0x3d544bcb	0.051830094
203	0xbc8a6369	-0.016893106
204	0x3d96db36	0.0736603
205	0x3d5c33dd	0.0537604
206	0xbd939e97	-0.07207983
207	0x3d2841f2	0.041078515
208	0x3cdfbb01	0.02731085
209	0xbd3b157f	-0.045674797
210	0x3d76c846	0.06024959
211	0xbd7ada2d	-0.061243225
212	0xbcac7923	-0.021053856
213	0x3d7dd588	0.061971217
214	0x3cf5b2e4	0.029992528
215	0x3d09f56f	0.03368133
216	0x3c6f0872	0.014589416
217	0xbce38a74	-0.02777598
218	0xbd67aedf	-0.056563254
219	0x3bb64c72	0.005563312
220	0x3cc9ae8e	0.024619367
221	0xbd43d2a5	-0.04780831
222	0x3d18fde0	0.03735149
223	0x3ce76929	0.028248386
224	0x3d3243dc	0.043521747
225	0x3da4b148	0.08041626
226	0xbdf211fb	-0.11819836
227	0xbd708da6	-0.058728836
228	0xbd2abd48	-0.04168442
229	0x3cdab8ca	0.026699442
230	0x3d00a8a2	0.03141082
231	0x3c2a837f	0.010407328
232	0x3d515814	0.05110939
233	0x3db020a5	0.085999765
234	0x3adcec0f	0.0016855019
235	0xbd92b914	-0.07164207
236	0xbd968f32	-0.07351531
237	0xbc27cfda	-0.010242427
238	0xbcc777f4	-0.02434919
239	0x3c663503	0.014050725
240	0xbdb4c419	-0.08826465
241	0x3c011b10	0.007879987
242	0x3ce0abb0	0.027425617
243	0x3cf047ab	0.029331049
244	0xbca6bc18	-0.020353362
245	0xbd289fb3	-0.041167926
246	0x3d093202	0.033494957
247	0xbd9cd64d	-0.07658062
248	0x3d90e392	0.070746556
249	0xbcc200b2	-0.023681972
250	0x3c9ed0ae	0.019386616
251	0xbdc85c7f	-0.09783267
252	0x3cf998bd	0.03046834
253	0xbd09da08	-0.033655196
254	0x3d8b29d5	0.06795088
255	0xbde682dc	-0.11255428

conv2.nn.2.bias f4 [128]
0	0x3c1b785d	0.009489146
1	0x3d0b4a31	0.0340063
2	0x3d5f07e0	0.05445087
3	0xbc281053	-0.010257798
4	0xbd3dd258	-0.046343178
5	0xbd84c812	-0.06483473
6	0xbd89522f	-0.067051284
7	0x3d2c9377	0.04213282
8	0xbdf72bc0	-0.120688915
9	0x3c051066	0.0081215855
10	0xbd42fe4e	-0.047605805
11	0xbda4398a	-0.08018787
12	0xbd382530	-0.04495734
13	0xbd82901e	-0.063751444
14	0xbcc0e2b6	-0.023545604
15	0xbd06ee8b	-0.032942336
16	0xbd8c6380	-0.068549156
17	0xbcf3d284	-0.029763468
18	0xbd13fc24	-0.036129132
19	0xbc3cbc21	-0.011519463
20	0xbd9deb91	-0.07710946
21	0xbe13766d	-0.14400645
22	0xbc8ab26f	-0.016930787
23	0xbdb5cc25	-0.08876828
24	0xbccf213a	-0.025284398
25	0xbd95a2ee	-0.07306467
26	0xbdad7fb1	-0.08471621
27	0x3ca87512	0.020563636
28	0xbcda490c	-0.02664616
29	0x3b3a6e66	0.002844715
30	0xbcb46006	-0.022018444
31	0xbd0ca195	-0.034333784
32	0x3d23c591	0.039983336
33	0xbddb28ca	-0.10701139
34	0xbdce981c	-0.10087606
35	0xbdfdb32d	-0.12387691
36	0xbd7b3ea8	-0.06133905
37	0x3c0521d7	0.008125744
38	0xbdd7c6a9	-0.10535938
39	0xbcf8ac42	-0.030355576
40	0x3d0a190c	0.033715293
41	0x3be4c2ec	0.0069812443
42	0x3d2aa4d0	0.041661084
43	0x3cbffe64	0.023436733
44	0xbd1db02b	-0.038498085
45	0xbe098961	-0.13431312
46	0xbd38a964	-0.04508342
47	0x3d4723d9	0.04861817
48	0x3c3796f3	0.011205423
49	0xbd9adf00	-0.07562065
50	0xbcd5fc4c	-0.026121281
51	0x3d212d93	0.039350104
52	0x3d887817	0.0666353
53	0xbc286da6	-0.0102800485
54	0x3c3c8b65	0.011507844
55	0x3ca73681	0.020411732
56	0x3d75557e	0.059895985
57	0xbd9d59a1	-0.07683111
58	0xbd46d839	-0.04854605
59	0xbdcb5f07	-0.099302344
60	0xbda0c03d	-0.078491665
61	0x3d7938cd	0.060845185
62	0xbda05cd7	-0.07830208
63	0x3cd1fa0b	0.025631925
64	0xbd77ad1b	-0.06046782
65	0x3d8ca6e0	0.068677664
66	0xbd8a56c8	-0.067548335
67	0xbdd2fc8e	-0.10302077
68	0x3cae23cd	0.021257306
69	0x3c4850a9	0.012226262
70	0xbd7a49a4	-0.061105385
71	0xbda2d939	-0.07951588
72	0xbde93353	-0.113867424
73	0xbccccba8	-0.024999455
74	0xbd387be9	-0.045040045
75	0x3d9c0c09	0.07619483
76	0xbc371981	-0.011175514
77	0xbce3e811	-0.027820619
78	0x3c652f9d	0.013988403
79	0xbbd79c07	-0.006579879
80	0x3d234c00	0.0398674
81	0xbc1667a0	-0.00917998
82	0xbcc7e61c	-0.024401717
83	0xbdbac54b	-0.09119662
84	0x3d864b10	0.06557286
85	0xbbc60c9a	-0.0060439827
86	0x3ca94550	0.020662934
87	0xbd223e23	-0.03961004
88	0xbc51328c	-0.012768399
89	0xbdba5de4	-0.090999395
90	0xbda3c570	-0.079966426
91	0xbcbb9f29	-0.022903042
92	0x3d7fafd6	0.06242355
93	0xbddbdcc5	-0.10735468
94	0xbc9073ff	-0.017633436
95	0x3d30d876	0.043175183
96	0xbcf79e07	-0.03022672
97	0xbd9f1b0b	-0.0776883
98	0xbd9dc479	-0.0770349
99	0xbdf92e8f	-0.121670835
100	0x3d852d2d	0.06502757
101	0xbc3bf8c6	-0.011472886
102	0x3cc01826	0.023449015
103	0xbdafb089	-0.08578593
104	0x3d69d194	0.057084635
105	0x3c3a9f28	0.011390485
106	0xbc6043f4	-0.013688076
107	0x3d0255bd	0.031820048
108	0xbbe89ab5	-0.0070985206
109	0x3c28a1ee	0.010292513
110	0xbd826680	-0.063672066
111	0x3c9ed0e3	0.019386714
112	0x3af12fe0	0.0018401109
113	0xbda3bd44	-0.07995084
114	0x3c9fd915	0.019512692
115	0xbddcda8d	-0.10783873
116	0x3d5b9d86	0.053617023
117	0xbd9bf3fc	-0.07614896
118	0x3cae40b2	0.021271084
119	0xbd24779e	-0.04015314
120	0x3cab57b5	0.020915845
121	0x3cb8f04e	0.022575524
122	0x3cefe6bc	0.029284827
123	0xbd89ccb4	-0.06728497
124	0x3d58b8a2	0.052910455
125	0xbd8cb06d	-0.06869588
126	0xbc70775e	-0.014676897
127	0xbcb2af60	-0.021812141

out.weight f4 [128, 128]
0	0x3dc11bde	0.09429143
1	0xbd7d5652	-0.0618499
2	0xbd94a042	-0.07257129
3	0x3c0ff10e	0.008785499
4	0x3d72a84c	0.05924253
5	0x3c9aed65	0.018912027
6	0xbd1b03bb	-0.037845355
7	0xbabe0d58	-0.0014499826
8	0x3bdd8a19	0.0067608473
9	0xbd8007b7	-0.062514715
10	0x3ca4e94b	0.020130774
11	0xbd0287b7	-0.03186771
12	0xbd6967a7	-0.056983616
13	0x3db43b61	0.08800388
14	0xbd3adecb	-0.04562263
15	0x3cf88ab2	0.030339573
16	0x3b1948fe	0.0023389454
17	0xbd5e4bea	-0.054271616
18	0x3b7be0de	0.0038433592
19	0xbc38da2b	-0.011282484
20	0x3d727fdd	0.05920397
21	0xbd82bac3	-0.06383278
22	0x3d5222d1	0.051302735
23	0x3cb95fe7	0.022628738
24	0xbd15cacb	-0.03657035
25	0x3ceffeef	0.029296366
26	0x3b37925f	0.0028010828
27	0x3cef45c6	0.029208075
28	0xbdb881ad	-0.09009109
29	0xbdc0284d	-0.09382687
30	0x3d692640	0.056921244
31	0xbdc80dba	-0.09768243
32	0xbba33502	-0.0049806843
33	0xbda7818e	-0.081790075
34	0xbd1f53ec	-0.038898394
35	0xbbc65a4d	-0.006053245
36	0xbd9cf08b	-0.076630674
37	0x3d91fa52	0.07127823
38	0xb8bd3eaa	-9.0238944e-05
39	0xbd8b0144	-0.06787351
40	0x3d8a525f	0.06753992
41	0xbdee2315	-0.11627785
42	0x3d9d6bc9	0.07686574
43	0x3cba87db	0.022769859
44	0x3d8b8bac	0.0681375
45	0x3d12d735	0.03584977
46	0xbd8539ec	-0.06505188
47	0x3d8e092c	0.06935343
48	0xbda13409	-0.07871253
49	0x3d4d006a	0.050049223
50	0x3bc95531	0.006144189
51	0x3ba703f3	0.0050969063
52	0x3d92bafe	0.07164572
53	0x3d83ae92	0.06429781
54	0xbdb92a48	-0.09041268
55	0xbd9e76ec	-0.07737526
56	0xbd884d6b	-0.06655391
57	0x3c2f1be4	0.010687802
58	0xbd659dd9	-0.05605874
59	0xbcb97971	-0.022640916
60	0x3dcfebda	0.10152407
61	0x3daa5714	0.0831739
62	0xbdf89277	-0.12137311
63	0x3c05dd99	0.008170509
64	0xbdaae3e5	-0.08344249
65	0x3bf4a1bb	0.007465569
66	0x3d5f43c6	0.054507993
67	0xbd5be003	-0.05368043
68	0x3c74a864	0.014932726
69	0x3d60ed4a	0.054913796
70	0x3d3cdcf9	0.046109173
71	0xbdadeb98	-0.084922016
72	0xbd1b9dca	-0.037992276
73	0xbde86c7a	-0.11348815
74	0xbd9d9871	-0.076950915
75	0xbd5a98af	-0.053368267
76	0x3bd37dd9	0.006454211
77	0x3cc40a8e	0.023930814
78	0xbd9fbe90	-0.07800019
79	0xbcbc9ec2	-0.02302492
80	0xb8d209e7	-0.00010015425
81	0xbcf56733	-0.029956436
82	0x3c0eafc2	0.008708896
83	0xbcfb40cd	-0.030670548
84	0x3d8f6176	0.07001011
85	0x3d2eb31e	0.04265129
86	0xbc6b98d5	-0.0143797
87	0x3cc971a6	0.024590325
88	0xbc3e22a1	-0.011604936
89	0x3d2d4744	0.042304292
90	0xbdacba70	-0.08433998
91	0x3b057a86	0.002036722
92	0x3d874ac5	0.06606058
93	0xbd8bd965	-0.06828574
94	0x3d702586	0.058629535
95	0x3be6b63f	0.0070407684
96	0x3ce57baf	0.028013078
97	0x3db1e6ac	0.08686575
98	0xbd2ee3c6	-0.04269769
99	0x3d094ebb	0.03352235
100	0x3cf3aa9e	0.029744443
101	0x3c41cba8	0.011828341
102	0x3d9aa6b0	0.07551324
103	0xbdb69a13	-0.08916106
104	0xbd15d6fb	-0.036581974
105	0xbd9f3e5e	-0.077755675
106	0xbdeecbc0	-0.11659956
107	0x3d6d4a05	0.05793192
108	0xbd383e02	-0.04498101
109	0xbccacf78	-0.024757132
110	0x3d84d9a1	0.06486822
111	0x3d9bf8c6	0.07615809
112	0xbcb60ca6	-0.022222828
113	0xbd0b73ba	-0.034045912
114	0x3d894de1	0.06704307
115	0x3d3f6095	0.046722967
116	0x3db15040	0.086578846
117	0x3d79b69b	0.06096516
118	0xbdb7a1c1	-0.08966399
119	0x3d1f8dc8	0.038953573
120	0xbd0908b4	-0.033455566
121	0xbdef0b71	-0.11672104
122	0x3a7263cf	0.000924644
123	0xbdcfa678	-0.10139173
124	0x3d4b65af	0.04965752
125	0x3b87e5d6	0.0041472716
126	0xbc6d329c	-0.014477398
127	0x3d48427f	0.04889154
128	0x3b222331	0.0024740214
129	0x3d7f85fc	0.062383637
130	0xbd3426ac	-0.043982193
131	0x3d79edf3	0.06101794
132	0x3d2d8c14	0.042369917
133	0x3d88ad64	0.06673697
134	0xbd33426a	-0.04376451
135	0x3d82ac12	0.06380476
136	0x3d4b8d88	0.04969552
137	0x3d556ed8	0.052107662
138	0xbdbbd1da	-0.091708854
139	0x3dac870b	0.08424195
140	0xbda21389	-0.07913882
141	0x3d04743b	0.03233741
142	0xbd918d65	-0.07107047
143	0xbd1a04bf	-0.037602182
144	0x3c9141b0	0.017731518
145	0x3d9170c4	0.071015865
146	0xbc5154ad	-0.012776536
147	0xbbeb4dc5	-0.0071809017
148	0xbc8cb921	-0.01717812
149	0x3d56c16b	0.05243055
150	0xbde14435	-0.109993376
151	0xbcdd9ffd	-0.027053827
152	0x3d8dc1ac	0.069217056
153	0x3bc48fa9	0.005998571
154	0xbbb987ff	-0.005661964
155	0x3c8f6786	0.017505419
156	0x3d16f322	0.036852963
157	0x3bfdfaeb	0.007750859
158	0xbd8b5779	-0.068037935
159	0xbd467bd1	-0.048457924
160	0xbd610229	-0.0549337
161	0x3c48e2ce	0.012261106
162	0xbccd73d1	-0.02507964
163	0x3da51045	0.08059744
164	0xbd4f7a47	-0.050653722
165	0x3d952155	0.07281748
166	0xbc8ed5a0	-0.017435849
167	0x3d5105f1	0.051031057
168	0xbdb9aba0	-0.09065938
169	0x3cf35874	0.029705264
170	0x3d3ae824	0.045631543
171	0xbc53865a	-0.01291045
172	0xbc6b520e	-0.014362825
173	0x3c0b7b91	0.008513347
174	0x3cee6926	0.029102873
175	0xbd804685	-0.062634505
176	0xbd3362cb	-0.04379539
177	0xbd7ee8ca	-0.062233724
178	0x3d9cac72	0.07650079
179	0xbd17c825	-0.037056107
180	0xbcd54423	-0.026033467
181	0xbc1ec582	-0.009690644
182	0x3c56a2e5	0.0131003605
183	0x3c7ba928	0.015360154
184	0xbd55ef90	-0.052230418
185	0xbd76bd42	-0.060239084
186	0x3d896fd2	0.06710781
187	0xbc9bc942	-0.019016866
188	0x3db2a49d	0.08722804
189	0xbd872389	-0.06598575
190	0x3d878eb1	0.06619013
191	0x3cde36f1	0.027125807
192	0xbdb16a00	-0.08662796
193	0xbd479e39	-0.048734877
194	0xbd857c90	-0.06517899
195	0x3d216136	0.03939935
196	0xbd037072	-0.032089658
197	0x3c703815	0.0146618085
198	0x3d76689e	0.060158364
199	0x3cf16af0	0.029469937
200	0x3cd8003b	0.026367297
201	0xbda23af3	-0.079214
202	0xbde42ea6	-0.1114171
203	0xbd6f2dd5	-0.05839332
204	0x3d3646da	0.044501163
205	0xbc95b179	-0.018273102
206	0x3d0ea364	0.03482379
207	0x3c938b40	0.018010736
208	0xbcf44d4a	-0.02982201
209	0xbb33802b	-0.0027389626
210	0x3d829350	0.06375754
211	0x3cfe9772	0.031078074
212	0xbd9fc21e	-0.07800697
213	0x3d6a6031	0.05722064
214	0xbb1a6331	-0.0023557658
215	0xbce7f879	-0.028316723
216	0x3c00b3dc	0.007855382
217	0xbd16dd5c	-0.0368322
218	0x3d8b5b39	0.06804509
219	0xbb12b3b0	-0.0022384934
220	0xbd415529	-0.047200356
221	0xbd85bf9e	-0.06530689
222	0xbd5f9ccf	-0.054592904
223	0x3c45dbcb	0.0120763285
224	0xbd8908e2	-0.066911474
225	0x3c0df445	0.008664195
226	0x3d39e66b	0.04538576
227	0xbdb24fc3	-0.087066196
228	0xbcd57276	-0.026055556
229	0xbd9103aa	-0.07080777
230	0x3d0e6e32	0.03477306
231	0x3dae162e	0.08500324
232	0x3d4e7ff8	0.05041501
233	0x3c429dc1	0.011878432
234	0xbd74d90d	-0.05977731
235	0xbd7fbfdf	-0.062438842
236	0xbc8dbf32	-0.017303083
237	0x3d166f4f	0.036727246
238	0x3da90537	0.08252948
239	0x3d52bad5	0.05144771
240	0xbd820bce	-0.06349908
241	0x3d166827	0.03672042
242	0x3c010241	0.0078740725
243	0xbd72931f	-0.059222337
244	0xbcf518d8	-0.029919073
245	0xbbcf8fba	-0.006334272
246	0xbd6b59de	-0.05745875
247	0x3d93fd53	0.07226052
248	0xbcf5eda6	-0.030020546
249	0xbdb33979	-0.087511964
250	0xbd2994fc	-0.04140185
251	0x3d34bb87	0.044124153
252	0xbcc587fd	-0.024112696
253	0x3cb7338d	0.022363449
254	0xbc98b33f	-0.018640159
255	0x3cf22e1d	0.029563004
