NO_QM/src/kiba_model.pt (torch, 544693 bytes, 16 tensors)

conv1.nn.0.weight f4 [128, 14]
-0.014166973 0.018776385 0.033288594 0.0018814617 0.025768226 0.028267486 0.14939563 0.07462971
-0.09474498 0.035310652 0.006853919 -0.25835082 0.003260491 -0.13817997 0.07041708 0.21595155
-0.31625307 -0.24434517 -0.34016222 0.15342484 -0.14046665 0.19112831 0.04456534 0.19846834
0.09040218 -0.104060404 0.62990004 -0.70387304 0.12162397 0.048665117 0.53422725 0.40616348
-0.5154443 -0.22096997 -0.06895984 0.25821698 -0.03051498 -0.13575552 0.26033452 0.0903897
0.039228134 -0.4746536 0.09561153 0.01364039 -0.07013493 -0.00054424675 -0.22750811 0.16163161
0.18597306 0.09569194 0.23109598 -0.25214145 0.24570028 0.096865565 0.42742673 -0.7697286
-0.08867211 -0.01779635 -0.110082194 0.14986189 0.18338984 0.17059162 -0.38927406 0.23923634
-0.06980083 -0.19048165 0.24475904 -0.07575316 -0.10067481 -0.30305976 0.113912046 0.13971135
-0.206798 -0.4197125 0.14503492 -0.0020662397 -0.22323856 0.1921401 -0.27936965 0.017978419
-0.12600273 -0.032066256 -0.06458728 -0.13270406 -0.02253394 0.009162589 -0.1737607 0.06131572
0.24945486 -0.038217764 0.09913548 -0.05936792 -0.2511737 -0.03320015 -0.051896695 -0.06400273
0.4923174 0.1428167 0.09092256 0.066274315 -0.29792112 0.10041499 -0.09838994 -0.057345852
0.441485 -0.031542167 -0.13030618 0.0639164 -0.03994584 -0.36200395 0.43420476 -0.72385854
0.22891521 -0.01995718 -0.075069465 0.027104463 0.20442922 0.11189782 -0.44132495 0.19884539
-0.16862787 0.22933334 -0.20028743 0.29012406 0.6938114 -0.48954552 -0.08178484 0.122464254
0.26559725 -0.10288528 -0.2467379 -0.095665485 0.26356593 -0.07222403 -0.09994865 -0.11416239
-0.061244264 -0.14188491 0.0028984973 0.02675732 -0.20965964 0.25635982 -0.0004467321 0.06126565
0.21026716 -0.19432601 0.031369776 0.043466736 0.0018701855 -0.039433915 0.23833977 0.07308567
0.22427054 0.032227825 -0.08160065 0.039968874 0.20376308 0.20428732 -0.32579592 0.17426576
-0.056460723 -0.22214307 0.2409397 0.059234664 0.091356955 -0.3136833 -0.34918076 0.7631306
-0.02908304 -0.06969291 -0.008092445 0.13835329 0.113433085 -0.01311231 -0.25528905 -0.24780938
0.03518369 0.0945061 -0.13635953 0.13485615 0.07834281 0.18644367 0.022618644 -0.097390346
-0.37396276 0.1897482 -0.093846336 -0.005528437 -0.39146876 0.15733758 0.20519595 0.12197345
-0.031243213 0.13853697 0.4775108 -0.61784846 -0.100949295 0.15276155 0.1446569 0.092654616
-0.119995326 0.13894035 0.13272534 -0.23106188 -0.020092994 0.009606051 0.18084353 -0.0478197
-0.07054748 0.016289148 -0.0066603073 -0.029082177 -0.2998927 -0.5000909 0.24429677 0.01567657
-0.15253094 -0.026612576 -0.013221617 0.053749576 -0.06543 -0.108180694 0.25457394 -0.09944817
-0.18242025 0.19822149 -0.23061584 0.14390936 0.07014905 0.21896599 0.19945097 -0.15165055
0.11322539 0.14796622 -0.16833998 -0.20610519 -0.22996895 -0.06440398 0.1986292 0.108559124
0.007796925 -0.11557165 -0.020886455 -0.12582667 -0.47655544 -0.2330278 0.19710836 0.034387063
0.20590712 0.3029945 0.54934424 -0.82931566 -0.086693354 0.00040136746 0.32864577 0.09233203
00000000: 971c 68bc efd0 993c 9f59 083d 619b f63a
00000010: e317 d33c 3791 e73c 2bfb 183e 76d7 983d
00000020: a809 c2bd e7a1 103d d796 e03b 8f46 84be
00000030: f6ad 553b 0d7f 0dbe d436 903d 6722 5d3e
00000040: eceb a1be 9f35 7abe be29 aebe 671b 1d3e
00000050: 7dd6 0fbe 24b7 433e 258a 363d 493b 4b3e
00000060: c724 b93d 9f1d d5bd 2141 213f 0631 34bf
00000070: fd15 f93d 1355 473d 1ec3 083f a9f4 cf3e
00000080: 28f4 03bf f445 62be d13a 8dbd 0435 843e
00000090: 8dfa f9bc 7f03 0bbe 914a 853e 3c1e b93d
000000a0: aead 203d cc05 f3be facf c33d f17b 5f3c
000000b0: e7a2 8fbd c8ab 0eba e3f7 68be c282 253e
000000c0: b96f 3e3e 23fa c33d 6da4 6c3e af18 81be
000000d0: db98 7b3e 7461 c63d add7 da3e ef0c 45bf
000000e0: b999 b5bd a7c9 91bc c672 e1bd 6575 193e
000000f0: 8cca 3b3e 92af 2e3e ee4e c7be 5ffa 743e
00000100: bdf3 8ebd 9f0d 43be 1da2 7a3e 7924 9bbd
00000110: 982e cebd a62a 9bbe b84a e93d 7e10 0f3e
00000120: dbc2 53be 8fe4 d6be 0984 143e c069 07bb
00000130: a698 64be 60c0 443e 8a09 8fbe 7a47 933c
00000140: dc06 01be e857 03bd 5646 84bd 93e3 07be
00000150: 1999 b8bc af1e 163c 53ee 31be 3126 7b3d
00000160: 1871 7f3e 3b8a 1cbd 8b07 cb3d c72b 73bd
00000170: d799 80be e1fc 07bd a191 54bd dd13 83bd
00000180: 0711 fc3e 8a3e 123e 9b35 ba3d d4ba 873d
00000190: 1e89 98be 60a6 cd3d aa80 c9bd 7ce3 6abd
000001a0: 520a e23e 5c32 01bd fc6e 05be 9ae6 823d
000001b0: 409e 23bd 9558 b9be 1650 de3e cb4e 39bf
000001c0: c068 6a3e 3d7d a3bc 05be 99bd 2e0a de3c
000001d0: e555 513e af2a e53d 58f5 e1be 209e 4b3e
000001e0: c9ac 2cbe 5cd6 6a3e 2618 4dbe 248b 943e
000001f0: a09d 313f b6a5 fabe cf7e a7bd 8ace fa3d
00000200: 5dfc 873e 85b5 d2bd dca8 7cbe 44ec c3bd
00000210: 1df2 863e 31ea 93bd e1b1 ccbd f9cd e9bd
00000220: 44db 7abd 474a 11be b7f4 3d3b 2b32 db3c
00000230: 04b1 56be 9841 833e 5e37 eab9 b1f1 7a3d
00000240: 4650 573e 66fd 46be 987d 003d 2d0a 323d
00000250: 0321 f53a 7585 21bd 570f 743e f1ad 953d
00000260: 2da7 653e 5301 043d 3e1e a7bd 67b6 233d
00000270: 45a7 503e b230 513e b9ce a6be b972 323e
00000280: 5c43 67bd 7979 63be e6b8 763e 0ca0 723d
00000290: 5b19 bb3d 199b a0be d2c7 b2be 875c 433f
000002a0: 8e3f eebc 28bb 8ebd 2d96 04bc 7cac 0d3e
000002b0: 9b4f e83d 04d5 56bc 3fb5 82be bec1 7dbe
000002c0: c61c 103d 6a8c c13d d5a1 0bbe bb17 0a3e
000002d0: 3272 a03d 17eb 3e3e bc4a b93c 9774 c7bd
000002e0: 0c78 bfbe 5a4d 423e 8232 c0bd e427 b5bb
000002f0: 986e c8be 1a1d 213e e31e 523e 37cd f93d
00000300: c4f1 ffbc a3dc 0d3e 4c7c f43e 512b 1ebf
00000310: 81be cebd 866d 1c3e f020 143e b4c1 bd3d
00000320: 1cc0 f5bd 6146 0e3e 27e9 073e 7c9b 6cbe
00000330: 109a a4bc b362 1d3c 0c2f 393e 97de 43bd
00000340: 327b 90bd d270 853c b53e dabb bf3d eebc
00000350: 898b 99be f505 00bf ef28 7a3e 266c 803c
00000360: 1231 1cbe 9e02 dabc 7b9f 58bc 8428 5c3d
00000370: 2a00 86bd d78d ddbd 8457 823e 7bab cbbd
00000380: 60cc 3abe 93fa 4a3e 8f26 6cbe fa5c 133e
00000390: 4eaa 8f3d 9f38 603e e03c 4c3e 484a 1bbe
000003a0: b7e2 e73d 7584 173e 5161 2cbe 3d0d 53be
000003b0: fb7c 6bbe 3ce6 83bd 7465 4b3e 3f54 de3d
000003c0: 597d ff3b d4b0 ecbd 121a abbc b5d8 00be
000003d0: 13ff f3be d79e 6ebe c6d6 493e 73d9 0c3d
000003e0: 51d9 523e 1822 9b3e d3a1 0c3f 084e 54bf
000003f0: 498c b1bd a16e d239 4244 a83e 9318 bd3d

conv1.nn.0.bias f4 [128]
-0.13872822 0.07681161 -0.07420314 0.084943086 0.11778219 -0.044180013 0.011200373 0.11574229
0.014044741 0.094841965 0.15220225 -0.06247043 -0.19279653 0.22869503 -0.16903849 -0.0035421965
0.20805636 0.2210207 -0.19269383 -0.10725847 0.20152779 -0.05326034 0.031226674 0.056654766
0.20686384 -0.026199829 -0.038265478 -0.17180365 0.2627598 -0.09942191 -0.023650503 -0.29033756
-0.04757117 -0.17729717 0.11616814 -0.1446552 0.06396608 -0.2482647 -0.03099436 0.18289255
-0.22576661 -0.19951582 0.22122774 -0.20572405 -0.11801672 -0.34159556 -0.19231671 -0.12392797
-0.1373792 0.13814075 -0.07551507 0.044654846 0.18352221 0.2172908 -0.0947789 0.07563052
0.20096856 -0.13125972 -0.14895727 0.12666582 -0.044383213 -0.21188264 -0.2046286 0.12974274
0.009011512 -0.19302821 0.05464281 0.15841421 0.006744225 -0.14275964 -0.14165454 -0.18205738
0.20782107 -0.051852632 0.19142295 -0.085757814 -0.36059597 -0.2925084 0.19058035 -0.29634482
-0.054526407 -0.22949603 0.16610523 0.15602687 -0.18613836 0.17214464 -0.1321479 -0.19135955
-0.21842285 -0.21715201 -0.24016821 0.3422367 0.16834356 0.10536103 -0.065543875 -0.36588883
-0.17010207 -0.09750991 -0.04391063 -0.05268219 0.22040646 -0.15888487 -0.025543071 -0.3518141
-0.13317993 0.07726836 0.1371089 -0.15928017 -0.07552797 0.09377875 -0.154726 -0.16620883
0.09029396 0.06134829 0.02625575 0.062055614 0.06541873 0.18700135 0.088528894 -0.13186787
0.08136438 -0.22214058 0.27785775 -0.0058084643 -0.057587244 0.13270336 -0.12343539 -0.013143916
00000000: c50e 0ebe 684f 9d3d d1f7 97bd a4f6 ad3d
00000010: ca37 f13d 1af6 34bd c581 373c 4b0a ed3d
00000020: ea1b 663c 813c c23d e8da 1b3e fee0 7fbd
00000030: 746c 45be 082f 6a3e 6d18 2dbe 3224 68bb
00000040: ba0c 553e 4053 623e 8851 45be 54aa dbbd
00000050: 4d5d 4e3e 8427 5abd 15cf ff3c d40e 683d
00000060: 1dd4 533e 06a1 d6bc 43bc 1cbd 4ced 2fbe
00000070: 7488 863e b79d cbbd b3be c1bc 20a7 94be
00000080: fdd9 42bd 648d 35be 90e9 ed3d 7e20 14be
00000090: a600 833d 1a39 7ebe e2e7 fdbc 2f48 3b3e
000000a0: 5d2f 67be e04d 4cbe 8689 623e 53a9 52be
000000b0: c0b2 f1bd 9de5 aebe acee 44be f3cd fdbd
000000c0: 22ad 0cbe c574 0d3e a5a7 9abd 00e8 363d
000000d0: 3fed 3b3e 7b81 5e3e 711b c2bd 2de4 9a3d
000000e0: b4ca 4d3e f368 06be 4188 18be afb4 013e
000000f0: 2ccb 35bd c3f7 58be 298a 51be 48db 043e
00000100: 05a5 133c 30a9 45be 24d1 5f3d 5637 223e
00000110: a9fe dc3b 952f 12be e30d 11be 406d 3abe
00000120: 0ccf 543e 6d63 54bd 6104 443e cba1 afbd
00000130: 09a0 b8be a9c3 95be 7f27 433e 82ba 97be
00000140: 1557 5fbd 0201 6bbe 7d17 2a3e 82c5 1f3e
00000150: 0e9b 3ebe af46 303e c751 07be c2f3 43be
00000160: 3daa 5fbe 195d 5ebe a8ee 75be a639 af3e
00000170: 4162 2c3e 86c7 d73d de3b 86bd c855 bbbe
00000180: 3d2f 2ebe 47b3 c7bd a2db 33bd 48c9 57bd
00000190: 3bb2 613e b7b2 22be b43f d1bc fa20 b4be
000001a0: 5260 08be e03e 9e3d 4766 0c3e 571a 23be
000001b0: 69ae 9abd 130f c03d 7e70 1ebe a632 2abe
000001c0: 0aec b83d 5848 7b3d 4c16 d73c 072e 7e3d
000001d0: 41fa 853d 487d 3f3e a34e b53d 5f08 07be
000001e0: 5ea2 a63d d278 63be 5f43 8e3e ee54 bebb
000001f0: 9ae0 6bbd 64e3 073e b2cb fcbd 9459 57bc

conv1.nn.2.weight f4 [128, 128]
0.043062005 -0.11707399 0.01910995 -0.035878126 -0.0797046 -0.042517 -0.03946726 0.05597163
0.027670175 -0.034157015 0.05164519 -0.044577293 0.041745294 0.014082673 0.07373035 -0.07839154
-0.042589664 0.01887878 -0.024366071 -0.094140545 -0.110072665 0.01053008 0.0032172785 -0.06713189
0.027732868 -0.012680969 0.05712805 0.04697593 0.064877145 -0.10282463 0.033491362 -0.0043943482
-0.00060237234 0.041449483 0.014721767 -0.08797157 -0.030271465 0.045809146 -0.009855365 -0.072725385
-0.07781708 -0.08627829 -0.032023806 -0.059878554 -0.00568758 -0.112856925 -0.019168822 -0.060667537
-0.07528382 -0.09781754 -0.046892677 -0.035402372 0.07880331 -0.0829679 -0.033255845 0.012258581
-0.050019603 -0.10460694 -0.085373625 -0.074644655 -0.09653227 -0.09397032 -0.06662233 0.04841419
0.081367 0.015287085 -0.08860857 -0.085170835 0.008691829 -0.029571272 -0.057633452 0.03889541
-0.04278275 -0.031494655 0.04468679 0.04013049 -0.06703021 -0.0376229 -0.07038347 -0.0510324
-0.036443368 -0.061379157 0.045604523 0.052003924 0.08088163 -0.040369093 -0.018664304 0.069925316
0.042093806 0.0042645233 -0.05383988 0.030654646 -1.0928634e-05 -0.058832783 0.022510875 -0.068800926
-0.052062258 -0.08957405 0.060570437 -0.1032821 -0.102355406 -0.03625788 -0.062800646 -0.010257931
-0.08191537 -0.008514896 0.079098105 -0.07669235 0.036717195 -0.111331515 -0.11745699 -0.057010155
-0.027034646 0.042730518 0.030124523 0.059132285 -0.031005371 0.016038993 -0.08399909 -0.029188262
0.047768056 -0.01492515 -0.0031677622 0.043509044 0.07132706 -0.03221489 0.008367474 -0.004076833
0.009094742 -0.084529586 -0.07931617 -0.08743867 -0.06147436 -0.07451601 -0.08030844 -0.04117638
0.052310854 -0.07443759 -0.035103906 -0.015934143 0.037629213 -0.02487775 0.048461795 -0.03979959
0.037523888 -0.0051152674 0.21232449 -0.00641856 0.060902175 -0.083241284 0.056784693 -0.07951861
0.077475324 -0.025208965 -0.04400957 0.0043227356 -0.01976156 -0.10782459 -0.013443039 0.013690651
-0.024476474 -0.10283435 0.042960156 -0.028915405 -0.09131911 -0.09416941 -0.086421594 0.066171944
-0.02830068 -0.04226236 0.033076573 0.059729353 0.07915681 0.019808266 -0.03358779 -0.118396245
-0.038246527 0.03649936 0.04571948 0.06330993 -0.06509845 0.085070506 0.058518175 0.09281277
0.005531658 -0.11086821 -0.031114573 0.003183662 0.12564138 -0.028882984 0.006258038 -0.0024726011
0.0054519475 -0.1339226 0.02286636 0.07269274 0.08219619 0.007061641 -0.011577812 -0.036184344
0.03294518 0.06835086 -0.10674056 0.009545766 -0.0083587915 -0.05085609 -0.0911595 0.068600714
0.03895347 0.0066087786 0.039827306 -0.08057073 0.037341245 -0.016301587 0.013445069 -0.043617014
0.007017134 0.04184554 0.019265482 0.08885321 -0.12674204 0.052672096 -0.0056393826 -0.058157187
-0.0458596 -0.08472769 0.029033393 -0.0057019647 -0.074852124 -0.072881036 0.014533656 0.07040342
-0.010661361 0.06257857 0.04795753 0.051541466 0.023875041 -0.0031784384 -0.028678335 -0.07791851
-0.04991164 -0.08196745 -0.06775332 0.01867126 -0.008728307 0.014076273 0.03689227 -0.014356017
-0.03852597 -0.0054214336 -0.10126764 0.014292639 -0.044288877 -0.021677557 -0.06968142 -0.067598574
00000000: c961 303d 7dc4 efbd 788c 9c3c f1f4 12bd
00000010: 2a3c a3bd 4e26 2ebd 6ca8 21bd 8242 653d
00000020: 90ac e23c 3ae8 0bbd e889 533d ae96 36bd
00000030: 1dfd 2a3d 03bb 663c f0ff 963d be8b a0bd
00000040: 8072 2ebd aca7 9a3c 5b9b c7bc c2cc c0bd
00000050: c76d e1bd 5b86 2c3c fad8 523b 727c 89bd
00000060: 0a30 e33c d7c3 4fbc 1aff 693d d569 403d
00000070: 4fde 843d b895 d2bd 3d2e 093d 77fe 8fbb
00000080: 86e8 1dba efc6 293d 9133 713c 702a b4bd
00000090: ddfb f7bc 5fa2 3b3d 6678 21bc 0cf1 94bd
000000a0: 905e 9fbd acb2 b0bd 652b 03bd 3743 75bd
000000b0: e15e babb 8821 e7bd ef07 9dbc 867e 78bd
000000c0: 672e 9abd 9054 c8bd 8912 40bd 1402 11bd
000000d0: a163 a13d 13eb a9bd 4837 08bd 37d8 483c
000000e0: 5be1 4cbd 2a3c d6bd 5ed8 aebd 4cdf 98bd
000000f0: b6b2 c5bd 8373 c0bd 4a71 88bd f54d 463d
00000100: bea3 a63d af76 7a3c 6978 b5bd 0c6e aebd
00000110: 2c68 0e3c 743f f2bc 0e11 6cbd cb50 1f3d
00000120: f73c 2fbd 8a00 01bd 7f09 373d de5f 243d
00000130: 2247 89bd 781a 1abd 3525 90bd 5a07 51bd
00000140: a445 15bd b668 7bbd cfcb 3a3d 1102 553d
00000150: 45a5 a53d 105a 25bd e2e5 98bc 0135 8f3d
00000160: 8e6a 2c3d 6abd 8b3b 3587 5cbd 741f fb3c
00000170: 205a 37b7 a5fa 70bd ba68 b83c 80e7 8cbd
00000180: 3c3f 55bd 9972 b7bd b518 783d 9185 d3bd
00000190: b69f d1bd 2583 14bd a09d 80bd e210 28bc
000001a0: 3fc3 a7bd 1082 0bbc 30fe a13d e110 9dbd
000001b0: c564 163d c701 e4bd 4a8d f0bd 7b83 69bd
000001c0: c377 ddbc 3206 2f3d b4c7 f63c b234 723d
000001d0: fafe fdbc 3564 833c b707 acbd 391c efbc
000001e0: 70a8 433d 9e88 74bc 3b9a 4fbb 8a36 323d
000001f0: ec13 923d c3f3 03bd bb17 093c f496 85bb
00000200: 1d02 153c d91d adbd 8470 a2bd 0c13 b3bd
00000210: 8acc 7bbd da9b 98bd c078 a4bd 90a8 28bd
00000220: e843 563d bc72 98bd 1dc9 0fbd 5288 82bc
00000230: 1721 1a3d 6ccc cbbc e07f 463d e504 23bd
00000240: a6b2 193d f99d a7bb 976b 593e c952 d2bb
00000250: 8f74 793d 687a aabd 1197 683d a7da a2bd
00000260: 62ab 9e3d 0883 cebc 6143 34bd bca5 8d3b
00000270: ffe2 a1bc 23d3 dcbd 3140 5cbc c14e 603c
00000280: e382 c8bc d19a d2bd fdf6 2f3d 00e0 ecbc
00000290: 8305 bbbd e4db c0bd cefd b0bd 2885 873d
000002a0: d4d6 e7bc 4c1b 2dbd 4d7b 073d c4a6 743d
000002b0: f71c a23d f244 a23c 5a93 09bd bb79 f2bd
000002c0: 64a8 1cbd 5a80 153d 5944 3b3d a3a8 813d
000002d0: 5652 85bd 7239 ae3d c1b0 6f3d 9f14 be3d
000002e0: e942 b53b df0e e3bd fde3 febc fca4 503b
000002f0: 22a8 003e 029c ecbc 3a10 cd3b 5d0b 22bb
00000300: 40a6 b23b 0223 09be 3c52 bb3c eedf 943d
00000310: 7a56 a83d 5765 e73b ddb0 3dbc 0936 14bd
00000320: 86f1 063d 89fb 8b3d cb9a dabd d865 1c3c
00000330: 50f3 08bc 7a4e 50bd d5b1 babd 887e 8c3d
00000340: ac8d 1f3d 748e d83b f521 233d 4402 a5bd
00000350: 22f3 183d e88a 85bc b548 5c3c c1a7 32bd
00000360: fdef e53b 3b66 2b3d a5d2 9d3c acf8 b53d
00000370: aac8 01be b2be 573d 92ca b8bb 3b36 6ebd
00000380: 47d7 3bbd b685 adbd 70d7 ed3c 8cd7 babb
00000390: 124c 99bd a742 95bd 921e 6e3c ab2f 903d
000003a0: fdac 2ebc 3129 803d 1d6f 443d 251d 533d
000003b0: 9795 c33c 594d 50bb d4ee eabc bd93 9fbd
000003c0: 2670 4cbd 8dde a7bd 41c2 8abd 78f4 983c
000003d0: 2c01 0fbc 2ba0 663c 591c 173d 8035 6bbc
000003e0: 68cd 1dbd 48a6 b1bb 6965 cfbd ac2b 6a3c
000003f0: 4168 35bd 2295 b1bc 22b5 8ebd 1f71 8abd

conv1.nn.2.bias f4 [128]
0.05621845 -0.035492867 0.04727943 -0.066215664 -0.059855945 -0.08218865 0.0028439136 -0.10903176
-0.05191329 -0.06410284 -0.0016821225 -0.038062036 -0.024911277 -0.04818797 -0.05864028 -0.075896695
0.07173155 -0.010854098 -0.075832024 -0.092175804 -0.10185532 0.07133878 -0.06421777 -0.019371016
0.05680243 -0.10875032 -0.10480955 -0.06888366 -0.021885356 0.050514862 -0.00015105431 -0.1116627
0.044509795 0.030138109 -0.035626113 -0.08234024 -0.0098536415 -0.055593263 0.0047937427 -0.08487908
0.033035565 -0.059824873 -0.00094502076 0.050386168 -0.05037183 -0.07998204 -0.02655871 -0.029865745
0.07012793 -0.016456889 0.023941021 -0.095802784 -0.04828654 -0.10114339 -0.041598305 0.017163984
-0.013254667 -0.07681836 -0.0856126 -0.045152426 -0.112862244 -0.04650741 -0.04627878 0.014949723
-0.027160753 0.019226903 -0.029439071 0.037714582 -0.019062882 0.06399479 -0.007780439 -0.008519469
0.01894636 0.03215412 -0.058388267 -0.08530634 -0.093262054 0.01599791 -0.053943224 0.023042127
0.034878794 -0.03363036 -0.10969952 -0.05255098 0.0064015263 -0.060009923 -0.010265074 0.013712926
0.0016917007 -0.11090509 0.046870645 0.056072213 -0.08611832 -0.0614729 0.058221426 -0.032173567
-0.01778821 -0.008199437 0.035434846 0.012164024 0.03590509 -0.0040892875 -0.042108476 -0.013394307
-0.10887335 -0.08896209 -0.09615326 0.17839624 0.0104397535 0.043034337 -0.0018612057 0.07963313
-0.036012266 -0.042554744 0.011486474 -8.369266e-05 -0.06983287 -0.07078249 0.03646666 0.006125805
-0.03162536 0.04287543 -0.018628534 -0.076562315 -0.035143998 -0.08911908 -0.12107851 -0.09373653
00000000: 5145 663d f860 11bd 13a8 413d 149c 87bd
00000010: 822b 75bd 8652 a8bd f460 3a3b 0b4c dfbd
00000020: 08a3 54bd 5a48 83bd aa7a dcba f0e6 1bbd
00000030: bc12 ccbc c060 45bd ca30 70bd ba6f 9bbd
00000040: fee7 923d 63d5 31bc d24d 9bbd abc6 bcbd
00000050: 8699 d0bd 111a 923d 9b84 83bd f7af 9ebc
00000060: aaa9 683d 7db8 debd 64a6 d6bd e012 8dbd
00000070: eb48 b3bc ace8 4e3d 5564 1eb9 6aaf e4bd
00000080: e74f 363d 32e4 f63c b0ec 11bd 00a2 a8bd
00000090: 2b71 21bc c3b5 63bd d414 9d3b 15d5 adbd
000000a0: 4d50 073d ed0a 75bd 45bb 77ba ba61 4e3d
000000b0: b152 4ebd a0cd a3bd a791 d9bc 02a9 f4bc
000000c0: 3b9f 8f3d 99d0 86bc f61f c43c 4034 c4bd
000000d0: 1bc8 45bd 4424 cfbd fc62 2abd 7c9b 8c3c
000000e0: 1a2a 59bc f252 9dbd a955 afbd c0f1 38bd
000000f0: 5224 e7bd 8e7e 3ebd d18e 3dbd afef 743c
00000100: 3a80 debc bd81 9d3c 352a f1bc 9b7a 1a3d
00000110: c329 9cbc b30f 833d 0ef3 febb 3e95 0bbc
00000120: 6635 9b3c 0ab4 033d 8928 6fbd 17b5 aebd
00000130: 2d00 bfbd 0d0e 833c 92f3 5cbd d8c2 bc3c
00000140: 11dd 0e3d fdbf 09bd 24aa e0bd b23f 57bd
00000150: e5c3 d13b f7cc 75bd d72e 28bc 2eac 603c
00000160: 0ebc dd3a 3522 e3bd 6ffb 3f3d faab 653d
00000170: cd5e b0bd 02cb 7bbd 9779 6e3d 6ec8 03bd
00000180: 95b8 91bc ee56 06bc 2124 113d 9d4b 473c
00000190: 3711 133d 6eff 85bb f079 2cbd cc73 5bbc
000001a0: fef8 debd c231 b6bd 00ec c4bd 81ad 363e
000001b0: 800b 2b3c c644 303d b3f3 f3ba b216 a33d
000001c0: 9981 13bd e24d 2ebd c431 3c3c 2884 afb8
000001d0: 8904 8fbd 69f6 90bd 115e 153d faba c83b
000001e0: 9889 01bd 269e 2f3d de9a 98bc b4cc 9cbd
000001f0: 27f3 0fbd 1084 b6bd 03f8 f7bd f0f8 bfbd

conv2.nn.0.weight f4 [128, 128]
-0.06919934 0.05858363 0.08374365 0.03028408 -0.005801756 0.06306859 -0.061855704 -0.039839122
-0.024725256 -0.048051637 0.08964268 0.052580778 0.006147244 0.07649349 -0.048373595 0.00975401
0.021634728 -0.07467617 0.010845985 0.05949144 0.022754053 0.02949369 -0.06414576 0.07097749
0.067902386 -0.07175486 -0.04254755 0.08030299 0.17119227 0.03555635 0.074382246 -0.07516878
0.052102093 -0.017860701 -0.05228717 -0.06632181 -0.03092818 0.050937958 -0.03174431 0.009308497
0.034916565 0.054252513 0.080723464 0.08652024 -0.015661579 -0.056478065 0.06825876 -0.017300203
-0.07266529 0.00967797 -0.00021632924 0.024874244 -0.034226634 0.0023510584 -0.02802298 -0.0056688953
-0.046593603 -0.03407279 0.082350746 -0.04403909 -0.01797954 0.0016096468 0.075886905 -0.03520745
0.05664571 -0.06703344 -0.0219175 -0.015966283 0.03355418 -0.09423877 0.068694405 -0.020066429
0.069090456 0.055295162 -0.01558621 -0.05164795 -0.051444817 0.010105055 0.09489027 -0.0055374033
0.026035013 -0.06933176 -0.03724369 -0.039264772 0.059948668 -0.00799825 -0.08253064 0.023095017
0.057577483 0.038249012 -0.08069232 0.071473025 0.04908174 0.07304857 0.050121848 0.07893524
0.028255995 0.097964466 0.06914674 0.051152818 -0.04803335 0.08652864 0.033171803 0.00826268
0.009887863 -0.040681154 0.022748472 -0.095542304 -0.042300783 0.025307214 0.08546166 -0.046741974
-0.05339182 0.038356487 -0.009183843 0.069163956 -0.018737597 -0.04180213 0.009891234 0.0095640365
0.013997617 -0.07552623 0.001293556 0.002178286 -0.0491235 -0.05076952 0.09050159 0.05914893
0.020011766 -0.09060462 0.010915968 0.024683334 0.011622404 0.08345781 0.048078917 -0.03339943
0.081153266 -0.08047574 0.07359568 0.05595823 -0.009377326 -0.02219127 -0.0734265 0.094005525
-0.0153339915 -0.050146956 -0.06049784 0.03147085 -0.008967517 -0.05123807 0.039362848 0.008150385
-0.084829055 -0.0365204 0.035086915 -0.009095574 0.058267027 0.020833185 0.020949954 -0.06167297
0.032193363 -0.007982706 -0.018808354 -0.079121195 0.017888144 0.077333614 0.04336873 0.102840915
0.03468659 0.14217278 0.09773765 -0.036987685 -0.06903479 -0.06675202 0.010210264 0.012919522
-0.08712551 -0.033448335 -0.030962076 -0.06702855 0.08254193 0.028535463 -0.032379124 0.03869379
0.020248996 -0.029951992 -0.061611068 -0.0303621 -0.01690921 0.024333993 0.02205474 -0.0033252111
0.04390576 0.037703052 -0.06503934 -0.0009568971 -0.029334335 -0.07721013 -0.023798235 0.022488143
0.062212497 0.024361996 0.07664726 0.066214204 -0.07132668 -0.051199824 0.0071365633 0.06645764
-0.005587772 0.023010083 0.009370041 -0.051088072 0.019631917 0.075295314 -0.06961981 -0.06400317
0.014852644 0.13509478 0.040998388 0.0173012 -0.031829674 0.05684002 0.05011633 0.035057653
-0.0476702 -0.017742611 -0.021376882 0.12796696 -0.041923806 0.0069213025 0.09892833 -0.07308566
0.05821412 -0.08607951 0.09176418 -0.05536278 0.041750405 0.09110453 -0.06258513 0.07649669
0.084802754 -0.023351662 -0.044471767 -0.019942118 0.050801955 0.042040274 -0.050932016 -0.03234957
-0.049180355 -0.053623714 0.0205424 0.019866202 -0.07362758 -0.071782134 0.0033653334 0.082777135
00000000: 62b8 8dbd 63f5 6f3d ca81 ab3d 5216 f83c
00000010: a81c bebb 1b2a 813d 685c 7dbd 592e 23bd
00000020: 9f8c cabc cbd1 44bd 9596 b73d f15e 573d
00000030: d26e c93b 9ea8 9c3d 6423 46bd 48cf 1f3c
00000040: 503b b13c d2ef 98bd 5cb3 313c 4cad 733d
00000050: b566 ba3c c09c f13c da5e 83bd a55c 913d
00000060: 6810 8b3d 36f4 92bd 5746 2ebd e575 a43d
00000070: 074d 2f3e 89a3 113d b855 983d 17f2 99bd
00000080: 0169 553d 9b50 92bc 122b 56bd bbd3 87bd
00000090: 185d fdbc 52a4 503d 5206 02bd ab82 183c
000000a0: ac04 0f3d e237 5e3d 5852 a53d 8631 b13d
000000b0: b64c 80bc 8b55 67bd 40cb 8b3d 28b9 8dbc
000000c0: 8ad1 94bd 5990 1e3c 70d6 62b9 12c5 cb3c
000000d0: 3a31 0cbd 3714 1a3b 7390 e5bc 24c2 b9bb
000000e0: efd8 3ebd e98f 0bbd 82a7 a83d 5562 34bd
000000f0: d449 93bc c9fa d23a 986a 9b3d b035 10bd
00000100: 5505 683d d448 89bd 548c b3bc b9cb 82bc
00000110: 1c70 093d 4200 c1bd a7af 8c3d 5a62 a4bc
00000120: 4c7f 8d3d 2e7d 623d 4e5d 7fbc cd8c 53bd
00000130: cdb7 52bd ac8f 253c d455 c23d 1b73 b5bb
00000140: 6147 d53c cffd 8dbd d78c 18bd 19d4 20bd
00000150: bc8c 753d 180b 03bc d305 a9bd c331 bd3c
00000160: 5ed6 6b3d ffaa 1c3d 0442 a5bd 7360 923d
00000170: ef09 493d 7d9a 953d 914c 4d3d cda8 a13d
00000180: 1e79 e73c 98a1 c83d ce9c 8d3d 9e85 513d
00000190: 9ebe 44bd ed35 b13d 28df 073d 3160 073c
000001a0: b400 223c 48a1 26bd 015b ba3c afab c3bd
000001b0: 9643 2dbd 1351 cf3c 8606 af3d 8374 3fbd
000001c0: 62b1 5abd b11b 1d3d d477 16bc d5a5 8d3d
000001d0: 977f 99bc b638 2bbd d80e 223c 7ab2 1c3c
000001e0: 4356 653c 7fad 9abd 898c a93a 93c1 0e3b
000001f0: b935 49bd b3f3 4fbd e658 b93d 2646 723d
00000200: b7ef a33c ea8e b9bd e3d8 323c b434 ca3c
00000210: e56b 3e3c eeeb aa3d 66ee 443d d7cd 08bd
00000220: af33 a63d 77d0 a4bd 55b9 963d 7534 653d
00000230: 5ba3 19bc 77ca b5bc a260 96bd f885 c03d
00000240: 6c3b 7bbc e566 4dbd 95cc 77bd 94e7 003d
00000250: 7eec 12bc 03df 51bd f03a 213d 3189 053c
00000260: dbba adbd 6a96 15bd 4cb7 0f3d 9a05 15bc
00000270: 68a9 6e3d 5baa aa3c 3d9f ab3c cc9c 7cbd
00000280: 30dd 033d e5c9 02bc fa13 9abc 4b0a a2bd
00000290: 288a 923c 1661 9e3d 69a3 313d 429e d23d
000002a0: 8713 0e3d be95 113e ad2a c83d 6680 17bd
000002b0: 1d62 8dbd 48b5 88bd f348 273c 67ac 533c
000002c0: dc6e b2bd 1f01 09bd 2ea4 fdbc 4446 89bd
000002d0: be0b a93d 34c3 e93c f99f 04bd 617d 1e3d
000002e0: 39e1 a53c e15d f5bc e35b 7cbd f0b9 f8bc
000002f0: 2f85 8abc 1558 c73c 24ac b43c c9eb 59bb
00000300: 87d6 333d 846e 1a3d 5833 85bd 47d8 7aba
00000310: 8f4e f0bc 5820 9ebd 84f4 c2bc 0e39 b83c
00000320: 88d2 7e3d cf92 c73c 3df9 9c3d 509b 873d
00000330: b913 92bd e8b6 51bd d5d9 e93b f11a 883d
00000340: a119 b7bb a47f bc3c cd84 193c ba41 51bd
00000350: 1dd3 a03c 6e34 9a3d d594 8ebd 1814 83bd
00000360: 8158 733c 4956 0a3e eded 273d 3fbb 8d3c
00000370: d55f 02bd 15d1 683d c846 4d3d 9d98 0f3d
00000380: d441 43bd f458 91bc 921e afbc c509 033e
00000390: 4cb8 2bbd 18cc e23b f09a ca3d efad 95bd
000003a0: ee71 6e3d 744a b0bd dcee bb3d 15c4 62bd
000003b0: 7902 2b3d 0395 ba3d a22c 80bd 4caa 9c3d
000003c0: 11ad ad3d fc4b bfbc 0728 36bd a75d a3bc
000003d0: b615 503d 6c32 2c3d 179e 50bd fc80 04bd
000003e0: 5771 49bd 8aa4 5bbd 8948 a83c 72be a23c
000003f0: 0fca 96bd 8302 93bd ed8c 5c3b 0f87 a93d

conv2.nn.0.bias f4 [128]
-0.15557112 -0.07146587 -0.09176901 0.116318464 -0.0006536976 0.015153294 0.11143677 -0.10573121
-0.13757172 -0.025930708 -0.13925007 -0.06006841 -0.10781835 0.17555527 -0.08418561 -0.05273798
-0.18940143 -0.10411986 -0.097647235 -0.036219906 -0.06883189 -0.145465 0.072983034 -0.08990565
-0.05526911 -0.0711446 -0.15618736 -0.16301835 0.14987774 -0.06679375 -0.12794733 -0.029582597
0.08032339 -0.07574843 0.21847372 -0.07333099 -0.083522774 -0.0007280892 -0.16182029 -0.050151106
-0.063899785 -0.091354206 -0.13368705 -0.08492845 -0.11824592 0.08380949 -0.12255585 0.12836291
-0.16225976 -0.07697153 -0.08338094 -0.1195034 -0.10996752 -0.06683793 -0.03733166 -0.099580705
-0.050400175 -0.09695004 -0.15232098 -0.22660369 0.064170256 -0.08961169 -0.031193359 -0.105762646
-0.11813386 0.14815596 -0.0358069 -0.09954021 -0.040789932 0.018951552 -0.066169225 0.18509811
-0.08652255 0.09652183 -0.05344729 -0.00013373267 -0.10607977 -0.14664349 -0.13158286 -0.056748003
-0.20669708 -0.12381796 -0.11973986 -0.0657643 -0.04995163 -0.03664895 -0.14585629 -0.16251595
-0.06003621 -0.1496913 -0.014140209 -0.110915 -0.03704732 -0.06169186 -0.21055864 -0.20647953
-0.06173601 0.20363875 0.0013100504 -0.0072243484 -0.18805389 -0.056194607 -0.13654435 -0.035509143
-0.094381735 -0.10795793 -0.081921846 -0.23087554 -0.11597856 -0.10602473 -0.044134818 0.006740478
0.012727543 -0.18567319 -0.04303513 -0.19590537 -0.14603375 -0.12524869 -0.09679614 0.00076845696
-0.049975626 -0.09664184 -0.15248868 -0.10494653 -0.09302992 -0.112114295 -0.04866103 -0.12196083
00000000: 094e 1fbe b35c 92bd 64f1 bbbd 6038 ee3d
00000010: e75c 2bba 8645 783c f638 e43d 9b89 d8bd
00000020: 9adf 0cbe a36c d4bc 9297 0ebe 4b0a 76bd
00000030: decf dcbd c3c4 333e 8169 acbd c803 58bd
00000040: 73f2 41be cb3c d5bd 46fb c7bd 535b 14bd
00000050: bcf7 8cbd c7f4 14be 2178 953d 7420 b8bd
00000060: dd61 62bd 43b4 91bd 94ef 1fbe 48ee 26be
00000070: 8d79 193e 29cb 88bd a004 03be 3457 f2bc
00000080: 9780 a43d fe21 9bbd 93b7 5f3e 8f2e 96bd
00000090: fd0d abbd 3ddd 3eba 38b4 25be 3f6b 4dbd
000000a0: e4dd 82bd ea17 bbbd 42e5 08be f8ee adbd
000000b0: eb2a f2bd 4fa4 ab3d 90fe fabd 9171 033e
000000c0: 6c27 26be 40a3 9dbd a0c3 aabd 33be f4bd
000000d0: a736 e1bd 53e2 88bd 15e9 18bd f8f0 cbbd
000000e0: 6a70 4ebd be8d c6bd 08fa 1bbe cc0a 68be
000000f0: b26b 833d 5586 b7bd 3789 ffbc 169a d8bd
00000100: 2af0 f1bd 32b6 173e 42aa 12bd bddb cbbd
00000110: 5813 27bd 4940 9b3c bb83 87bd 5c8a 3d3e
00000120: bc32 b1bd 3dad c53d 8ceb 5abd 973a 0cb9
00000130: 5a40 d9bd b629 16be a8bd 06be 9870 68bd
00000140: 66a8 53be 4594 fdbd 2c3a f5bd 6faf 86bd
00000150: 159a 4cbd 361d 16bd 5a5b 15be 956a 26be
00000160: 87e8 75bd ad48 19be 56ac 67bc 6727 e3bd
00000170: eebe 17bd 9bb0 7cbd af9c 57be 5f6f 53be
00000180: e6de 7cbd ad86 503e ffb5 ab3a 3aba ecbb
00000190: 3391 40be 512c 66bd 48d2 0bbe 0972 11bd
000001a0: 364b c1bd 0c19 ddbd a4c6 a7bd a36a 6cbe
000001b0: 2b86 edbd 7e23 d9bd b6c6 34bd 3adf dc3b
000001c0: 2f87 503c 1d21 3ebe 9b45 30bd 6b9b 48be
000001d0: df89 15be 3141 00be 0e3d c6bd 4672 493a
000001e0: 3eb3 4cbd 28ec c5bd fe25 1cbe 35ee d6bd
000001f0: 7886 bebd 2e9c e5bd ca50 47bd 9ac6 f9bd

conv2.nn.2.weight f4 [128, 128]
-0.06997853 0.04828315 -0.07180717 0.017707448 -0.11385962 -0.011394137 -0.0003638682 -0.11495588
0.006298456 -0.08014557 -0.084738314 0.031720042 -0.042499 0.01907598 0.04766769 -0.103611045
-0.008686182 0.037641928 -0.04706465 -0.05773293 0.037253767 0.04616418 0.08388952 -0.070393234
-0.024339404 -0.074285716 -0.053616922 0.019313803 -0.098216064 -0.10731034 -0.01764003 0.0112466635
-0.051478267 -0.06460931 0.011396352 0.08538994 -0.0070515997 -0.095107205 -0.022632468 -0.019448599
0.02044386 -0.0558592 0.0158769 -0.03842256 -0.042811528 -0.051678043 0.06269155 0.034344364
-0.03800983 -0.105779864 0.021168482 -0.0030573276 -0.12522587 0.02039091 -0.019246507 -0.08402167
0.045901056 0.010058855 0.040550545 -0.052244864 0.0042572417 -0.04784912 -0.1251517 0.015407181
-0.011395839 -0.090984754 -0.0056601116 -0.068840064 -0.08613008 0.021920355 -0.047837757 -0.09567171
-0.086091176 -0.06867681 -0.03068473 -0.01567274 -0.03702469 0.06295923 0.024171036 0.056776475
-0.012170945 0.06825701 -0.075246654 -0.026509535 -0.021457432 0.04504675 0.083937876 -0.049529757
-0.033543404 0.01616856 0.0304006 -0.013534262 -0.10273139 -0.08284462 -0.09125327 0.030571204
-0.004949789 0.025411172 0.05373459 0.16556014 0.050447512 0.016256832 -0.043956213 -0.022584021
0.033103652 0.045405943 0.0486142 -0.003092915 -0.07606508 -0.04526541 0.026207827 0.07609631
-0.014242435 -0.010180542 -0.01808184 0.0067335702 -0.027427854 -0.117938004 0.03230044 -0.07375611
0.020329192 -0.01932279 0.046075504 0.042536136 0.0010628698 0.0511144 0.041437317 -0.030814698
-0.08572958 -0.038319174 0.04010322 -0.07164634 -0.049672313 -0.07479573 -0.071726404 0.010487084
0.059161738 -0.028420601 -0.010365497 0.02806097 -0.08279698 -0.03317648 -0.041767962 -0.10757649
-0.023134533 -0.04922976 0.04240713 0.042282004 -0.09695171 -0.03692476 0.06906151 0.044074703
-0.03271164 -0.083096996 -0.06571401 -0.099979326 -0.052272193 -0.14640068 -0.051926583 -0.07268375
0.06539498 0.042628367 -0.13299449 0.076909155 -0.038963 -0.06606184 -0.07826169 -0.065024786
0.047429718 -0.22447234 -0.06579058 0.046658404 -0.010725288 -0.06196898 0.03412204 -0.023171535
0.14225334 -0.024595542 0.0029947266 0.07981948 -0.0005755068 -0.034820694 -0.017678697 -0.03432306
-0.06944621 0.14604937 -0.1295628 -0.005098796 -0.029112713 0.019059835 0.033082224 0.055370655
-0.07243493 0.013060059 0.014921334 -0.04017003 0.076072514 -0.065299265 0.02727521 -0.07607365
-0.06110681 -0.1488061 -0.0024019475 0.050936066 0.07361848 -0.034547143 -0.056198463 -0.089682356
0.10398507 0.083146535 0.011758878 -0.08323388 -0.105325684 0.0001283228 0.023489913 -0.09362565
0.017956596 -0.015899392 -0.045617297 0.057535738 0.08172951 -0.06265577 0.009359973 0.082929336
-0.053139336 0.03052807 -0.093193024 -0.037722055 -0.10814306 -0.023321036 0.05317205 0.045109756
-0.08261789 -0.004290206 0.038469646 0.011652652 -0.016073609 0.05072449 0.045992453 0.06573493
-0.001485677 0.024910714 -0.08949907 0.044839732 -0.097717814 0.030482048 -0.00444517 0.03897042
-0.045626372 -0.006016062 -0.02972578 -0.028836219 0.007745349 -0.024222756 0.01668853 -0.093156196
00000000: e750 8fbd 8dc4 453d a30f 93bd 360f 913c
00000010: 3c2f e9bd 79ae 3abc 90c5 beb9 fd6d ebbd
00000020: 4763 ce3b 5c23 a4bd 488b adbd e0ec 013d
00000030: 6e13 2ebd 3b45 9c3c 323f 433d 0732 d4bd
00000040: 7d50 0ebc 6c2e 1a3d ddc6 40bd 5d79 6cbd
00000050: 6897 183d a716 3d3d 45ce ab3d 542a 90bd
00000060: 6e63 c7bc 1c23 98bd 6b9d 5bbd fb37 9e3c
00000070: 8125 c9bd 86c5 dbbd d381 90bc ed43 383c
00000080: e0da 52bd e351 84bd c4b7 3a3c ece0 ae3d
00000090: 1b11 e7bb 91c7 c2bd ba67 b9bc ab52 9fbc
000000a0: e279 a73c 9ecc 64bd 4610 823c f960 1dbd
000000b0: 245b 2fbd 5bac 53bd 6d64 803d adac 0c3d
000000c0: 32b0 1bbd 1da3 d8bd 8669 ad3c 725d 48bb
000000d0: 363b 00be d60a a73c daaa 9dbc 8e13 acbd
000000e0: bf02 3c3d e5cd 243c 5418 263d b6fe 55bd
000000f0: 5580 8b3b 70fd 43bd c427 00be 676e 7c3c
00000100: 9db5 3abc 3756 babd 7578 b9bb 05fc 8cbd
00000110: f864 b0bd 5192 b33c 86f1 43bd 88ef c3bd
00000120: 9250 b0bd 6da6 8cbd 8b5e fbbc 1e64 80bc
00000130: 34a7 17bd c5f0 803d 5602 c63c 738e 683d
00000140: a568 47bc 55ca 8b3d eb1a 9abd 862a d9bc
00000150: 7fc7 afbc f182 383d 9fe7 ab3d b7df 4abd
00000160: cf64 09bd ee73 843c ae0a f93c cfbe 5dbc
00000170: d664 d2bd 71aa a9bd ffe2 babd 7670 fa3c
00000180: d731 a2bb 172b d03c cd18 5c3d 9988 293e
00000190: 0da2 4e3d 0c2d 853c 6e0b 34bd 2002 b9bc
000001a0: b297 073d 95fb 393d af1f 473d 81b2 4abb
000001b0: 02c8 9bbd 3968 39bd ccb1 d63c 62d8 9b3d
000001c0: 1a59 69bc 4acc 26bc 5e20 94bc 48a5 dc3b
000001d0: 61b0 e0bc 7b89 f1bd 774d 043d 720d 97bd
000001e0: 6889 a63c d44a 9ebc abb9 3c3d 5f3a 2e3d
000001f0: fe4f 8b3a 555d 513d 2dba 293d 1b6f fcbc
00000200: fd92 afbd 91f4 1cbd 4643 243d 51bb 92bd
00000210: 3275 4bbd 812e 99bd 4be5 92bd 05d2 2b3c
00000220: 9453 723d 52d2 e8bc 0cd4 29bc 1fe0 e53c
00000230: 7791 a9bd 10e4 07bd e214 2bbd 1051 dcbd
00000240: a284 bdbc 25a5 49bd 19b3 2d3d e52f 2d3d
00000250: 9e8e c6bd 6b3e 17bd 1f70 8d3d ad87 343d
00000260: a4fc 05bd c22e aabd 1195 86bd f6c1 ccbd
00000270: 5e1b 56bd 0fea 15be f8b0 54bd 38db 94bd
00000280: ceed 853d 159b 2e3d b52f 08be 8c82 9d3d
00000290: ab97 1fbd 6e4b 87bd aa47 a0bd b72b 85bd
000002a0: aa45 423d 14dc 65be 36bd 86bd e21c 3f3d
000002b0: 1eb9 2fbc 2fd3 7dbd 8dc3 0b3d 3bd2 bdbc
000002c0: dcaa 113e 977c c9bc 2d43 443b 6578 a33d
000002d0: 9cdd 16ba 25a0 0ebd ead2 90bc 5696 0cbd
000002e0: d139 8ebd f78d 153e 1cac 04be cd13 a7bb
000002f0: c97d eebc 5f23 9c3c 3a81 073d 57cc 623d
00000300: c458 94bd dcf9 553c 9c78 743c 5489 24bd
00000310: e8cb 9b3d 9fbb 85bd 4370 df3c 80cc 9bbd
00000320: 224b 7abd a060 18be fe69 1dbb 56a2 503d
00000330: 49c5 963d 4e81 0dbd 5c30 66bd 62ab b7bd
00000340: 20f6 d43d bb48 aa3d 4fa8 403c 8676 aabd
00000350: feb4 d7bd 648e 0639 eb6d c03c cebe bfbd
00000360: b619 933c 713f 82bc 34d9 3abd 98aa 6b3d
00000370: cd61 a73d ab51 80bd 925a 193c dbd6 a93d
00000380: a2a8 59bd 0116 fa3c fcdb bebd 7182 1abd
00000390: 1c7a ddbd c20b bfbc efca 593d 02c5 383d
000003a0: 9133 a9bd db94 8cbb 5992 1d3d c4ea 3e3c
000003b0: cdac 83bc 7cc4 4f3d 9562 3c3d 09a0 863d
000003c0: 0cbb c2ba 8e11 cc3c 4a4b b7bd dea9 373d
000003d0: 4720 c8bd 7db5 f93c caa8 91bb 729f 1f3d
000003e0: b8e2 3abd 6322 c5bb 7b83 f3bc ef39 ecbc
000003f0: b2cc fd3b cd6e c6bc 62b6 883c adc8 bebd

conv2.nn.2.bias f4 [128]
-0.059742033 -0.036507946 -0.025897847 -0.04677886 -0.08928087 0.006305643 -0.07157072 -0.047841266
0.013228763 0.0048736036 -0.04815183 -0.014580958 -0.054544833 -0.0351918 -0.03282803 -0.089590535
-0.10190837 -0.08817613 -0.030261045 -0.005675643 -0.04775507 -0.037346564 -0.026917541 0.015504913
0.002160778 -0.041671656 -0.07690954 -0.072005495 -0.028596083 -0.121637285 -0.14549272 0.017908728
-0.075310424 -0.01731832 -0.0039561354 -0.1221353 -0.00038950267 -0.016728947 -0.10736439 -0.079723835
-0.117867835 -0.021140888 0.025108388 -0.13370973 -0.055765383 -0.15410362 -0.10347223 -0.100943804
-0.043603446 -0.05482234 -0.02703819 0.124396324 -0.14059849 -0.07084228 -0.019504491 -0.0072816946
0.009275307 0.14810635 -0.080203526 -0.034394518 -0.024230985 -0.10507936 -0.065688066 -0.055290725
-0.12836924 -0.065754116 -0.07440872 -0.07776728 0.059438795 -0.04467517 -0.06948502 -0.0009709614
0.046358634 -0.11186819 -0.009710244 -0.08273829 -0.13388339 -0.16996916 0.087790065 -0.10904187
-0.02855326 -0.034111846 0.050073482 0.024463069 0.012319644 -0.013162568 -0.0050609373 -0.0045612
-0.12759441 -0.061858602 -0.008614923 -0.084397495 -0.005733569 0.004890747 -0.05437087 -0.006119729
-0.08420874 -0.09459878 -0.15741846 -0.08272984 -0.093966216 -0.09668565 0.013431389 -0.0134880645
-0.055192064 -0.0639128 -0.07553963 0.09199969 -0.08509657 0.19485193 -0.017618356 -0.051963028
-0.036218435 0.00013535345 0.017011484 -0.09313414 -0.11131987 -0.06301246 0.12217296 -0.06930514
0.0032958759 -0.044509627 -0.094494 -0.0842715 0.071343176 -0.020346407 -0.050092373 -0.034036715
00000000: 10b4 74bd 5b89 15bd b927 d4bc 319b 3fbd
00000010: e4d8 b6bd 919f ce3b ab93 92bd 34f5 43bd
00000020: 74bd 583c c0b2 9f3b da3a 45bd f8e4 6ebc
00000030: 676a 5fbd 4725 10bd af76 06bd 3e7b b7bd
00000040: 56b5 d0bd b095 b4bd 03e6 f7bc bffa b9bb
00000050: d29a 43bd b6f8 18bd 2d82 dcbc 5208 7e3c
00000060: d79b 0d3b e6af 2abd c082 9dbd 9e77 93bd
00000070: 5542 eabc f81c f9bd 0bfc 14be 53b5 923c
00000080: 5a3c 9abd 26df 8dbc 78a2 81bb 1222 fabd
00000090: 2a36 ccb9 250b 89bc dce1 dbbd 4046 a3bd
000000a0: b164 f1bd a82f adbc 1bb0 cd3c 34eb 08be
000000b0: 3e6a 64bd 57cd 1dbe 40e9 d3bd a0bb cebd
000000c0: 8799 32bd 648d 60bd 327f ddbc 80c3 fe3d
000000d0: 0df9 0fbe c215 91bd e2c7 9fbc 489b eebb
000000e0: 75f7 173c 31a9 173e bf41 a4bd 44e1 0cbd
000000f0: 0f80 c6bc d933 d7bd 7787 86bd 8778 62bd
00000100: 3a73 03be 18aa 86bd 9963 98bd 7444 9fbd
00000110: 1876 733d 50fd 36bd 2a4e 8ebd 1e88 7eba
00000120: 8de2 3d3d 261b e5bd b717 1fbc b172 a9bd
00000130: ba18 09be 650c 2ebe 47cb b33d 5851 dfbd
00000140: 87e8 e9bc ddb8 0bbd da19 4d3d c666 c83c
00000150: 55d8 493c d0a7 57bc 38d6 a5bb 1e76 95bb
00000160: 1ca8 02be 725f 7dbd 9b25 0dbc 98d8 acbd
00000170: aae0 bbbb 8f42 a03b fdb3 5ebd 0288 c8bb
00000180: a275 acbd 01bd c1bd 4e32 21be 436e a9bd
00000190: 5c71 c0bd 2003 c6bd 540f 5c3c 0bfd 5cbc
000001a0: 1311 62bd b7e4 82bd 86b4 9abd 556a bc3d
000001b0: 1c47 aebd 4487 473e 5f54 90bc 2fd7 54bd
000001c0: c859 14bd aaed 0d39 ab5b 8b3c 1dbd bebd
000001d0: acfb e3bd ad0c 81bd d135 fa3d daef 8dbd
000001e0: 9fff 573b ba4f 36bd 1286 c1bd 8996 acbd
000001f0: 5f1c 923d 82ad a6bc a92d 4dbd 156a 0bbd

out.weight f4 [128, 128]
-0.042501185 0.111746565 0.007290872 -0.0035038635 0.039307937 -0.008319373 -0.023214957 0.08589932
-0.109235644 0.013514552 -0.005697696 -0.044603415 -0.07231308 -0.09456195 0.021743828 0.11097733
0.029895954 -0.04050199 -0.040870532 -0.00039889818 -0.007657493 -0.08243137 0.004102131 -0.038826022
0.06741649 -0.05848682 0.05800641 -0.08815034 -0.025069898 0.014124105 0.034072746 0.06541541
-0.055462293 0.03767287 0.032700688 -0.03875564 -0.07318665 -0.09328343 -0.027040865 0.06261147
-0.049771626 0.021581853 -0.022097584 0.10944946 0.013569291 -0.034352306 -0.06493056 -0.057346746
-0.004405797 0.06739878 0.020579673 0.016644297 0.0032008488 -0.026451185 -0.040514633 -0.016703285
0.065792724 -0.00399264 -0.03744635 -0.08109768 -0.06361904 -0.010976364 0.0636057 -0.056240674
0.050925933 -0.095670536 -0.04317734 -0.032418013 -0.06879934 -0.08240594 0.12884279 -0.0613031
-0.06464708 -0.051916257 -0.0192025 -0.0019783787 -0.12090303 -0.04277637 -0.016691566 0.015740117
-0.05498911 -0.037665896 0.007544739 0.002535148 -0.019365972 -0.028812634 -0.0402529 -0.010740608
0.02558284 -0.05723729 0.05375105 -0.095731415 -0.14411676 -0.14519094 -0.021853812 0.0054773986
-0.0313384 -0.0058907913 -0.018140126 0.07391293 0.012932692 0.03936161 0.039801434 0.076602854
-0.02321127 0.048809476 0.037563343 -0.08327022 -0.05780759 -0.12642519 -0.03051372 -0.05518541
0.039352506 -0.030315503 -0.07737893 0.07998602 0.0055806213 0.022937601 -0.014935191 -0.059483804
-0.033931773 -0.067782626 0.057136662 -0.035508044 -0.022269212 -0.033841524 -0.019548513 -0.024460003
-0.03979649 0.041731942 -0.013475946 -0.03553813 -0.042821214 -0.01010339 0.017380713 0.012902198
0.04917002 0.0132709015 -0.114827834 -0.024549335 0.03857786 0.0014545441 0.03293886 0.01024024
-0.031186052 -0.058487665 -0.03208013 -0.032139752 -0.06609346 -0.075849615 -0.085853055 0.11372983
-0.034482755 0.022451421 0.077150404 -0.036899894 -0.025893336 -0.08181751 0.026707815 -0.017927371
0.044089526 0.0054087606 0.041341186 0.046444733 -0.027045246 0.058360603 0.04630572 0.027699174
0.032644365 0.00092202076 0.009980718 -0.08577613 0.0073852804 0.050802175 -0.02892755 0.001690088
-0.053376004 -0.008098164 -0.039813604 0.010194523 -0.092428856 -0.02324228 -0.0797053 0.008734409
-0.07314922 -0.12549353 -0.09550949 0.026930012 -0.035340082 -0.09873545 -0.013638627 -0.061498903
0.122436546 0.0636146 0.043482587 -0.064460225 -0.076045625 -0.04749917 -0.0014558109 -0.067303024
0.01659389 -0.05377197 -0.04135807 0.016188053 0.05655298 -0.006146219 -0.017373191 -0.02246224
-0.05347206 0.05839594 -0.08622358 -0.04165326 0.03764053 0.018242648 0.07230959 -0.07611286
-0.07556493 -0.14737077 -0.011223997 -0.008350066 0.06473003 0.013406241 0.07012009 0.09006054
0.008679565 0.089627996 0.06685619 0.009826622 -0.013015714 -0.033744533 -0.042128775 -0.056048315
-0.019760588 -0.056916922 0.010933056 0.02613842 -0.04681766 -0.0891913 0.024358686 0.024905678
-0.14815882 -0.08724284 -0.16497181 0.012419733 -0.048597604 0.018820897 -0.06394853 0.038570955
-0.03861661 0.039824907 0.06976209 0.055067353 -0.07419532 0.06193788 -0.061762907 -0.088051066
00000000: b915 2ebd 62db e43d 44e8 ee3b 13a1 65bb
00000010: 5c01 213d fb4d 08bc 4b2d bebc fceb af3d
00000020: f0b6 dfbd 246c 5d3c bdb3 babb 12b2 36bd
00000030: e118 94bd b2a9 c1bd 1d20 b23c 1548 e33d
00000040: 5ce8 f43c 6ae5 25bd dc67 27bd 3523 d1b9
00000050: b5eb fabb c7d1 a8bd 2b6b 863b 0908 1fbd
00000060: a811 8a3d e08f 6fbd 2198 6d3d 2a88 b4bd
00000070: 635f cdbc ca68 673c dd8f 0b3d 84f8 853d
00000080: 6e2c 63bd de4e 1a3d 28f1 053d 3cbe 1ebd
00000090: e2e2 95bd 620b bfbd ce84 ddbc 713a 803d
000000a0: 55dd 4bbd 6dcc b03c fe05 b5bc 0a27 e03d
000000b0: bb51 5e3c 01b5 0cbd 50fa 84bd 6ce4 6abd
000000c0: 815e 90bb 5f08 8a3d b496 a83c 9f59 883c
000000d0: 55c5 513b 28b0 d8bc acf2 25bd 54d5 88bc
000000e0: 56be 863d b1d4 82bb 5861 19bd 8a16 a6bd
000000f0: b34a 82bd 35d6 33bc b543 823d 9f5c 66bd
00000100: b697 503d eaee c3bd b9da 30bd c0c8 04bd
00000110: abe6 8cbd 72c4 a8bd 5def 033e f618 7bbd
00000120: b065 84bd 24a6 54bd 904e 9dbc b0a7 01bb
00000130: 029c f7bd 4636 2fbd c0bc 88bc 6bf1 803c
00000140: 433c 61bd 8e47 1abd dc39 f73b ba24 263b
00000150: 63a5 9ebc 7908 ecbc 3ae0 24bd 60f9 2fbc
00000160: 1b93 d13c a671 6abd 102a 5c3d d50e c4bd
00000170: 5893 13be efac 14be c406 b3bc c07b b33b
00000180: b25c 00bd 8a07 c1bb 9a9a 94bc aa5f 973d
00000190: a4e3 533c a439 213d d406 233d f5e1 9c3d
000001a0: 9025 bebc 72ec 473d 05dc 193d 9489 aabd
000001b0: a7c7 6cbd 9b75 01be e9f7 f9bc 190a 62bd
000001c0: 1830 213d 3858 f8bc d878 9ebd b6cf a33d
000001d0: a5dd b63b a3e7 bb3c bbb2 74bc 4aa5 73bd
000001e0: 0bfc 0abd 9ed1 8abd 2208 6a3d e270 11bd
000001f0: ec6d b6bc 699d 0abd 3424 a0bc 5860 c8bc
00000200: a501 23bd 1def 2a3d 37ca 5cbc 6e90 11bd
00000210: 4c65 2fbd b088 25bc ff61 8e3c be63 533c
00000220: 8166 493d 326e 593c db2a ebbd b01b c9bc
00000230: d103 1e3d 67a6 be3a e6ea 063d aec6 273c
00000240: e479 ffbc c390 6fbd 7466 03bd f9a4 03bd
00000250: 025c 87bd 0b57 9bbd bad3 afbd 2feb e83d
00000260: ca3d 0dbd 0bec b73c 0801 9e3d 5824 17bd
00000270: 431e d4bc f08f a7bd 59ca da3c 6cdc 92bc
00000280: 3897 343d f93b b13b 6055 293d d53c 3e3d
00000290: fe8d ddbc 870b 6f3d 11ab 3d3d 61e9 e23c
000002a0: 19b6 053d c4b3 713a 2a86 233c 65ab afbd
000002b0: 3900 f23b f115 503d 78f9 ecbc f185 dd3a
000002c0: cca0 5abd 29ae 04bc 9713 23bd ee06 273c
000002d0: 574b bdbd 9866 bebc 883c a3bd c41a 0f3c
000002e0: 42cf 95bd 6081 00be 7b9a c3bd 549c dc3c
000002f0: c3c0 10bd d035 cabd 8c74 5fbc 46e6 7bbd
00000300: 03c0 fa3d 5f48 823d cc1a 323d b903 84bd
00000310: cfbd 9bbd 7d8e 42bd e8d0 beba 2bd6 89bd
00000320: e9ef 873c ff3f 5cbd 1467 29bd cf9c 843c
00000330: 19a4 673d 3966 c9bb 3952 8ebc bb02 b8bc
00000340: 8505 5bbd 9530 6f3d fd95 b0bd 9c9c 2abd
00000350: f52c 1a3d 9b71 953c 0d17 943d 0fe1 9bbd
00000360: c9c1 9abd 5de8 16be dbe4 37bc b7ce 08bc
00000370: 2e91 843d daa5 5b3c 1f9b 8f3d a971 b83d
00000380: bc34 0e3c e28e b73d e6eb 883d d7ff 203c
00000390: dc3f 55bc b537 0abd 398f 2cbd eb92 65bd
000003a0: f5e0 a1bc b821 69bd 8f20 333c 3d20 d63c
000003b0: e0c3 3fbd eea9 b6bd de8b c73c fe06 cc3c
000003c0: f2b6 17be 60ac b2bd 5fee 28be 237c 4b3c
000003d0: 480e 47bd 482e 9a3c 72f7 82bd 94fc 1d3d
000003e0: 732c 1ebd 711f 233d 6ddf 8e3d 4e8e 613d
000003f0: b7f3 97bd 93b2 7d3d 1afb 7cbd 1e54 b4bd

out.bias f4 [128]
0.011534401 0.012563583 -0.0033700168 0.0012831892 0.010820867 0.0058680708 0.000528974 0.010608096
-0.009530036 0.018961163 -0.0007842467 0.013691307 0.0071984394 -0.0011140575 -0.013951187 -0.010511528
-0.002098297 -0.0049060546 -0.007804502 -0.007985892 0.008681309 -0.005291905 -0.0068384837 -0.0068620536
0.008019642 -0.007996741 -0.007713924 0.0064386255 -0.00044203873 0.016133236 -0.006260102 0.006900832
0.004692587 0.0010426338 0.002328985 -0.00033685812 -0.0028050852 0.006674147 -9.170213e-05 -0.0059165396
0.007588497 0.014387935 0.0021513419 0.006158422 -0.008145688 0.015813999 0.008910438 -0.014526484
0.008357864 -0.0005139489 0.002803762 0.008516636 0.0012646476 0.0035940611 0.0073699537 0.002657937
0.004450243 0.011138066 0.011321485 -0.0011978372 -0.004392788 0.0018294504 0.0009657866 -0.0095835915
0.00439226 0.008344692 0.012830188 -0.0015353739 0.018642884 0.00989936 0.0091307 -0.006472252
0.015514602 -0.017731166 -0.008420416 0.006644037 -0.002767497 -0.015042743 -0.0087216925 0.00688575
-0.009735703 0.0013943203 0.01877854 0.012591322 -0.0029844143 0.011340999 -0.0014190861 0.006861129
0.016427198 -0.00072598597 -0.008477941 0.0034370644 -0.008885702 0.014173089 0.003000446 0.0050695767
0.007137736 0.009138729 -0.006657044 0.0035822517 -0.0044894204 0.0043166336 0.011350998 -0.0011588557
-0.012753303 0.0061234124 0.013364017 -0.002421942 -0.0075636 -0.010421378 0.0025928284 0.0027713885
-0.010073119 0.0010663967 -0.00032984212 0.0058228206 -0.0010841386 -0.0037132867 0.012177969 -0.0010407355
0.007953479 0.01170732 0.0013200804 0.0059761535 -0.0036200054 0.00854472 0.012410946 -0.006224318
00000000: c9fa 3c3c 7dd7 4d3c 80db 5cbb af30 a83a
00000010: 014a 313c f248 c03b d8aa 0a3a 94cd 2d3c
00000020: de23 1cbc 7154 9b3c e895 4dba 8151 603c
00000030: e3e0 eb3b 9105 92ba 8593 64bc 8b38 2cbc
00000040: 9583 09bb f8c2 a0bb e8bc ffbb 42d7 02bc
00000050: 0d3c 0e3c b767 adbb 5c15 e0bb 14db e0bb
00000060: d164 033c c304 03bc 16c5 fcbb 1bfb d23b
00000070: 6fc1 e7b9 d929 843c 8b21 cdbb 6020 e23b
00000080: 46c4 993b fca8 883a e2a1 183b 559c b0b9
00000090: 85d5 37bb ceb2 da3b 3550 c0b8 88df c1bb
000000a0: eda8 f83b 60bb 6b3c 87fd 0c3b 97cc c93b
000000b0: 7e75 05bc 5c8c 813c 16fd 113c 7d00 6ebc
000000c0: 6cef 083c 87ba 06ba 52bf 373b 5c89 0b3c
000000d0: 88c2 a53a 578a 6b3b a77f f13b c830 2e3b
000000e0: 58d3 913b 6f7c 363c c07d 393c bf00 9dba
000000f0: 60f1 8fbb 2bca ef3a d72c 7d3a 7f04 1dbc
00000100: f3ec 8f3b 2db8 083c b535 523c 993e c9ba
00000110: f6b8 983c ed30 223c ee98 153c 2f15 d4bb
00000120: f530 7e3c f340 91bc c9f5 09bc 39b6 d93b
00000130: e55e 35bb d675 76bc 6ee5 0ebc dca1 e13b
00000140: 7f82 1fbc a0c1 b63a 74d5 993c d54b 4e3c
00000150: 2a96 43bb 99cf 393c a100 baba 52d3 e03b
00000160: 5592 863c 1850 3eba 10e7 0abc 5f40 613b
00000170: 5695 11bc 3e36 683c 21a3 443b b11e a63b
00000180: abe3 e93b 9cba 153c 5523 dabb 36c4 6a3b
00000190: fd1b 93bb 8c72 8d3b 89f9 393c bfe4 97ba
000001a0: 3bf3 50bc e8a6 c83b c0f4 5a3c 72b9 1ebb
000001b0: 13d8 f7bb 6dbe 2abc 71ec 293b 2fa0 353b
000001c0: b909 25bc 56c6 8b3a a9ee acb9 5ccd be3b
000001d0: a819 8eba 9d5a 73bb 1b86 473c 4a69 88ba
000001e0: 4f4f 023c 0fd0 3f3c 8c06 ad3a 9cd3 c33b
000001f0: 9d3d 6dbb 27ff 0b3c 4857 4b3c 5df5 cbbb
