NO_QM/src/kiba_final_model.pt (torch, 544971 bytes, 16 tensors)

conv1.nn.0.weight f4 [128, 14]
00000000: c89d 43be 0f11 e0bd 6e25 c5bd f324 eabd
00000010: 9fb9 e13b 822e 453e 3c15 593d 31b3 35be
00000020: c07e 9e3d 602e 5dbe 303b 2f3e d1f3 ec3c
00000030: c38a 04be 36b1 583d 7361 a3bc 3c0e 0bbe
00000040: d833 a2be 7ff5 073f 4530 033f e232 0c3e
00000050: 0e17 41be 1140 20be 26db 37be 6a1b d33d
00000060: d30e d53d 0c64 ecbd 2afc 233f e4ea 683e
00000070: 7501 623e 1413 03bf 7fc6 81bc 9dbc a03e
00000080: 1fce bebe 4777 2b3e 30cd 9cbf 6ac0 853e
00000090: 7a69 b1be 27d8 0ebd ffd5 7cbc 1eab 283e
000000a0: 5b54 64be 114b 183e 8d0a e8bd 2b31 a1bd
000000b0: d5ab 64bd 482a 3cbe 05fe 573e e4c9 183e
000000c0: 6983 7cbc 9d41 39be 1c11 b13c 0c9d 4cbe
000000d0: d19f f4bd 90b3 743e e2da 87be 539b 3c3e
000000e0: c649 b3bc 5ce5 ad3e aa9b 5abf a722 b3be
000000f0: 8a6b 8dbe e67e debd 7e04 61bf 2d2f e43e
00000100: aa89 e0be 3816 0d3b be66 973d 808a e13c
00000110: 987d b5be 1765 f7be 9dce d43d 9f90 c6be
00000120: 9d97 113f 051d 1a3f 7c66 e4be a617 66bf
00000130: f27f e23e 5638 a83e fd5e f1bd d805 293e
00000140: e2a4 353e bfda b1bd 1fe3 90be 96e7 013f
00000150: 6ff6 2f3e 55b6 dbbd b678 ee3d 5b4b 7abf
00000160: 761a 953e ede8 cabe 2f07 94bf 959b 9a3e
00000170: f0c3 8ebe 8a95 61bd eef2 663e e49e 0abe
00000180: 4fca 99bf c2c6 af3e 7b88 24be 2219 84be
00000190: a666 d3bd 8d27 4bbe cd50 463e 00ed 09be
000001a0: f5ef 373d 9d23 fcbd 46bb 153e a912 0d3e
000001b0: 7af9 6cbe adf1 eb3d 1ca9 323e 3efc d83d
000001c0: dc41 e33d c939 e0be d79e 0d3f c43b d53d
000001d0: a56d 203f c106 bb3e d57a c03d 5e04 d6bd
000001e0: 35f6 65bd f88d 39be 6840 87be 1de3 4c3e
000001f0: 9e96 273f 55b1 fbbc 244d 02bd 3a9f 17be
00000200: b064 ba3d c0cb 74be 7d0d 09bd c70d 03be
00000210: 84d6 a53d 04bd a23d 6803 1ebe 5453 84bd
00000220: d4b3 39be 2ede 073d 71ad cebc d961 68be
00000230: 8962 303e 1535 bbbe 59ac c9be e045 4f3e
00000240: 37ac cabe 42d3 47be bc88 f13c fa67 e2be
00000250: d0ee 7d3e ff53 243e d94f 0b3e 3708 cbbd
00000260: 41ea 953e d4d1 cfbe 4a4f 2a3d daf9 12bf
00000270: 33f8 7abf 1662 e33d e30d 8cbb a8d4 0fbe
00000280: 6449 4dbe f90b 43be a06d 303e 398d 0d3e
00000290: 460d 8abd e9f0 fc3d e6a5 0dbf 138c 1e3e
000002a0: f934 e4bd 2d50 953e ece6 463e f225 73bd
000002b0: 1c99 8e3d 872d 593c 02b7 e6be bcbd 713f
000002c0: e605 24bf ab62 91bd 3a42 5f3e 9835 e4bd
000002d0: 5588 173f 5b7a e1be 30d7 55bd 4a44 74be
000002e0: 3703 ec3c 1761 3e3d 47d8 5d3d 6f80 e93d
000002f0: c5c7 53be 753e 393e c1cf 03be 7a62 32be
00000300: 4cc9 1e3e 1945 cb3b 09ff 5f3e aeeb 573e
00000310: ff50 153d 86b1 63bd 22d6 de3d 98bf 61be
00000320: eaba 04bf 7f8c dfbe 52b6 9ebf 49d8 203f
00000330: a9b6 c4be fc36 ee3d 3b41 4dbd 318f 843e
00000340: a357 443c ea57 1ebe f718 8dbd e124 a4bd
00000350: 9d55 3e3d bd3e 313c b368 50be bd6f 6dbd
00000360: cb2e 133e 9ad6 363e 0811 283e 737e 53bd
00000370: 45c6 8b3d a20b ce3d 9539 333f d56f 8fbd
00000380: 7d76 483d 8765 753e f357 fe3e 5b33 76bf
00000390: cf36 a1bf 737f 09be 7b6b 433c 76fd c4bc
000003a0: 82bc 00bf 8c2a 53be daf4 783d f145 74be
000003b0: 4e51 7fbf 1ed6 a73d a6aa abbd 0562 1a3e
000003c0: e1be cd3e 5ce8 febe 43d2 643d cb40 ca3c
000003d0: 4512 2dbd f37b 03bd a800 e13d 36ba 3d3e
000003e0: ddaa 98bd 6d9c c3be b052 64bf d93c 903e
000003f0: 7394 abbc 460c eebd 0dca 133e 96c9 1a3d
-0.19103158 -0.10940754 -0.0962628 -0.11432829 0.006888583 0.19256023 0.052998766 -0.17744137
0.077390194 -0.21599722 0.17112422 0.028924854 -0.12943558 0.052903377 -0.019943928 -0.13579649
-0.3168018 0.5310897 0.5124553 0.13691285 -0.18856451 -0.1564944 -0.17954692 0.10307963
0.10403218 -0.1154252 0.64056647 0.22745854 0.22070868 -0.51200986 -0.01584172 0.313939
-0.37266633 0.1674472 -1.2250118 0.26123363 -0.34650785 -0.034874108 -0.01543188 0.16471526
-0.22297804 0.14872386 -0.113301374 -0.07870706 -0.055827934 -0.18375504 0.21092995 0.14920765
-0.01541219 -0.18091436 0.021614604 -0.19981784 -0.11944545 0.23896623 -0.26534182 0.18418626
-0.021885764 0.3396405 -0.85393775 -0.34987375 -0.27621108 -0.10864048 -0.8789748 0.44567242
-0.4385503 0.0021528136 0.073926434 0.027531862 -0.35447383 -0.48319313 0.10390971 -0.38782212
0.5687197 0.6020053 -0.4460944 -0.89879835 0.4423824 0.3285548 -0.11785696 0.16506135
0.17738679 -0.08684301 -0.2829828 0.50744 0.1718385 -0.107281365 0.116441175 -0.97771233
0.2912175 -0.39630833 -1.1564692 0.30196825 -0.27883863 -0.055074252 0.22553608 -0.13537174
-1.2014865 0.34331328 -0.16067688 -0.25800425 -0.10322313 -0.19839306 0.1936676 -0.13469315
0.044906575 -0.1231148 0.1462222 0.1377665 -0.23142043 0.11520705 0.17447323 0.105949864
0.11096546 -0.43794087 0.55320495 0.1041179 0.62667304 0.3652859 0.09398428 -0.10450052
-0.056143004 -0.18120563 -0.26416326 0.20008512 0.654642 -0.030724207 -0.03181185 -0.14806834
0.09101236 -0.2390585 -0.03346013 -0.12798224 0.08097556 0.07946208 -0.15430987 -0.06461206
-0.18135005 0.03317087 -0.025229188 -0.22693576 0.17225088 -0.36563936 -0.39389303 0.20241499
-0.39584514 -0.19514182 0.029484145 -0.44219953 0.24798131 0.16047667 0.13604678 -0.09913676
0.29280284 -0.40589774 0.041579522 -0.57412493 -0.9803497 0.11102693 -0.0042741164 -0.14045966
-0.20047528 -0.19047536 0.17229319 0.13823403 -0.06740813 0.123506375 -0.55331266 0.15483122
-0.11142916 0.29162732 0.19424027 -0.05936236 0.06962797 0.0132554835 -0.450615 0.94430137
-0.640715 -0.070988975 0.21802607 -0.11143035 0.591924 -0.44038662 -0.052207172 -0.23854175
0.028810127 0.04647931 0.054161336 0.1140145 -0.20681675 0.18090232 -0.1287222 -0.17420378
0.15506476 0.0062033054 0.21874632 0.21085998 0.036454197 -0.05558922 0.10880686 -0.22045743
-0.5184771 -0.43661878 -1.239939 0.62830025 -0.3842061 0.11631581 -0.050111037 0.25890496
0.011983785 -0.15463224 -0.06889527 -0.080148466 0.046468366 0.010818181 -0.2035244 -0.05796789
0.14373319 0.17855301 0.16412747 -0.051634263 0.06824926 0.100608125 0.7000974 -0.07003752
0.048941124 0.23964511 0.49676475 -0.9617211 -1.2594851 -0.13427524 0.011927481 -0.02404664
-0.5028764 -0.20621699 0.060780384 -0.23854806 -0.99733436 0.081951365 -0.08382158 0.15076454
0.40184692 -0.4978665 0.055864584 0.024689099 -0.04225375 -0.03210063 0.10986453 0.18528065
-0.074544646 -0.3820528 -0.8918867 0.28171423 -0.02094481 -0.11623435 0.14432545 0.037789904

conv1.nn.0.bias f4 [128]
00000000: 5a0e 16be 41e7 dfbe 1712 063d cc7a 9bbd
00000010: cbbd 5fbe 799f d03e 52b7 1a3e ab90 e3bd
00000020: 876f ddbc 8c55 2cbe 4da4 e03d 3f42 793e
00000030: 3f46 14bc 2b15 713c 9b08 7e3e 7937 02be
00000040: 7222 85bd c3b3 7b3d 5c82 a4bd 3db8 893e
00000050: 30d0 f63c 999c 6c3c 62c8 083e 3024 3d3e
00000060: b876 b03e 609a 873e 7f5d 7abd 5cb8 98bc
00000070: 992c 03be 246d 0abf 9073 823c 3e51 49be
00000080: 2579 7bbe b26d 9fbe a584 5cbe 9be4 5c3e
00000090: ac8f 8cbe 2548 073e 753b 9f3e 21ea 29be
000000a0: 78cd ae3d d7bc d63d 388d a53d 3703 43bd
000000b0: 61ad d73d 4f6e 5ebd 8d59 a0bd 0213 47bb
000000c0: 80d0 243e d179 5ebc a9ce a4bb 720b 76be
000000d0: 7771 75be 0b7e 08be 23dc e43c c234 9b3d
000000e0: 7433 713e 8a3d 19be 9ce0 453d 140a 86be
000000f0: 1fb5 763e e4da 77bd e769 a43d dcbf de3c
00000100: 3f96 5a3d e7b6 14bf 309d 863e bd46 78bd
00000110: dce8 413e 2a18 80be 73c6 13bf 959f 2a3e
00000120: 105c 3b3e b972 aebe e46c babd 4b06 c53e
00000130: 658c 4cbd 48a6 913e bc78 eaba caaa eabc
00000140: 3e67 8c3c fc9f c9bd 049f 83be c613 843e
00000150: 1679 2dbe 3455 853e 9ba4 c9bd 1956 54be
00000160: 7eea 663e 7704 84be 43b4 a6be 034a 6ebe
00000170: 204c 75bd 4380 b93b 32c6 8e3d 13e9 2dbe
00000180: 3700 d53d 6fb8 e83e 96eb 8b3d 9832 8bbd
00000190: ecac 143e 5791 c1bd d8e7 c9be 10bc a73b
000001a0: 00b7 bb3c 9fdd a2bd 9373 323e 2ae2 18be
000001b0: c59f 7cbe be69 08bf cae2 fcbe 713f 87bc
000001c0: 0fdb d9bc 1986 af3c 780d fcbd fef3 863e
000001d0: fa77 9b3d 6a9b 50be 05e3 96bc 2c53 abbd
000001e0: 6e08 36be fcda 023e 02ce 6e3d c34c 91be
000001f0: b1bb 583e 0d65 b4be 82cb adbe 43bc b1be
-0.14653912 -0.4373112 0.032732096 -0.07591781 -0.21849744 0.40746668 0.15108994 -0.111115776
-0.02703072 -0.16829509 0.10968838 0.24341677 -0.009049951 0.0147145195 0.2480797 -0.12716474
-0.065007105 0.06145073 -0.080326766 0.26898375 0.030128568 0.014441633 0.1335769 0.18470836
0.34465575 0.26484966 -0.06112432 -0.018642597 -0.12809981 -0.54072785 0.015924245 -0.19659898
-0.24557932 -0.31138378 -0.21534975 0.21571581 -0.27453363 0.13211115 0.3110005 -0.1659322
0.08535284 0.10485237 0.08083576 -0.047610488 0.10531116 -0.054304417 -0.078295805 -0.003037632
0.16095161 -0.013578848 -0.0050295186 -0.24027804 -0.23969065 -0.13329332 0.027937 0.07578422
0.23554784 -0.14964882 0.048309907 -0.26179564 0.2409253 -0.060511485 0.08028012 0.027191095
0.053365942 -0.58091587 0.262918 -0.060614336 0.18936485 -0.25018436 -0.57724684 0.16662438
0.18296838 -0.340719 -0.091028005 0.38481364 -0.04993858 0.28447175 -0.0017888765 -0.028645892
0.017139073 -0.09844968 -0.25707257 0.25796336 -0.16940722 0.26041567 -0.09845849 -0.20735969
0.22550389 -0.25784656 -0.32559404 -0.2327042 -0.05988705 0.005661042 0.069713965 -0.16983442
0.104004316 0.45453212 0.06832044 -0.06796759 0.1451909 -0.094515495 -0.39434695 0.0051188543
0.02291441 -0.07952427 0.174269 -0.14930025 -0.24670322 -0.5328635 -0.49391776 -0.016509743
-0.026593713 0.021426247 -0.123072565 0.26358026 0.07591243 -0.20371786 -0.018418798 -0.08365473
-0.17776653 0.12778848 0.058301933 -0.28378877 0.21165349 -0.35233346 -0.33944327 -0.34713945

conv1.nn.2.weight f4 [128, 128]
00000000: 5257 9d3c f9bc 0fbc de5e c0bd 4e4f 743d
00000010: 5dda 8cbd e341 c0bb e3b4 a4bd 2e8f bfbc
00000020: 258d 4ebd 04ba 4e3d 2d82 10bd 5664 6c3c
00000030: 0449 96bd 8585 9d3d 290a 2f3c 07c8 403c
00000040: 5212 4cbd 11b5 cfbb 157c 913d 3f5f d23b
00000050: cf37 6f3d 923e 07bd 6c82 863b d4e3 c1bd
00000060: afa5 83bc cd5c 1fbd 6858 97bc aec9 93bc
00000070: ce8f 9cbc 933f 68bd d1e6 41bd 0b81 0dbc
00000080: 69d6 313c f970 79bd 7b30 a0bd cad1 4b3d
00000090: 36f5 26bd 7ab3 2cbd d468 553d 2c3e 70bd
000000a0: 6bc2 87bd 6520 b23b f01d 9d3c 231d 79bd
000000b0: ba9f 23bc dd2c fdbd 7b28 463d ab00 debd
000000c0: 82e4 e7bc a816 34bc 435d 0f3d c209 293d
000000d0: 77d2 543d 53fd 94bd d2b1 833d 4461 b13d
000000e0: 685c f93c adfc a93b e5d0 7ebd debc 173d
000000f0: eda6 d7bc 1af7 a53d ffab dfbd da04 993c
00000100: a52a 10bd 73a5 3b3d 8b67 103c 62e4 95bd
00000110: efc8 d0bd 719c 9f3d 1a48 ffbd bee1 d4bd
00000120: db3b babc 6133 323d 30e4 d4bc 5ab0 c13c
00000130: bd2d cebd fdd1 95bd 2335 4bbb 52c5 0cbd
00000140: 9380 a1bd faad 29bd e729 b33d 4d12 49bd
00000150: 4bac 733c 92ab c53c 7b93 47bd eca8 8d3c
00000160: 4da3 45bc 9583 533d bc30 473d 42eb 3bbc
00000170: 30b6 b83c cb28 073d f438 98bd aae1 2abb
00000180: e164 49bc bfa2 e6bc 044b a23d a38f fc3c
00000190: 63e5 4dbd 9a8e ea3c 314f b3bd a0f9 a63d
000001a0: b918 d3bd 5d6b 34bd b380 933d da57 613d
000001b0: 6a1b bbba 42cd 18bd 0357 debd 0f10 02be
000001c0: c858 b9bc 68a7 9dbd 6215 833d 2f67 373d
000001d0: b608 cdbc ed7c 443c 0fe9 cabd 4ec7 83bd
000001e0: 66f0 37bd 820d 71bd 4ad5 7cbd fad9 013b
000001f0: bdbb 8f3c f2d6 09bd 8792 ef3c d228 f1bd
00000200: aae6 a2bd 48e1 56be 6ba3 f2bd 9317 ab3d
00000210: b888 a93c ed97 7dbe be2b 3abf 6b5a 79bc
00000220: cc16 32be e8b3 1d3d ab4e 02be b6cd 943d
00000230: 2761 edbe a3f0 93bc 9bba b8be 687e 5bbc
00000240: d396 c4bd 4fca 473e e243 80bd a59f 2abe
00000250: 3d1f 42bf 40b1 a135 3baa 9fbd 1c23 b1be
00000260: 802e 29be 6054 b3bd fe69 41be f9bd 78bc
00000270: f813 a4be 5310 6bbd 5c68 aabd b79a a7be
00000280: ae62 a4bd 5a7d 77be cee2 d93d 0f6f 41bd
00000290: 5f05 033c ccd5 513d 1de5 bdbd 2d57 7ebe
000002a0: 2b52 a6bd 8ad9 2b3e edcb 0fbe 2e20 603d
000002b0: 48b7 eabe bde8 593e db61 0bbd 9d0e ffbe
000002c0: 5443 a33d 1726 2e3e 7d03 53bd cbe1 c3bd
000002d0: 2d71 2abf c985 d2bd 8a0a fa3c 911d 46bd
000002e0: a590 2bbd 6f18 49bd b363 b2be 8895 393c
000002f0: 3e23 92bb b910 21bc 87bd 5d3e 8820 86bd
00000300: e92b 353e a283 c6bd 58e8 38bd c8fa 493e
00000310: 0734 e6be be3c 6cbd ff3a 1dbe c6e8 15bd
00000320: 1c60 ae3d 16c4 22bf 923b 8fbd 41ef 2cbe
00000330: 3fa2 f8bd 5589 8bbe 4730 5cbd 2ead b13d
00000340: 06b0 16bf d889 ecbe f0af 313e 2eff 413e
00000350: e883 e6bc c3a3 083e 827b a73b 7125 9abc
00000360: 382a 69bd a5f4 0dbf b9c2 75be 7ff2 ef3c
00000370: 8845 c5bd afac 21be 3a5c 2ebd 7b11 dfbc
00000380: 3bd6 a9bd d2aa adbe 9924 a63d d55b cfbc
00000390: fd1d be3d 1efd a2bd 3687 ba3d a2ea 8fbd
000003a0: 9909 50bf e963 48bd 3118 d3bc 1630 f7bd
000003b0: 4443 dfbc 9e7e 3dbe 0dc6 62bd 1749 2ebf
000003c0: 19c1 823e 528c 893e 3dbf bdbd 5084 533d
000003d0: fe5c b8bb b929 9dbd 7ac3 cdbd d9af 1dbe
000003e0: 11bc 2d3e ceac 77bc 043e 12be e708 333d
000003f0: e09e 84bd 0205 88be f592 9dbd 5caa 0dbd
0.019206677 -0.008773082 -0.093930945 0.059645943 -0.06877587 -0.0058672293 -0.08042314 -0.023383703
-0.050427575 0.050470367 -0.035280395 0.014428219 -0.073381454 0.076914825 0.010683575 0.01176644
-0.04982216 -0.0063387235 0.07103745 0.0064200456 0.058402833 -0.033018656 0.004104903 -0.09467283
-0.016070215 -0.03890686 -0.018474773 -0.018040504 -0.01911154 -0.056701254 -0.047339264 -0.008636723
0.010854342 -0.060898755 -0.07821747 0.049760617 -0.040761195 -0.04216335 0.052101925 -0.05865304
-0.06628879 0.0054359906 0.019179314 -0.060818803 -0.009986812 -0.123620726 0.04837845 -0.10839971
-0.028307203 -0.01099173 0.03500105 0.04126907 0.051958527 -0.0727488 0.06430401 0.0866113
0.03043957 0.005187592 -0.062210936 0.037045352 -0.026324714 0.081037715 -0.109214775 0.018679071
-0.03519692 0.04581208 0.008813749 -0.07318951 -0.10194575 0.07793511 -0.12464924 -0.103946194
-0.02273362 0.04350603 -0.025987715 0.023643661 -0.10067318 -0.07315443 -0.0031007014 -0.034367867
-0.07885852 -0.041425683 0.087482266 -0.04908972 0.014872621 0.024129663 -0.048724633 0.017292462
-0.01206286 0.05163916 0.04863046 -0.011469664 0.022547811 0.032997888 -0.07432738 -0.0026074448
-0.012292118 -0.028153775 0.07924464 0.03083021 -0.05026759 0.02863245 -0.08755339 0.08153081
-0.1030745 -0.044047702 0.07202282 0.055015422 -0.0014275138 -0.037305124 -0.1085644 -0.12701438
-0.022625342 -0.07697946 0.06400563 0.044776138 -0.025028568 0.011992675 -0.09907734 -0.06434499
-0.044906996 -0.058850773 -0.061726846 0.0019813762 0.017545575 -0.033652253 0.029244674 -0.11775364
-0.07954152 -0.20984375 -0.11847576 0.08354106 0.020695075 -0.24764986 -0.72722995 -0.015219311
-0.17391509 0.03850165 -0.12725322 0.07265799 -0.46363184 -0.01805908 -0.3607987 -0.013396837
-0.0959908 0.19510768 -0.062629476 -0.16662462 -0.75828916 1.2047021e-06 -0.07796141 -0.345971
-0.16521645 -0.08756328 -0.18888089 -0.015182012 -0.32046485 -0.057388615 -0.08320686 -0.32735226
-0.08026634 -0.24168912 0.10638963 -0.047225054 0.007996886 0.051229283 -0.092722155 -0.24837942
-0.08121141 0.16782203 -0.14042635 0.05471819 -0.45842957 0.21280189 -0.03402887 -0.49815837
0.07971826 0.17006718 -0.051517 -0.09564551 -0.6657894 -0.10279424 0.030522604 -0.04836804
-0.04188599 -0.049095567 -0.3484169 0.011327155 -0.0044597676 -0.009830647 0.2165433 -0.065491736
0.17692532 -0.09693076 -0.045143455 0.19724572 -0.4496157 -0.057675116 -0.15354536 -0.036598943
0.08514425 -0.63580453 -0.06993784 -0.16888143 -0.12140321 -0.27253214 -0.05375698 0.086756095
-0.5886234 -0.46198916 0.17352271 0.18945 -0.02813907 0.1334372 0.005111159 -0.018816682
-0.05692503 -0.5545142 -0.24000062 0.029290436 -0.09632403 -0.1578853 -0.042568423 -0.027230015
-0.08292814 -0.33919388 0.08112449 -0.025312344 0.092830636 -0.079584345 0.09107821 -0.070271745
-0.81264645 -0.048923407 -0.025768371 -0.120697185 -0.027253754 -0.18505332 -0.055364657 -0.68080276
0.25537947 0.26864868 -0.092649914 0.051639855 -0.00562632 -0.076739736 -0.1004705 -0.15399112
0.16966273 -0.015116883 -0.1428147 0.04370966 -0.064756155 -0.2656632 -0.076940455 -0.034586295

conv1.nn.2.bias f4 [128]
00000000: 99a4 51bd af29 4a3e 9e13 23be 4b00 56bd
00000010: 17f8 5e3c a7b2 27bd 1725 4cbd 2edd ee3d
00000020: e3e2 bfbd e3b5 66bd 9f75 383c 5982 2f3e
00000030: 9f1b 053c 3d51 46bd 9413 d1bd 4172 11be
00000040: 3b40 3ebd e62d 27bd 8937 64bd 4e1a 00be
00000050: 1604 b3bd 6ef0 293e 21d2 85bd a68e a4bd
00000060: cb18 123d 9d53 8dbd 597d 1dbd 6167 0e3d
00000070: e197 99bd c4ff a5bd 7dac 9e3d ecc1 2abe
00000080: fb4c aebd 9850 05bd 8dc9 853c f11d 16be
00000090: 21c0 28be 00d5 70be c6f0 09be 1c29 27bd
000000a0: cb02 593d 4006 bbbd 280b 14bd cb91 9abe
000000b0: 3868 aebd 31ca b3bd 3f32 56bd db52 dbbd
000000c0: bbdd 83bb 04c6 95bd b0c0 a6bd 0498 3e3e
000000d0: e2b9 2ebe fb8c 86bd 5342 a23e 0948 9cb7
000000e0: be55 cd3c 5165 323e 8dcd 11bd ac14 05bc
000000f0: a771 29bc aca7 0f3e 8fe0 1e3e d711 5b3e
00000100: 2d93 e7bd 2d9c a0bc 61a5 05be f699 f8bd
00000110: e43e 4fbb ea73 a2bd a6c3 97bc 6c2d fa3b
00000120: 72c1 803e a10c 68bd ce24 f5bc 0119 a23c
00000130: c2c9 5e3e 626e 56bd 3522 6abe 5f4d 6cbd
00000140: bd01 a3bc 7db9 a3bc 9de0 fcbc fec5 78bd
00000150: 99de d13d 043c 9fbc 5e8e 0abd 21c0 dfbd
00000160: 9db3 d13c 6902 10bc 2f5d efbd d991 bfbd
00000170: 1fd7 3bbe fd52 86bc dfd0 413c 5850 b5bc
00000180: e4f1 03be 58c2 713d 0d10 a93d 374d 033b
00000190: cc61 f0bc 7d68 25be 9bcd 38bd 4540 153d
000001a0: fc2a 3c3d 98e2 94bb 4fd9 e5bd 3dbd bd3c
000001b0: 53c6 653e 4108 bc3d 35d2 babd 9313 2bbe
000001c0: 7a0a 8a3e 83a5 53bc 8d2c 80bd 405f d93c
000001d0: 58bc 5cbd 4bca a43e 8e7f 9d3e 5504 b6bc
000001e0: 6750 28bd e502 87bd 1fbb 313d ec79 19be
000001f0: 76cc 1f3c 9308 bdbd 94a4 0ebe f3fc 17be
-0.051182363 0.19742464 -0.15925452 -0.052246373 0.013608954 -0.04094186 -0.04984006 0.116632804
-0.09369447 -0.056325804 0.011258512 0.17139567 0.008124261 -0.04841732 -0.10208812 -0.1420374
-0.046447974 -0.040815257 -0.055717025 -0.12510034 -0.08741014 0.16595623 -0.065342195 -0.080350205
0.035668176 -0.069007136 -0.03844962 0.03476656 -0.07499672 -0.08105424 0.07747743 -0.16675538
-0.085107766 -0.032547563 0.016331458 -0.14659859 -0.16479541 -0.23518753 -0.13470754 -0.04081069
0.05298118 -0.091320515 -0.036143452 -0.30189356 -0.08515972 -0.08778799 -0.052294012 -0.10709163
-0.004024235 -0.07313159 -0.08142221 0.18612677 -0.17063096 -0.06569859 0.31691226 -1.8630193e-05
0.0250653 0.17421462 -0.03559642 -0.008122604 -0.010342038 0.14028805 0.1551535 0.21393524
-0.113073684 -0.01960572 -0.13051368 -0.12138741 -0.003162318 -0.07932265 -0.01852591 0.0076348092
0.25147587 -0.05665267 -0.029924776 0.019787313 0.21756652 -0.052351363 -0.22864611 -0.057690974
-0.01989829 -0.019985909 -0.030868823 -0.060735695 0.10247535 -0.019437797 -0.03382718 -0.109253176
0.025598342 -0.008789637 -0.11687695 -0.0935399 -0.18343781 -0.016396994 0.011829584 -0.022133037
-0.12885243 0.05902323 0.082550146 0.0020035037 -0.029343508 -0.1615314 -0.045117956 0.036438245
0.04593943 -0.0045436136 -0.11223089 0.023161525 0.22438936 0.09181262 -0.09122125 -0.16706686
0.26961118 -0.012917879 -0.062584974 0.026534677 -0.053890556 0.32185587 0.3076138 -0.022218863
-0.041092303 -0.06592349 0.043391343 -0.14987916 0.009753337 -0.09230151 -0.13929969 -0.14842586

conv2.nn.0.weight f4 [128, 128]
00000000: d732 003d f815 f53d d366 913d 16b9 a83d
00000010: e117 c5be 6faf 923b b096 123b f165 f7bc
00000020: 406e 93bd 09a4 ea3d e696 093d f631 0bbe
00000030: 4503 8cbd 41c3 32bd d14d 613c 53a0 5a3e
00000040: 7982 783d 3f84 7dbe 631a 55bd 216d fbbc
00000050: f840 7c3d ed2a 2ebd 9c69 1e3e cae9 a6bd
00000060: 78c6 2cbd 917c 9ebd 8137 613e 12fc ddbc
00000070: 45b1 953d 8544 943d 2a7e fabd e919 a4bd
00000080: f44a f83c ea7b d8bc 7486 7abd 85d3 b2bd
00000090: 980b 1dbe da20 17be 0aaf 243b 729e ff3c
000000a0: 7026 353d 702f 4dbd 5a28 bdbb 56cb ca3b
000000b0: e01f 2cbe 0ddd a1bd b80b 293d 51e9 693d
000000c0: 705a c1bb a909 adbd 3bdb 893d cb8b a63c
000000d0: bbeb a03c 6740 703d 4ab1 e6bc 6f3c bebc
000000e0: f551 0ebd 564f 3cbc 87b1 de3c 45ae 02bd
000000f0: ff07 883d b5fc 8cbe 6c56 26bd 6ea4 32be
00000100: b058 76bd d0ec 3cbe fabd 6cbd f494 153b
00000110: bafd 55bd e088 7b3d c7b5 4a3e 0803 73bd
00000120: 802f 653d d9d4 9abc 1c78 02bd b4bc b33d
00000130: 63a5 ac3c 6cba 7e3e bd6d 6fbd 5c93 1d3b
00000140: 7663 78bd 446e 0f3d adf3 1cbd 812b 833d
00000150: 17a1 4abc a3f1 8f3d 5378 643d 4e16 99bb
00000160: 5297 783d b217 0e3b fe99 8cbd 6f06 9d3c
00000170: b5e2 1dbe 59fd 9f3c 7ab5 50bd 75df 4c3d
00000180: d7ba 8d3c 11d4 52be 9058 92be 1976 2bbd
00000190: ffca ad3d b075 9c39 bd64 053d 5cdb 763d
000001a0: c330 5fbe f3dd ba3d be1d 4bbd 7dab d43d
000001b0: bb36 c7bc de0a 433e f0f0 49bd 8377 123d
000001c0: 5674 643b 8a78 76bd 7e38 a63d 4cb0 8e3b
000001d0: 99ca a4bd 0bb5 6a3d 4d88 c7bd 4a38 703d
000001e0: c038 4dbc a993 a73d 517d 26bd 70b5 e8bd
000001f0: 18b3 9cbc 9c74 9c3d a320 1bbe 4ab7 383d
00000200: d96a 253b 9c52 2bbe 0cf2 9fbe dff7 d93d
00000210: 8282 633d 4316 9ebc 713e 3f3d 1811 b13b
00000220: f313 643d 6110 0cbc 9fda 27bc f809 9bbc
00000230: 9b7a 213d 184c 0f3d 0dc4 26bd 4492 64be
00000240: 87ec 123e 4cd2 5bbd 15fa c0be c8b6 a73d
00000250: b968 da3c 5433 e3be f32a 4bbd e8cc 9dbd
00000260: d4c2 57bd bff4 443b fb04 e0bd f5c6 65bd
00000270: 1b14 96bd 2a8d 6a3c d730 113e 2eeb 15bf
00000280: 38af 9d3d f800 9abd 7e50 173d 090e 4abe
00000290: 5b1f 04bf bcb7 8ebe 7050 a8be 1932 63bd
000002a0: 8473 af3d 2acd 733d ec9d 3cbd 4a4c 5d3c
000002b0: c9ee 1dbd e015 0b3b 2abc afbc 172c 5ebc
000002c0: 07d6 debc 445f 0fbe 4261 94bd 2021 723e
000002d0: 8215 37bd 869b 993d 87ed ffbd 6597 12bc
000002e0: 7dab 07bd 4afd 593e 1f2f c4be 6f31 253c
000002f0: c749 523d 1ef2 0fbe fb4f 873e 79a1 68be
00000300: ff73 afbc dea4 bc3c 1a4f 81bd cda0 38be
00000310: 8002 173d 5c84 0bbc 13be 583e 69ec 863d
00000320: 1c8e 5abd ae2e 9fbd 88f4 243d 94fa febd
00000330: c15f 02bf 39f6 003e 32dd 9d3e f2d7 0bbe
00000340: 5f7c 3d3d eae7 56bd cd07 f5be 989c 02be
00000350: 4fb4 433e 3969 b73d 5642 95bc 743e a2bd
00000360: 99ab 2f3d 0215 873c 37e2 8c3d 22f5 f6bd
00000370: d62c 92bd 4851 b33d 4bbc 9a3b a20a 5bbd
00000380: f84f 703c b075 1ebd 41ff d4be 838f 9b3c
00000390: db8b 823b 46c9 edbe 4a0a 803c 023e 38bd
000003a0: f701 353e bcd1 c2bd 2f4a 683c e9ec fa3d
000003b0: b5c3 24bf 64a0 10bf 2b9b 2a3b 18eb ca3d
000003c0: f699 033d 4b21 1fbd 06f1 6c3d d349 9c3d
000003d0: 9c5a 9e3d 06c2 bfbd 8fde 9e3e 306b 0b3b
000003e0: f1e9 0a3e b609 7ebd c9fd ac3c 4365 38be
000003f0: 5f91 6e3d 67ec 94bd 34e7 2dbc fae1 8b3c
0.031298485 0.11967081 0.0709969 0.08238427 -0.3849478 0.0044764797 0.0022367649 -0.030199977
-0.07198763 0.114570685 0.033591174 -0.13593277 -0.06836561 -0.04364324 0.013751463 0.21350221
0.060671303 -0.24757479 -0.052027117 -0.030691685 0.061585397 -0.042521406 0.15469974 -0.081500605
-0.042181462 -0.07738603 0.2199383 -0.027097736 0.07309202 0.072396316 -0.12231095 -0.080127545
0.030309178 -0.026426274 -0.06116338 -0.087317504 -0.15336454 -0.14758626 0.0025128745 0.031203482
0.04422611 -0.050094068 -0.0057726325 0.0061887903 -0.16809034 -0.0790349 0.04127094 0.057107273
-0.0059006736 -0.08449108 0.06731268 0.02033033 0.019643655 0.05865517 -0.02816071 -0.023222176
-0.03474613 -0.011493525 0.027184261 -0.031904478 0.0664215 -0.2753655 -0.040609762 -0.17445537
-0.060143173 -0.18449712 -0.057798363 0.0022824379 -0.052243926 0.06140983 0.19795905 -0.059329063
0.055953503 -0.018900322 -0.031852826 0.08776227 0.021074956 0.24875802 -0.058454264 0.0024044132
-0.06064173 0.035017267 -0.038318325 0.06404782 -0.012367508 0.070285104 0.055778813 -0.0046718484
0.060691185 0.0021681604 -0.06865309 0.019168107 -0.15418513 0.019529985 -0.05095432 0.050017793
0.017301006 -0.2058871 -0.28583193 -0.041860674 0.08485984 0.00029842323 0.032566775 0.06026779
-0.21795945 0.09124365 -0.04958891 0.10384271 -0.02431809 0.19047114 -0.04930204 0.035758507
0.003485938 -0.06017355 0.08116244 0.0043545123 -0.08046455 0.057301562 -0.09742794 0.05864743
-0.012525737 0.08182461 -0.040646855 -0.113627315 -0.019128367 0.07639429 -0.15149169 0.045096673
0.0025240688 -0.16730732 -0.31239355 0.10642981 0.055544384 -0.019297725 0.04669041 0.005403649
0.055683088 -0.008548827 -0.010244994 -0.018925652 0.039423566 0.034984678 -0.040714312 -0.22321421
0.1434804 -0.05366735 -0.37690797 0.0818916 0.026661264 -0.44375098 -0.049601506 -0.077050984
-0.052676037 0.0030053107 -0.1093845 -0.056097943 -0.073280536 0.014315883 0.14178787 -0.5856198
0.07699436 -0.07519716 0.036941998 -0.19731916 -0.51610345 -0.27874553 -0.3287387 -0.0554677
0.08566955 0.05952183 -0.046049044 0.013506958 -0.0385578 0.0021222755 -0.021452028 -0.0135603165
-0.027201666 -0.14001185 -0.07245113 0.23645449 -0.044698246 0.07500367 -0.124964766 -0.008947228
-0.03312253 0.21288028 -0.383172 0.010082587 0.05133989 -0.14057204 0.26428208 -0.22717847
-0.021417616 0.023027834 -0.063139156 -0.1803009 0.03686762 -0.008515444 0.21166258 0.065880604
-0.053358182 -0.07772575 0.040272266 -0.12450138 -0.5092736 0.12593926 0.3083282 -0.13656595
0.046261188 -0.052467264 -0.47857514 -0.12755048 0.19111751 0.089556165 -0.018220108 -0.07922068
0.042888258 0.01648951 0.068790846 -0.12058474 -0.07137458 0.087557375 0.0047221533 -0.053476937
0.014667504 -0.038686454 -0.41600993 0.01898933 0.003983957 -0.46442622 0.015629906 -0.04498101
0.17676531 -0.0951266 0.014177843 0.12252218 -0.64361125 -0.56494737 0.0026032429 0.09908122
0.03212925 -0.03885011 0.057847045 0.07631268 0.07732126 -0.09363179 0.31029174 0.0021273606
0.13565804 -0.06202098 0.021117108 -0.18007378 0.058244105 -0.07271653 -0.010614205 0.017075527

conv2.nn.0.bias f4 [128]
00000000: effc c1bd 0def ab3e 80e9 d33d 6e63 c2bd
00000010: d1fe e8bd 82a5 0cbe 77b4 54bd 208c 273e
00000020: 89ba aabd 53d4 5dbe c7fe 333e 22ae c6bc
00000030: 4b9a dc3a 420d 97bd c177 70be e1c8 27be
00000040: a0a4 b4bd f3b5 cebd 7a78 e5bb 41ed 043e
00000050: 20f4 8fbd 7327 e0bd bca0 dbbd 7696 d3bd
00000060: 3156 08be d9a4 80be 3dfa f23d 4d1b 24be
00000070: 8eab 59be 91a1 d5bd 4e7a 153e 5e02 2b3e
00000080: c800 1e3e d0fd 8fbc 4dd5 babe 6c99 01be
00000090: 3850 0cbe 0f8f d3bd f6b1 45be 3fab cabd
000000a0: 7d1c 46bd ad45 08be c2dd 5ebd 46d6 b7bd
000000b0: 9eb6 00be 4af1 bcbb ed4f 2e3e 2720 bfbd
000000c0: ad77 f3bd 58cd fdbd 6813 093d 6958 aabe
000000d0: c066 493b f367 c7bd 8676 99bd 0f80 c0bc
000000e0: 2042 e0bd 508d fbbd 8035 93bd e0b1 31be
000000f0: a271 413d 6350 babd f933 35be e2a0 e9bd
00000100: 924b c1bd 9cbc 6f3e cc62 24be 5913 00be
00000110: ef9f 15be ad88 05be 8859 14be 5976 40bd
00000120: cdc4 bc3c 252f e5bd 7174 a3bd 097e 653d
00000130: 8455 dfbd bb9e 2fbe 0647 7e3d cf40 3ebd
00000140: fdf4 86bd 1f0a bdbd 8f31 a1bd 3ad0 76be
00000150: 35d7 0ebe ef72 40be f051 013c 6e51 72bd
00000160: d7a4 c4bd b6f8 7d3d 88a5 d8bd 6784 a6be
00000170: b91e f13b 5d24 1ebd 3b99 1e3e 68c6 f9bd
00000180: f6f1 853e f26e bfbd 834a f0bc 4bc1 debd
00000190: 4a2e 4ebe 1875 08bd 9009 32bd b5df c1bd
000001a0: 4d66 41bd cbc9 eb3d 8154 63be 71ba e73d
000001b0: 4d42 5cbc f11b 953c 291f 37bd e9a3 bebe
000001c0: 5910 5bbd b996 a33e 794c 8dbb eee4 25bd
000001d0: 205a a83d 6c87 02be b344 c2bd f7c0 63bd
000001e0: b2e9 36bd 23f5 a4bd db59 cebd fa0c 26be
000001f0: 8993 4cbd 5432 18be 40c4 f4bd 72fa d9bd
-0.094720714 0.3358082 0.10347271 -0.09491621 -0.11376727 -0.13735011 -0.051929917 0.16362047
-0.0833636 -0.21663027 0.17577659 -0.024252955 0.0016830651 -0.073755756 -0.23483182 -0.16385223
-0.08820462 -0.10093298 -0.0070028873 0.1298113 -0.07028985 -0.10945024 -0.10724017 -0.103314325
-0.1331413 -0.2512577 0.118641354 -0.1602604 -0.21256849 -0.10431207 0.14597437 0.16700122
0.15429986 -0.017577082 -0.3649086 -0.12656182 -0.13702476 -0.10330021 -0.19306168 -0.09895944
-0.048367012 -0.13307829 -0.054410703 -0.08976416 -0.12569663 -0.0057660686 0.17022677 -0.093323044
-0.11888061 -0.12392682 0.033465773 -0.33270577 0.003073141 -0.097366236 -0.0749331 -0.023498563
-0.10950112 -0.122828126 -0.07187939 -0.1735301 0.04722751 -0.09097364 -0.17695607 -0.11407639
-0.09438242 0.23411793 -0.16053313 -0.1250738 -0.14611791 -0.13040419 -0.14487278 -0.046987865
0.02304306 -0.11190633 -0.07981194 0.0560284 -0.10904983 -0.17150395 0.062079452 -0.046448525
-0.065896966 -0.09230446 -0.07870781 -0.2410287 -0.13949282 -0.18793844 0.007893071 -0.05915969
-0.09601753 0.062004767 -0.105784476 -0.3252289 0.0073583988 -0.038608897 0.1548814 -0.12196046
0.26161164 -0.09347333 -0.029332405 -0.108767115 -0.20134845 -0.033314794 -0.04346615 -0.09466497
-0.047216702 0.11513098 -0.22200204 0.11314858 -0.013443542 0.0182018 -0.04470745 -0.3723443
-0.053482387 0.3195093 -0.0043120948 -0.040501527 0.08220315 -0.12746972 -0.094857596 -0.055603947
-0.044656463 -0.080545686 -0.10075732 -0.16215888 -0.049945388 -0.14862949 -0.11951494 -0.10643472

conv2.nn.2.weight f4 [128, 128]
00000000: 1e7e 0c3d b31f 2cbd e9a2 aabd 86c9 743c
00000010: 97a7 b43c 9001 dc3c 833f b43d 811f 45bd
00000020: 1e36 3bbe ef50 43be 52e5 00bd 13c3 25be
00000030: 585e 6a3d e949 8cbd f87f 45be 2be4 9abd
00000040: 9618 0abd f4dc 9d3d f516 36bb 4a12 043d
00000050: c837 2f3d dc4d 323d 6d42 cfbd 47a4 a5bd
00000060: 7968 03ba c34d 95bd 074a 81bd 7c60 593d
00000070: ed51 693c f581 8bbd 6117 f8bd 4212 68bd
00000080: 95a1 3ebe 59f3 293d ff5d 83bd a126 473d
00000090: 7b8c c5bd e9ce 0fbd 529b 88bd 33ec 853c
000000a0: cc57 e4bc 06bf e7bd c1a8 74be 71bc 8ebd
000000b0: 0987 24bc 2534 f4bd b193 473d 6257 74be
000000c0: db7d 6bbd e7da a03d e7fc 1bbe 31e2 c1bd
000000d0: 57b1 94bd a9f2 90bd 5124 ddbd 15e2 c23d
000000e0: d6f6 0c3d 64ce 1c3d 85e1 803d 8c2d acbd
000000f0: 6d2f 73bd 8aa4 58bc e80e 92bc a2f7 0ebe
00000100: 48d8 533c ba52 79bd e024 433e e8e6 a3bd
00000110: df19 55bd eec2 8b3c 6dd1 1dbd 7432 3b3d
00000120: 6af4 e7bd 579c 6a3a 4591 4ebd 33f8 0a3c
00000130: 7087 4abc 4400 773d ace4 b1bc cde3 d6bc
00000140: aa1d 783d c998 10be 6d31 29bd 8410 1fbe
00000150: 5151 dabd 84b6 77bc 1534 7f3d 00c9 d6bc
00000160: 6d9f 70be f8d7 26be a686 1dbd cf7a 5cbc
00000170: 7799 693d 6b68 b1bd 7dce 56be 1811 bcbd
00000180: 949f 10bd 296a 64bd 4963 99bd 3340 67bd
00000190: cbf1 acbc e0c5 fd3c 5c3d d7bc 053e 753d
000001a0: 05ea 183d fe69 b3bd 099f e8bd 7af1 1bbb
000001b0: 47c2 b73b 2d1a dabb d1a9 1c3d 7b31 90bd
000001c0: 0050 89bd 9e67 183d 01bc b33c 3ce2 773d
000001d0: 61a0 f3bc d251 c7bc 6bde cabd 5a76 9cbd
000001e0: 7527 80bd 13cc adbd 5311 a03c f1af 65bb
000001f0: 59db 4abd 87c3 8fbd 966e 963d 58c0 89bc
00000200: c1c3 d43d 727e 4a3e 75db b93d 5282 20be
00000210: c710 8dbe 6390 64bc 71d1 87bc 4ab6 b3bc
00000220: 6139 c7be ab92 dfbe bce8 a2be 9e89 2ebe
00000230: 3987 efbb 6128 643d cf8c 00bf 0346 dc3b
00000240: 72a0 d83c 7725 5e3a 1754 99be 7fda 953e
00000250: df3b 4d3d 6ee8 443e bb65 f1bd cab8 0abe
00000260: 040b a3bd ab13 063e 726e e43d 5e10 fabc
00000270: c700 debd ae1a 2abd e81b 473d d0f9 b2bd
00000280: 41f8 503e dd03 05bd 89d3 e03d 68c9 cabd
00000290: 8d53 5ebd 1601 1dbe 692f 90be b58e e23d
000002a0: 563a a6bd aaa7 c3be 8123 16bd 2faa ca3b
000002b0: d311 31bd 362c 34bc 0fbd e2bd c687 58be
000002c0: 5406 813d 1809 f6bb 26ac 323e fc97 5d3e
000002d0: f059 ba3b 1f26 39be 9eea 04bd 808f 0b3d
000002e0: 31ee 1cbe 89b7 ae3c 9284 863d 1193 25bf
000002f0: 32db 99bd 6ea0 ea3d a16f 183d d1d3 3abd
00000300: 89f1 4cbd 4c11 d3be 61b1 983d dbd4 3fbd
00000310: 539a 3ebc ee28 d8bd 6980 fa3b 6889 0d3e
00000320: a60a 493d b0d8 edbd a96f 243d 8cee afbe
00000330: 201b a5bc d544 6fbd 9a57 f13d 4024 9b3c
00000340: ff2e d8bc 1f25 bf3d cc96 12bd 33c6 153e
00000350: efc2 473d 528e c6be 91a4 35be d716 88be
00000360: bf91 d2be db70 cbbd 9861 413d 7230 a3be
00000370: 7bfe 8fbd f635 a43c fd4f 5dbe 226a d83c
00000380: e2e7 643e 7266 a1bd d0f4 2b3e c1d7 89bd
00000390: 1345 04ba 91e2 e2bd d281 adbd 96ba 8d3d
000003a0: 8ec0 29be 150c 1cbc ae48 87bc a7e3 453e
000003b0: 2e37 d63d 0567 91bd 711c 04bd b70c 20bf
000003c0: fb63 4c3d 34f7 343e a7b4 613c 6bbb 35be
000003d0: c4fa 853e 4a3a a9bd 226b 3ebd c561 20bd
000003e0: 0292 e63c 7ff2 89be 857f c0bd 4210 08bd
000003f0: 703f c3bd d725 12bd 1251 66bc 6fcd 0bbd
0.034299962 -0.04202242 -0.08331854 0.014940625 0.02205257 0.026856214 0.088011764 -0.048125748
-0.18282363 -0.19073842 -0.031468697 -0.16187696 0.05721888 -0.06850035 -0.19287097 -0.07563051
-0.033714853 0.07708159 -0.002778468 0.032244004 0.042777807 0.043531284 -0.101200916 -0.08087974
-0.0005012821 -0.072902225 -0.06312948 0.05307053 0.014240724 -0.06811897 -0.12113834 -0.056658037
-0.18616326 0.04149184 -0.06414413 0.048620824 -0.09645935 -0.035109434 -0.0667025 0.01634798
-0.027873896 -0.11315732 -0.238925 -0.06969536 -0.0100419605 -0.11924008 0.048724834 -0.23861459
-0.057493072 0.07854252 -0.15233193 -0.09466971 -0.072603874 -0.07077534 -0.107979424 0.09515778
0.03441509 0.038282767 0.062930144 -0.08407125 -0.0593714 -0.013222823 -0.017829373 -0.13961652
0.012929983 -0.06086991 0.19057035 -0.08003026 -0.052026626 0.017060723 -0.038529802 0.045702413
-0.11325915 0.0008949688 -0.05043151 0.008482027 -0.012361392 0.060302988 -0.021715485 -0.02623167
0.060575165 -0.14120783 -0.0413069 -0.15533644 -0.10660041 -0.015119199 0.06230553 -0.026218891
-0.23498316 -0.16293323 -0.03845849 -0.013457014 0.05703112 -0.08662494 -0.20977207 -0.09182948
-0.035308436 -0.055765305 -0.0748964 -0.05645771 -0.02111139 0.030978143 -0.026274376 0.0598736
0.037332553 -0.08760451 -0.113584585 -0.0023795054 0.0056078765 -0.0066559524 0.038247887 -0.07040688
-0.06704712 0.037208192 0.021940233 0.06051849 -0.02973956 -0.024331007 -0.09905704 -0.07639761
-0.06257526 -0.0848619 0.01953951 -0.0035047496 -0.049525592 -0.07019716 0.07345311 -0.01681535
0.103888996 0.19774798 0.09075061 -0.15674713 -0.27551863 -0.01395044 -0.016579362 -0.021937508
-0.38910964 -0.43666586 -0.31818187 -0.17044684 -0.007309821 0.05570257 -0.50214857 0.0067222132
0.026443694 0.00084742106 -0.29946968 0.29268262 0.050105926 0.1922929 -0.11786982 -0.13547054
-0.079610854 0.1309344 0.11153878 -0.030525383 -0.10839992 -0.04152935 0.048610598 -0.08739054
0.20407201 -0.032474387 0.10977847 -0.099016964 -0.0542789 -0.15332446 -0.2816117 0.110623755
-0.081165954 -0.38213855 -0.036654953 0.0061848382 -0.04322989 -0.010996869 -0.11071216 -0.21145543
0.06300035 -0.0075084083 0.17448482 0.21640009 0.005686991 -0.18080948 -0.03245031 0.0340724
-0.15325238 0.02132775 0.065682545 -0.6467753 -0.07512511 0.11456381 0.037215833 -0.04561216
-0.050035033 -0.41224134 0.07455707 -0.046833854 -0.011633473 -0.10554682 0.007644702 0.13821948
0.04908242 -0.116135955 0.04014555 -0.34361684 -0.020154536 -0.058415253 0.11784287 0.018938184
-0.026389597 0.09333252 -0.035788342 0.14626388 0.048769888 -0.38780457 -0.17738558 -0.26579925
-0.4112682 -0.09933635 0.047212213 -0.31872898 -0.0703096 0.020045262 -0.21612544 0.026417796
0.22354081 -0.07880868 0.16792607 -0.06730605 -0.0005045693 -0.1107837 -0.08472027 0.06920354
-0.1657736 -0.009524365 -0.016514149 0.19325124 0.104597434 -0.070997275 -0.032253686 -0.625194
0.049900036 0.17672426 0.013775981 -0.17747276 0.2616788 -0.08263071 -0.04648889 -0.03915574
0.028145794 -0.26942822 -0.093993224 -0.03321863 -0.09533584 -0.035680618 -0.014057415 -0.034131464

conv2.nn.2.bias f4 [128]
00000000: 1f54 a2bd 55a6 723e 3f64 2a3e a180 9abe
00000010: d6ce 64bd 2de1 06bc 7b43 b6bd b757 54be
00000020: 18f9 4d3e c458 823d 827f 323e d05e 0ebb
00000030: 0a9b 08be 03b7 80be 1bbf 9dbe 413f cbbc
00000040: 44ce 03bf ef28 8f3c 4f62 0fbe 241b d3bb
00000050: 7de0 09be 51c9 f43d 0203 57be b3e5 74bc
00000060: d662 c23d 7b51 ecbd 2258 20bc 7294 b8bd
00000070: 071a 10be ad2c 3fbe 4707 61be 169b ccbc
00000080: d149 01be ca99 ddbb 03aa 47be 48c2 a93c
00000090: 8151 63bb 03d6 6fbe 95b9 c23c 7f78 1fbe
000000a0: 6808 53be 00fb 38be 9761 3c3e 25b1 953d
000000b0: 74fe 2c3e 778f 33bd 0dd6 62be 9363 79be
000000c0: ba9c 023e 0c71 8d3d cd07 16be 5cce 143e
000000d0: 490f 0ebe b26a 85bc c548 88bd c945 943c
000000e0: 008a b83c 1591 65be 260f d93d a2f2 243d
000000f0: 10ab fb3d 8eee e43d d99a 133d 9843 afbd
00000100: 6dbd 26be 5264 84be d8d6 e33d 8c6a 42be
00000110: c6a7 a4be eba6 1fbd be58 003e 923d 3f3e
00000120: c507 6cbe 82f8 db3d 28cb 713c d4e6 743e
00000130: 0f27 903e 045c 99bc 4d89 74be 2bdf 81bd
00000140: e119 6c3b 02e5 173c 2abd 8abb 651a ec3d
00000150: cf5f 21be 8b2b 113e 3ce8 093e 9fd0 013d
00000160: c284 48be c462 55be cc3a 143e caa0 4b3e
00000170: 051c efbe dbe8 74be f1bb 6fbe dacc 3d3e
00000180: e036 73be 21db 04bc 505a e83d c050 9fbc
00000190: 5988 52be 30c4 85be f6b2 e6ba b8ef 0a3c
000001a0: 02f4 173e e49f f43c 9667 cdbb 4525 2d3d
000001b0: 379b 243d 5e90 65bc 3e3c 163e 09a0 3fbc
000001c0: 4570 86bd 8629 0f3e f373 1ebe ef9d 253d
000001d0: a71e 1abd b7bf 033e b386 7cbd 0c11 35be
000001e0: 324b 3bbe a326 bfbc cbac 72be 447e d5bc
000001f0: bad8 2ebe 8809 2bbd ae86 56be 55f6 8a3d
-0.07926201 0.23696263 0.16639803 -0.3017626 -0.055861317 -0.008232397 -0.0889959 -0.20736586
0.20114553 0.06364587 0.17431453 -0.0021723993 -0.13340393 -0.25139627 -0.30809864 -0.024810435
-0.5148661 0.017475573 -0.14002346 -0.0064424444 -0.13464542 0.119524606 -0.20997241 -0.014947343
0.09491508 -0.11538979 -0.0097866375 -0.09012689 -0.14072429 -0.18669386 -0.21975432 -0.024976294
-0.12625815 -0.006762718 -0.19498448 0.020722523 -0.0034686031 -0.23421483 0.023770133 -0.1557331
-0.20608675 -0.18064499 0.18396603 0.07309178 0.16893941 -0.04383799 -0.22151966 -0.24354391
0.12755099 0.069063276 -0.14651413 0.14531845 -0.13873018 -0.016286228 -0.06654505 0.018099682
0.022526741 -0.22418626 0.105985925 0.040270455 0.12288487 0.11178313 0.036036346 -0.08557814
-0.16283198 -0.25857788 0.111249626 -0.18985957 -0.3215925 -0.038977545 0.12533852 0.18675831
-0.23049839 0.107407585 0.014757909 0.23916179 0.281548 -0.018720634 -0.23880501 -0.06341394
0.0036026167 0.009270908 -0.004233976 0.11528472 -0.15759204 0.14176767 0.13467497 0.031693097
-0.19581893 -0.20838457 0.14475554 0.19885555 -0.46701065 -0.23916952 -0.23411538 0.18535176
-0.23751402 -0.008108885 0.11345351 -0.019447684 -0.20559825 -0.26126242 -0.0017600942 0.008480005
0.14839175 0.029861398 -0.006268452 0.04227187 0.040187087 -0.014011471 0.14671418 -0.01169587
-0.065643825 0.13980684 -0.15473919 0.04043382 -0.03762689 0.12866102 -0.061651897 -0.17682284
-0.18290403 -0.023333853 -0.23698728 -0.026061185 -0.17074862 -0.041757137 -0.20949814 0.06785265

out.weight f4 [128, 128]
00000000: d665 3f3e 2c1a 4b3e 53af 16be 30b1 173d
00000010: 5d2d 733d 914b 763d 42f8 49bb 1f0e e33d
00000020: 3bdf 31bd 066d 9abc 72a2 14bd 93f3 35be
00000030: ff3b 263e 6fd8 223d abe7 01be b99f 26bd
00000040: 2ea1 a83d 5115 693d 9ba9 253e 833a 803d
00000050: bc61 023e fb15 0d3d a616 1ebe 473b c1bd
00000060: d500 67bd e613 af3d 1840 4d3d 39f8 553d
00000070: 12d8 bf3c 6256 273e 6a6a e73d 85b9 063e
00000080: 5d03 5a3e 5947 c7bd 6959 1d3e 02db 0d3d
00000090: 73a5 ac3e 167a babb 21d6 67bd 20fa b63d
000000a0: ce4f 413e 6bf8 383d f49c 0ebe 1da6 aebd
000000b0: 977e 993b 6667 4bbd c250 dabb 100e 203d
000000c0: 8498 803d 2155 4d3d 4871 783c 67e2 b83a
000000d0: 4bd3 a03d 3078 16bd ea60 be3d a032 c5bd
000000e0: 3439 dbbd d798 1fbe 3299 70bd 254e 99bd
000000f0: bd88 743c fe68 f73d cd35 b4ba 237f 173d
00000100: c811 e93d 057a 353d 6c0a 81bd 21b3 813d
00000110: b749 223e b63a a23d 6c85 60be b4cf a23d
00000120: 7fb9 99bc ee5d d13d cbe4 0bbc f46d 80bd
00000130: 107e a33d 214a 593d d2d3 ec3c 2268 173d
00000140: acbc 05be bf6c 343e bfe7 633c af32 5e3d
00000150: ef3e 593d 17ea d8bc 5e18 25bd 4eda f43c
00000160: 76fa 22be 6f02 a3bd 15d6 0d3e 2e05 5a3c
00000170: e12f d4bd 41f3 74ba 2674 bebd 10a0 273d
00000180: 935c 303d 0a95 863d 0a9a 65bd 0ba6 b2bc
00000190: 2344 013d bfa5 c13d 4278 853c b310 8dba
000001a0: 88ea e7bd 4b1e 73bc c9d3 09bd d2c8 b2bc
000001b0: 9798 b63d 4cd4 463e 97d8 21be 55d3 d5bd
000001c0: 2fd9 873d 4393 0a3d a845 c83c 8757 e2bc
000001d0: b103 2e3d cfaf a2bd 0e8b f33d b543 4dbe
000001e0: c0e6 26bd 485e 3b3e 6303 d1bd db07 e0bc
000001f0: 7349 5fbd 2bbd f7bc 8dfd 53bd d412 553d
00000200: 483f 693c 3f02 74bd 6a43 503e 368b de3d
00000210: f9e4 643c cc35 aa3d 6368 203d 44ee 8c3d
00000220: 2a79 103c 541f 22bd 203f 203d bac6 be3c
00000230: 4c9c f5bc 7cce 893d f076 edbc 2ca2 1dbc
00000240: 0e5e b53d c26d 23bd b3bc acbb cbf4 7ebb
00000250: a2dd 983d 3bfe 4abd 8fc6 debd 8691 cdbb
00000260: 02d5 36bd 87af 80bd d3ea 143e a890 debc
00000270: 66b2 973d 0d7a 27be caff f63d 5988 25be
00000280: 7bde 27bd bf24 833d 1ba1 483e 0873 0a3d
00000290: 30a2 2c3e 357d 4dbd f85a e03b 4303 b43d
000002a0: cd02 f8bc 70c3 c5bb 81f3 e3bd 710e 393e
000002b0: 4ee0 bfbd b72b 0ebe bbe1 e9bc 8d82 b33d
000002c0: 663f 1cbc ee8f b2bc ba28 3ebb 60e3 5d3d
000002d0: 4a39 c83d e419 f8bd 0149 c33d f3a2 363e
000002e0: e140 013e c0f4 be3d 8001 66bc b349 e0bc
000002f0: 74fe 5c3d 045c 103e 04be 9bbc 33e8 b33d
00000300: 310e 8f3d ac42 1e3e c1f7 e23b eaa4 a43d
00000310: 656c c43d 34f0 093b 1bc1 f4bc f5f0 4d3d
00000320: ec20 a43c a0ef ebbd 8bbf b13d 01a9 bb3d
00000330: f190 11be fabe a1bd 9196 84bc ac0a b1bc
00000340: ebe0 1f3c 6bd2 bbbc e5cc b83d 5e4a 90bc
00000350: c6de a33d 28a1 c7bd ca9e 2abe 163d 0b3e
00000360: 3e7d eebd 8dd3 dc3c 48a3 eebd 5361 88bc
00000370: 79e8 053c 484b 263d 5850 14bd 3fba e13b
00000380: 0342 913c 316a a0bd 0fb2 7e3d 3939 013e
00000390: 05a8 01bd 5b55 73bc 2b6a 0fbe b352 31be
000003a0: daa6 46bd bb9f 4ebd a4de 74bd 567a acbd
000003b0: 101b c03d cf11 58be 8927 863d f995 89bd
000003c0: c4b7 cebd 2af1 773e e193 40bd e257 90bc
000003d0: 3ecd 4abd 28e3 5abd b420 d8bd 474f 713d
000003e0: 3bf1 5bbd ffac 8fbb 922e 283e 721a 153e
000003f0: 52e2 823c 7074 bc3d 720f 503e d23e aebd
0.18691191 0.19834203 -0.14715318 0.037034214 0.059369434 0.06013066 -0.003081814 0.11086678
-0.04342578 -0.018850815 -0.036287732 -0.17768697 0.16233824 0.03975719 -0.1268603 -0.040679667
0.082338676 0.056905095 0.1617798 0.0626116 0.12732595 0.03444479 -0.15438327 -0.094351344
-0.056397278 0.08548717 0.050109953 0.052238677 0.02341846 0.16341546 0.11299594 0.13156708
0.21290345 -0.09730405 0.15366139 0.03463269 0.33719978 -0.0056908233 -0.056600694 0.08934426
0.188781 0.045158785 -0.1392706 -0.08527777 0.00468428 -0.049659155 -0.006662459 0.03907591
0.0627909 0.050130013 0.015163727 0.0014105559 0.07852801 -0.036735713 0.09295829 -0.096287966
-0.1070427 -0.15585648 -0.05873985 -0.07485608 0.014925179 0.120805725 -0.0013748944 0.03698648
0.11380345 0.04430582 -0.06300816 0.06332994 0.15848432 0.079213545 -0.21925896 0.079497725
-0.01876521 0.10222994 -0.008538435 -0.06270972 0.07983029 0.05304921 0.028909598 0.036964543
-0.13060254 0.17619608 0.013910233 0.054247554 0.053038534 -0.02647881 -0.04030644 0.029889252
-0.15915856 -0.079594485 0.13851197 0.013306899 -0.10360695 -0.0009344109 -0.09299497 0.040924132
0.043057036 0.06571396 -0.056055106 -0.021807691 0.03155912 0.09455442 0.016292695 -0.0010762423
-0.1132403 -0.014838765 -0.03364924 -0.021824274 0.08915823 0.19416922 -0.15805279 -0.10440699
0.06633221 0.033831846 0.024447277 -0.027629627 0.04248399 -0.07943689 0.11891757 -0.2004536
-0.040747404 0.18297684 -0.10205724 -0.027347496 -0.054513406 -0.03024157 -0.051755477 0.05201991
0.014236279 -0.059572455 0.20338216 0.10866396 0.013970607 0.08311042 0.03916205 0.06881383
0.00881795 -0.039580658 0.0391227 0.02328812 -0.029981755 0.06728837 -0.028987378 -0.009621184
0.0885583 -0.039899595 -0.005271518 -0.0038903232 0.07464148 -0.04955886 -0.10877716 -0.0062734513
-0.044636734 -0.06283479 0.14542703 -0.027168587 0.07407074 -0.16355152 0.12060507 -0.16165294
-0.04098366 0.06403493 0.19592707 0.03380111 0.16858745 -0.050168235 0.006846782 0.087896846
-0.030274773 -0.006035261 -0.11130429 0.18071915 -0.093689546 -0.13883863 -0.02855002 0.08765135
-0.0095366 -0.021797147 -0.0029015974 0.05417192 0.09776552 -0.12114313 0.09535409 0.17835598
0.12622406 0.09324026 -0.014038444 -0.027378893 0.053953603 0.14097601 -0.019011505 0.08784523
0.06985129 0.15455121 0.006926507 0.08039267 0.09590987 0.0021047713 -0.029877236 0.050278623
0.02003523 -0.11520314 0.08679112 0.09163094 -0.14215447 -0.07897754 -0.016185077 -0.021611534
0.0097582145 -0.022927484 0.090234555 -0.017613586 0.08001475 -0.09747535 -0.16662136 0.13597521
-0.11644982 0.026956344 -0.11652237 -0.01664797 0.008173102 0.040599138 -0.036209434 0.0068886573
0.017731672 -0.078327544 0.06218153 0.12619485 -0.031654377 -0.014851893 -0.14005344 -0.17316703
-0.048498966 -0.0504453 -0.05978264 -0.08421771 0.09380162 -0.21100543 0.065505095 -0.06718058
-0.10093644 0.2421309 -0.04701603 -0.01762003 -0.04951214 -0.05343929 -0.105531126 0.058913495
-0.053696852 -0.0043846364 0.16424015 0.1456087 0.015977059 0.09201896 0.20318392 -0.08508076

out.bias f4 [128]
00000000: d55a cbbb 34e1 3ebb 3d8d f9ba 7392 363c
00000010: 7296 a0bb 0b9b ee3a 0d42 9ebb 9636 34bc
00000020: 0377 2a3c 5def e13a 6697 ceba 6bfa 1abb
00000030: f6fa b03c fbb7 803b b311 4bbb 0d21 ad3d
00000040: d61b 2ebe 2116 183b 5d94 e53b c9cb 9bbb
00000050: e438 053b f3b3 df3d 1e55 6eba fb5d 3abc
00000060: 40dc ddbd accf 013b 676e d1bd bf49 4cbb
00000070: ba50 993b b91f 1f3c 38b5 babb 07c9 32ba
00000080: 8c10 c6bb fd40 b8bb dbe1 9c3b 0c3c 473a
00000090: 833e 773d bb3a c23b d949 9bbb 9214 d0bb
000000a0: 168f 57bc 3133 35bc 7048 723d 8318 81bb
000000b0: 7163 c13b c2c5 d13d dd50 2c3c 5025 303d
000000c0: 58b5 263b ec9c fcbb 67c8 913b 7f9e 593c
000000d0: 3078 c23b bc42 b33b 0f4e 87bc 673f 80bc
000000e0: c293 60b9 2341 a93b a359 a43b e4d1 4fbb
000000f0: 48d8 883b 0911 c0ba fb0a 11bc 864b 1f3b
00000100: 4cbc dabb df02 3e3c 1b97 483b b614 7bbb
00000110: 589a 4dbc b2c7 733d 0747 e63c 09e2 f9bc
00000120: e3f9 32bc 3c63 213c 8b24 82bd eb33 1f3c
00000130: 1361 9dbb 0b98 693a 98a5 193c 7886 633c
00000140: 383a ec3b 9a64 ffbb d073 afbb 6aa2 013a
00000150: 144f 433b d76c bdba 14b9 93ba b695 673b
00000160: 3298 803c e2a9 5ebb 367c 543b 5f46 f7bb
00000170: ccd6 d33d fe0b aabc baba 8e3a 9941 b1bb
00000180: 7e30 0d3c 1aaf e73b f914 c5bb 18d4 293b
00000190: 39cb 063d 829d 82ba d0bb 63bc 33b4 283b
000001a0: a3e7 03bc 7977 8b3b e180 1cbe ee02 ed3b
000001b0: 05b0 7a3a 1bb8 24bc 9582 8fbb eda8 9bbb
000001c0: c49d a53a fcab 0abe a9c4 143c f4bf 1ebc
000001d0: a157 3dbb 39ef 093e ab7e eb3d 5748 7ebc
000001e0: 11f7 a0bb b3e1 9e3b 956b 98bb 3724 38bc
000001f0: 5caf b23b acb5 603d 3476 c9bb 8f14 05bc
-0.0062058964 -0.002912593 -0.0019039285 0.011143315 -0.004900747 0.0018204165 -0.004829651 -0.010999342
0.010404351 0.0017237474 -0.0015761673 -0.0023647796 0.021604043 0.003928182 -0.0030985891 0.084535696
-0.17002806 0.002320655 0.0070062117 -0.0047545177 0.00203281 0.109229945 -0.0009091663 -0.011374946
-0.10833025 0.001980762 -0.10226136 -0.0031171886 0.004678813 0.009712153 -0.0056978725 -0.00068201165
-0.006044453 -0.0056229816 0.0047876663 0.0007600195 0.06036235 0.0059274114 -0.004739028 -0.0063501084
-0.013156673 -0.011059568 0.059151113 -0.0039396896 0.005901747 0.102427974 0.010517326 0.043004334
0.002543768 -0.007709136 0.0044489386 0.013282417 0.0059347376 0.005470602 -0.016516713 -0.015655233
-0.00021417349 0.0051652356 0.0050155683 -0.0031710798 0.0041761734 -0.0014653514 -0.008852716 0.002430649
-0.006675279 0.011597364 0.0030607644 -0.0038311905 -0.012549005 0.059516616 0.02811004 -0.03050329
-0.010923835 0.0098503195 -0.06354626 0.009716968 -0.004802832 0.0008910901 0.0093778595 0.01388704
0.0072090887 -0.007793975 -0.005354382 0.0004945161 0.0029801773 -0.0014451992 -0.0011270368 0.0035337037
0.015697572 -0.003397577 0.0032422668 -0.0075462307 0.10343704 -0.020757671 0.0010889389 -0.005409431
0.0086175185 0.0070704343 -0.006014463 0.0025913771 0.032908652 -0.0009965154 -0.013899758 0.0025742173
-0.008050832 0.0042561856 -0.15283538 0.0072330153 0.0009562972 -0.01005366 -0.0043795803 -0.004750362
0.0012635519 -0.1354217 0.009080091 -0.00968932 -0.0028891342 0.13470162 0.114987694 -0.015520177
-0.004912265 0.004848683 -0.0046514967 -0.011239103 0.0054530334 0.054860756 -0.006148124 -0.008122577
